src/RNA/rna_global_model_sbai_ultimate.pth (torch, 204564 bytes, 8 tensors)

model.0.weight f4 [150, 10]
0	0xbb8ff28e	-0.0043929284
1	0x3e7d1fdb	0.24719183
2	0x3e0df373	0.138624
3	0x3bba070c	0.0056771096
4	0x3d476eae	0.048689537
5	0xbd4ff3b7	-0.050769534
6	0x3b2d6b75	0.0026461754
7	0xbc4369cc	-0.011927079
8	0x3e8ca596	0.27470082
9	0x3dc405cd	0.09571419
10	0xba25fc84	-0.0006331878
11	0xbddbbec2	-0.107297435
12	0xbcbbbf4d	-0.022918368
13	0x3d5c2a28	0.05375114
14	0xbee8238a	-0.45339614
15	0x3ccd5208	0.02506353
16	0x3c9381cb	0.018006226
17	0x3ce9095e	0.02844685
18	0xbe5e3f9e	-0.21703956
19	0xbd414b24	-0.0471908
20	0x3af72d38	0.0018858081
21	0x3db451a1	0.08804632
22	0x3de4633e	0.111517414
23	0x3ee5b7e3	0.44866857
24	0xbd6a7381	-0.05723906
25	0xbd161ecf	-0.036650475
26	0x3c58d5a2	0.013234528
27	0x3e50658e	0.2035124
28	0x3d1ba6a4	0.038000718
29	0x3dce6b9e	0.1007912
30	0x3c897b7d	0.016782517
31	0xbdb41a95	-0.087941326
32	0x3f0436eb	0.516463
33	0xbc0d42a6	-0.008621847
34	0x3d66fbf5	0.05639263
35	0xbe432e7f	-0.19060706
36	0xbd559204	-0.052141204
37	0xbce0e834	-0.027454473
38	0xbd24f29f	-0.040270444
39	0x3dda8351	0.10669578
40	0xbc9ac679	-0.018893467
41	0xbc4952e6	-0.012287831
42	0xbbe50f2d	-0.0069903345
43	0xba1e7718	-0.0006044968
44	0x3c2620a7	0.010139621
45	0xbc7235f3	-0.01478337
46	0xba27615e	-0.0006385053
47	0x3bb7a327	0.005604166
48	0xbc2ad33a	-0.010426337
49	0xbbc80c12	-0.0061049545
50	0xbc3e78ad	-0.011625451
51	0x3e1218ae	0.14267227
52	0x3df91fea	0.1216429
53	0x3dec7486	0.115456626
54	0x3df9a60a	0.121898726
55	0xbe9b52f6	-0.30336732
56	0x3d5d0808	0.053962737
57	0x3da5cc56	0.080956146
58	0x3d588bb4	0.052867606
59	0xbe1babe3	-0.15202288
60	0x3c08e800	0.008356094
61	0x3cc97abc	0.024594657
62	0x3da9a215	0.08282868
63	0x3d454e6f	0.048170503
64	0x3d104580	0.03522253
65	0x3cb12bde	0.021627363
66	0x3d775532	0.060383983
67	0x3d9757cf	0.07389795
68	0x3d893f93	0.06701579
69	0xbee8a75f	-0.45440194
70	0xbb1f3ed4	-0.0024298923
71	0xbca15ecf	-0.019698529
72	0x3edd2bb6	0.4319741
73	0x3ea04cda	0.31308633
74	0xbe1e973f	-0.15487383
75	0xbc169b81	-0.009192348
76	0xbd8c7b1e	-0.0685942
77	0xbc2a489d	-0.010393289
78	0x3dc2b31f	0.09506821
79	0x3d7d8c9e	0.06190168
80	0xbba302bc	-0.004974691
81	0x3dbdf5d0	0.09275401
82	0xbd6f135f	-0.058368083
83	0x3e7733f7	0.24140917
84	0xbddaa878	-0.10676664
85	0x3e025123	0.12726264
86	0x3dbb52b7	0.09146636
87	0x3e18ff6f	0.1494119
88	0x3d7ce1e0	0.06173885
89	0x3dd2f6aa	0.10300954
90	0xbb5c0645	-0.0033573073
91	0xbb28b5cd	-0.0025743127
92	0xbc2d1695	-0.010564466
93	0xbb60f63d	-0.0034326457
94	0x3c73824b	0.014862607
95	0x3aa2ff62	0.0012435729
96	0x3c8267a5	0.015918562
97	0xba93b67d	-0.0011269596
98	0xbc2da5a6	-0.010598576
99	0xbc2be602	-0.01049185
100	0xbcd481cb	-0.025940796
101	0xbcd701ce	-0.026245978
102	0x3e516c29	0.20451416
103	0xbce80493	-0.028322494
104	0x3d098c69	0.03358117
105	0xbcfb9331	-0.030709835
106	0x3d1f4218	0.03888139
107	0xbe425692	-0.18978336
108	0x3e0a3421	0.13496448
109	0xbde26255	-0.110539116
110	0xbc94d17f	-0.018166302
111	0xbdb176c2	-0.086652294
112	0x3ed76732	0.4207092
113	0xbd8f3c99	-0.0699398
114	0xbe1c2ff1	-0.15252663
115	0x3c4df851	0.01257141
116	0x3d6db44d	0.058033276
117	0x3e05958a	0.13045326
118	0x3cc2f53c	0.023798577
119	0xbd9ba301	-0.0759945
120	0x3cc7e06f	0.02439901
121	0x3e2be2d4	0.16785747
122	0xba7419b4	-0.00093116914
123	0xbc155909	-0.009115466
124	0xbc424d72	-0.011859285
125	0x3e016133	0.12634735
126	0xbe13df17	-0.14440571
127	0xbdfa6420	-0.122261286
128	0x3e3a475b	0.18191282
129	0x3d1344d8	0.035954326
130	0x3a013778	0.0004929225
131	0xbeb54bf0	-0.35409498
132	0xbd397501	-0.0452776
133	0xbce9074c	-0.028445862
134	0xbc6c9ddd	-0.014441934
135	0xbea68b3a	-0.32528096
136	0x3c031bb1	0.008002208
137	0x3b9067eb	0.0044069192
138	0x3b8f02b2	0.004364335
139	0x3d3b3229	0.045702133
140	0x3c9249cf	0.01785746
141	0x3df75805	0.12077335
142	0xbcb1b7fc	-0.021694176
143	0xbe5bfd91	-0.21483447
144	0x3e4d4805	0.20047005
145	0xbbcba74b	-0.0062150112
146	0x3cf4c45f	0.029878793
147	0xbe5cd2ae	-0.21564743
148	0xbd9be101	-0.076112755
149	0x3d6191cb	0.05507068
150	0x3c4386f3	0.01193403
151	0xbc5390d7	-0.0129129505
152	0x3d85ebe8	0.06539136
153	0x3deb4f4a	0.114897326
154	0xbd2b9a3b	-0.041895133
155	0xbe826f3e	-0.25475496
156	0xbcd3d1e1	-0.025856914
157	0x3cddb43b	0.02706348
158	0xbdd2367f	-0.102643006
159	0xbd810135	-0.06299058
160	0x3c7be97b	0.01537549
161	0x3c1f1237	0.009708933
162	0x3b7fc168	0.0039025191
163	0x3a062658	0.0005117408
164	0xbc80f32a	-0.01574095
165	0x3c2551e9	0.01009033
166	0x3adf98c8	0.0017059082
167	0xbc0b2b45	-0.008494203
168	0x3c366026	0.011131322
169	0x3c004573	0.007829058
170	0xbc2f1427	-0.010685957
171	0xbc074519	-0.00825622
172	0x3d1b3688	0.037893802
173	0xbedb864b	-0.42875895
174	0xbccef9c8	-0.02526559
175	0x3c163cb5	0.009169747
176	0xbccd16a5	-0.025035212
177	0xbe9f07aa	-0.31060535
178	0x3d232fde	0.03984057
179	0x3d8a3a95	0.06749455
180	0x3c6ce77e	0.014459489
181	0xbce9b929	-0.028530674
182	0xbe8846be	-0.26616472
183	0xbd656dd4	-0.056012943
184	0xbc9b71a9	-0.018975096
185	0xbd5b60c9	-0.0535591
186	0x3e4bca95	0.19901498
187	0xbd6efa06	-0.05834391
188	0xbd2ed35b	-0.042682033
189	0x3e9d7a21	0.3075724
190	0xbc17fd51	-0.009276704
191	0xbda4b71e	-0.08042739
192	0x3d3b1272	0.045671888
193	0x3e8b2de6	0.27183455
194	0x3db33e0f	0.08752071
195	0x3ca25b87	0.019819034
196	0x3cf2db4e	0.029645588
197	0x3c6fa27d	0.014626143
198	0xbe73c9ef	-0.238075
199	0x3e09aa41	0.13443853
200	0x3c56e0ca	0.013115117
201	0x3e9c4efe	0.30529016
202	0x3ec5debb	0.38646492
203	0x3ebf8909	0.37409237
204	0x3ebad3e5	0.36489788
205	0x3d1943f3	0.037418317
206	0x3cfd9606	0.030955326
207	0x3d263c9a	0.040585138
208	0x3d3643a2	0.044498093
209	0x3ded5e4c	0.11590251
210	0xbbfb6e70	-0.0076730773
211	0xbed6a5e2	-0.41923434
212	0xbd3510f6	-0.04420563
213	0xbaaf990b	-0.0013397051
214	0xbd3cd3a1	-0.046100263
215	0xbd8ccd77	-0.06875127
216	0x3d43154c	0.047627732
217	0x3e135f0e	0.14391729
218	0x3b9c1734	0.004763508
219	0x3cdc33a0	0.026880085
220	0x3c6014cb	0.013676832
221	0x3e823ff6	0.25439423
222	0xbd86c499	-0.06580467
223	0x3cbec06c	0.023285113
224	0x3e890df0	0.26768446
225	0xbd4feb8a	-0.050761737
226	0xbde00170	-0.10937774
227	0x3db6aab0	0.08919275
228	0xbe399e2b	-0.18126743
229	0xbc863749	-0.016383784
230	0xbc761e09	-0.015021809
231	0xbc1cc859	-0.009569251
232	0xbb9b3b45	-0.00473729
233	0xba6fa543	-0.00091417524
234	0x3c7fcc20	0.015612632
235	0xbc2d6dd9	-0.010585272
236	0xba458176	-0.0007534245
237	0x3c022d25	0.007945334
238	0xbc38edc5	-0.011287157
239	0xbc0ce0da	-0.008598531
240	0xbbe59643	-0.007006438
241	0x3f116a5a	0.56802905
242	0xbe0fac57	-0.14030586
243	0xbe03430e	-0.12818548
244	0xbda14abc	-0.078755826
245	0xbe50891c	-0.20364803
246	0x3be5ee94	0.007016966
247	0xbd2a1ab4	-0.041529372
248	0x3c1dbcd4	0.00962754
249	0x3c8a54d6	0.016886156
250	0x3bd0cd4d	0.00637213
251	0xbe6f0a43	-0.23343758
252	0x3ec7962b	0.38981757
253	0xbdcd7212	-0.10031523
254	0xbbf3129d	-0.0074179904
255	0x3d4cff76	0.050048314

model.0.bias f4 [150]
0	0x3d589746	0.05287864
1	0xbec3a3c4	-0.3821088
2	0x3e3c3475	0.18379386
3	0x3e01e90f	0.12686561
4	0x3bd16dba	0.0063912543
5	0x3e7db900	0.24777603
6	0x3ee8d128	0.45472074
7	0x3de7a4c5	0.11310724
8	0x3d2068ef	0.039162572
9	0x3c10ed23	0.0088456
10	0xbdf920de	-0.12164472
11	0x3c91430f	0.017732171
12	0xbd9dc09f	-0.07702755
13	0x3eea11ff	0.45716855
14	0x3df62027	0.12017851
15	0xbdde7851	-0.10862792
16	0xbbcbeaa2	-0.006223039
17	0x3e4ccecc	0.20000762
18	0xbeb949f1	-0.36189225
19	0x3b88cc02	0.0041747103
20	0x3e2f684e	0.17129633
21	0xbe7701ed	-0.24121828
22	0xbc1fcdee	-0.009753687
23	0x3beef3e4	0.0072922576
24	0xbda1f57f	-0.07908153
25	0xbdc005d5	-0.09376112
26	0xbd800c3f	-0.06252336
27	0x3f4810a1	0.78150374
28	0x3b326215	0.0027219106
29	0x3e196920	0.14981508
30	0x3ad795c0	0.0016447827
31	0x3deb27f3	0.11482229
32	0xbe07b45e	-0.13252398
33	0xbde0acc5	-0.10970453
34	0x3eb58115	0.35450044
35	0xbbf94727	-0.007607359
36	0x3bfba6b4	0.0076797847
37	0x3e2af1f6	0.16693863
38	0x3d989f6f	0.074522845
39	0xbc6bcbdc	-0.014391866
40	0xbee75f02	-0.45189673
41	0xbdce1007	-0.10061651
42	0x3e1c0985	0.15238006
43	0x3ae3aade	0.0017369648
44	0xbd574f9d	-0.05256616
45	0x3ec4b95b	0.38422665
46	0x3f146837	0.5797152
47	0xbbecd515	-0.00722755
48	0x3f3b8a3d	0.7325781
49	0x3cbd1b24	0.02308423
50	0x3efec9e1	0.49763396
51	0x3d5896b9	0.052878115
52	0xbe340c35	-0.17582782
53	0xbec71694	-0.38884413
54	0x3eaeff12	0.34178978
55	0x3c3ee05e	0.011650173
56	0xbbd7f806	-0.006590846
57	0xb978532b	-0.00023682106
58	0xbd4fde48	-0.050749093
59	0x3e099eac	0.13439435
60	0x3ca0531c	0.01957088
61	0xbd9cd9e4	-0.07658747
62	0xbd83bae7	-0.06432133
63	0xbd83c724	-0.064344674
64	0xbc1b945f	-0.009495824
65	0xbdded3ce	-0.10880242
66	0xbb5de96a	-0.003386105
67	0x3d0d1f50	0.03445369
68	0x3d253df5	0.04034229
69	0x3d51f6be	0.051260702
70	0x3d9be938	0.07612842
71	0x3d1a64a9	0.037693653
72	0x3b2c29b3	0.0026269972
73	0xbdb6b9e7	-0.08922177
74	0xbd1b8bca	-0.03797511
75	0x3b6a78f7	0.0035777667
76	0x3d5e6327	0.054293778
77	0xbdc1b152	-0.09457649
78	0xbd227425	-0.039661545
79	0x3da2e25e	0.07953332
80	0xbbc023ce	-0.0058636433
81	0xbe1933fe	-0.1496124
82	0xbda24d17	-0.0792486
83	0x3e1a900b	0.1509401
84	0x3c832983	0.016011005
85	0xbdce04f8	-0.100595415
86	0xbaa15575	-0.0012308793
87	0x3e01698d	0.1263792
88	0xbdbb4b88	-0.09145266
89	0xbd8588dc	-0.065202445
90	0x3e07aacf	0.13248752
91	0xbc90330f	-0.017602472
92	0x3ab66804	0.0013916497
93	0xbe23902d	-0.15972967
94	0x3e8d8e59	0.27647665
95	0x3e95f7d4	0.2929064
96	0x3ed8a3da	0.4231251
97	0x3efcd8ef	0.49384257
98	0xbe64bcc5	-0.22337635
99	0x3c43f8c4	0.011961166
100	0xbd8f5a20	-0.06999612
101	0x3f07fb04	0.53117394
102	0xbe10643b	-0.14100735
103	0xbdec6a22	-0.11543681
104	0x3e7a0727	0.24416791
105	0x3efbdd83	0.49192438
106	0x3ebdfab8	0.37105346
107	0x3c1aa921	0.009439738
108	0xbed91310	-0.42397356
109	0x3dfebf8a	0.12438877
110	0x3dfef1bb	0.1244845
111	0xbe01f83c	-0.1269235
112	0xbdfabcf9	-0.12243075
113	0xbcda966b	-0.026683053
114	0xbc74b748	-0.014936276
115	0x3d34b41c	0.04411708
116	0x3dbd4646	0.09241919
117	0xbc16416e	-0.009170873
118	0xbe960cbe	-0.29306597
119	0x3b884f8b	0.004159873
120	0x3e3cd3bd	0.18440147
121	0x3b98b634	0.004660392
122	0x3d70c531	0.058781806
123	0x3e4d52d0	0.20051122
124	0x3e0c1bcb	0.13682477
125	0xbf506c14	-0.81414914
126	0xbe014eb3	-0.12627678
127	0xbe9d0f49	-0.30675724
128	0xbe385da8	-0.18004477
129	0x3e92668e	0.28593868
130	0x3e71b396	0.23603663
131	0xbeff6174	-0.49879038
132	0xbd5fb9d5	-0.054620583
133	0xbd4ba223	-0.049715172
134	0xbdb939c8	-0.09044224
135	0x3d504b4b	0.050853055
136	0xbb91aa4d	-0.0044453503
137	0x3d861588	0.065470755
138	0x3ecbf49c	0.3983506
139	0x3e658526	0.22414073
140	0x3ee65c2a	0.4499219
141	0xbd1112a0	-0.035418153
142	0x3dc21e00	0.09478378
143	0xbc4629c5	-0.01209492
144	0x3e2ed7a6	0.17074451
145	0xbe3bd1b9	-0.18341722
146	0x3da29018	0.0793764
147	0xbe9b17f4	-0.30291712
148	0x3e2a603b	0.16638272
149	0x3e3cbae8	0.18430674

model.2.weight f4 [150, 150]
0	0xbe2467cd	-0.16055222
1	0x3da4b140	0.0804162
2	0xbdb2c6b3	-0.08729305
3	0x3d122c37	0.035686698
4	0xbb862455	-0.0040936866
5	0x3b6c098c	0.0036016433
6	0xbcbdad76	-0.023154002
7	0xbbbe8cfd	-0.005815147
8	0xbcc25338	-0.023721322
9	0x3bad4649	0.0052879197
10	0xbd257e5c	-0.04040371
11	0x3c8cc928	0.017185763
12	0xbe1ee96f	-0.15518735
13	0xbd2fb914	-0.042901114
14	0xbba59415	-0.005053053
15	0x3d8d07cb	0.06886252
16	0xbb00f0a5	-0.0019674685
17	0x3d058e14	0.0326062
18	0x3d9417c8	0.072310984
19	0xbdee2c7c	-0.116295785
20	0x3d2c1b32	0.042018123
21	0xbab10b2c	-0.0013507358
22	0x3b302296	0.0026876084
23	0xbbb594a2	-0.0055414
24	0x3b1cbdd7	0.0023916864
25	0xbd9d0021	-0.0766604
26	0x3ca3bf06	0.019988548
27	0xbcb65341	-0.022256495
28	0x3ce45515	0.027872602
29	0x3e165000	0.14678955
30	0x3be05917	0.006846558
31	0x3e230334	0.1591919
32	0x3d4ca3c5	0.04996087
33	0x3d7847bd	0.06061529
34	0x3aab6295	0.0013075644
35	0xbbe90576	-0.0071112467
36	0xbc8113c4	-0.015756495
37	0xbdb089ea	-0.08620055
38	0x3e05821b	0.13037913
39	0xbcedd9ba	-0.029034484
40	0xbc6923e3	-0.0142297475
41	0xbca0d21c	-0.019631438
42	0xbd8844cc	-0.06653747
43	0xbb8b6750	-0.004254259
44	0x3dba06e9	0.09083349
45	0xbd8543d7	-0.0650708
46	0xbd0a7a8c	-0.033808276
47	0xbbb2e9e0	-0.005460009
48	0xbce8b796	-0.028407853
49	0x3cba2d47	0.022726668
50	0xbd7df9b2	-0.062005706
51	0x3da899b3	0.08232441
52	0xbd9e9004	-0.077423126
53	0x3d99af60	0.07504153
54	0xbdc7e1d6	-0.09759872
55	0x3d3bb2d4	0.04582484
56	0xbab17149	-0.001353779
57	0xbc260fed	-0.010135633
58	0xbd217b44	-0.039424196
59	0xbd121ff3	-0.035675
60	0x3c6bd411	0.014393822
61	0xbd88b13b	-0.06674429
62	0xbd530b55	-0.05152448
63	0xbdcabb3b	-0.09898993
64	0x3c377625	0.011197601
65	0xbd44bff0	-0.04803461
66	0xbb01ace7	-0.0019786896
67	0xbe467797	-0.19381557
68	0x3d4fa1b4	0.05069132
69	0x3bde92ed	0.0067924173
70	0x3d6f1bac	0.058376
71	0x3d11aa46	0.035562776
72	0x3bdbd576	0.006708796
73	0xbe1b7b42	-0.15183738
74	0xbb1a20cf	-0.002351809
75	0xbc1628fa	-0.009165043
76	0x3d010f34	0.03150864
77	0xbe512bcd	-0.20426865
78	0xbcaeca2d	-0.02133664
79	0xbd3dbcf7	-0.04632279
80	0x3b178229	0.0023118353
81	0xbca32d29	-0.019918995
82	0x3d91bc13	0.071159504
83	0xbc98acd5	-0.0186371
84	0x3d1e6d27	0.038678315
85	0xbe51c037	-0.2048348
86	0xbd6c83c7	-0.05774286
87	0x3e300fa2	0.17193463
88	0xbdc920a1	-0.098206766
89	0xbd2e270a	-0.0425177
90	0xbdfb3387	-0.122656874
91	0x3d313056	0.043258987
92	0x3d818e0a	0.0632592
93	0xbe1379a4	-0.14401871
94	0x3c6c3327	0.014416493
95	0xbc08ca76	-0.008349052
96	0x3cd45b6d	0.025922501
97	0xbdc62170	-0.096743464
98	0x3d138779	0.03601787
99	0x3ca1df7b	0.019759884
100	0x3cfbc5dd	0.030733997
101	0x3cedaf7e	0.029014345
102	0xbce1f3fa	-0.027582157
103	0x3d0ad6e0	0.033896327
104	0xbd0da91f	-0.034585115
105	0x3be37f86	0.006942692
106	0x3d85f19e	0.065402254
107	0x3dec75fb	0.115459405
108	0xbd409fc1	-0.047027353
109	0x3e07860f	0.13234733
110	0xbe3394b0	-0.17537189
111	0xbcbf25b0	-0.0233334
112	0x3d33cb92	0.04389531
113	0x3cbc5e82	0.022994284
114	0x3d4ced0d	0.050030757
115	0x3d441847	0.047874715
116	0x3caa19e4	0.020764299
117	0x383f985e	4.567985e-05
118	0x3d194413	0.037418436
119	0xbb24495d	-0.0025068142
120	0x3dac8b13	0.08424964
121	0x3b22614d	0.0024777234
122	0x3bf19a51	0.0073731323
123	0x3dec1b40	0.11528635
124	0x3d9bcd71	0.07607544
125	0x3c34a10d	0.011024726
126	0x3d68a600	0.056798935
127	0xbd48119e	-0.048844926
128	0x3ddd898b	0.1081725
129	0xbc8d0271	-0.017213078
130	0xbd4818d8	-0.048851818
131	0xbd84a193	-0.0647613
132	0x3d894a7e	0.067036614
133	0x3dda62f3	0.10663404
134	0xbe92a50e	-0.28641552
135	0xbe15a432	-0.14613417
136	0xbc2e2ac2	-0.010630311
137	0xbe010d01	-0.12602617
138	0x3b6aa31c	0.0035802787
139	0x3ccfd706	0.025371086
140	0x3a4bdb23	0.00077764894
141	0x3d845498	0.064614475
142	0xbd9260b9	-0.07147355
143	0x3ad58606	0.0016290552
144	0x3cc6ebf3	0.024282431
145	0xbe2256d1	-0.1585343
146	0xbdf91a19	-0.12163181
147	0xbc33089c	-0.010927346
148	0xbb4753ee	-0.0030415016
149	0xbdb94c13	-0.09047713
150	0x3df480b0	0.11938608
151	0x3e19d517	0.15022694
152	0xbe6636a0	-0.22481775
153	0x3d043101	0.032273296
154	0xbc010b38	-0.00787621
155	0xbba17d41	-0.0049282615
156	0x3ed8ab3d	0.42318144
157	0x3e3b35e0	0.1828227
158	0xbc1b60be	-0.009483514
159	0x3cbc772e	0.023006048
160	0xbe2b21ba	-0.16712084
161	0xbe3b86cc	-0.1831314
162	0xbe22e46a	-0.15907446
163	0x3d1b2ded	0.037885595
164	0x3e48c18f	0.19605087
165	0x3df61706	0.1201611
166	0x3c9b2a5f	0.018941103
167	0x3eb4b925	0.35297504
168	0xbdba9f1e	-0.091123804
169	0x3debfe45	0.115231074
170	0x3f0cf40a	0.55059874
171	0x3db5b7b4	0.08872929
172	0xbe203dd9	-0.15648593
173	0xbc8e38c5	-0.017361054
174	0xbe049963	-0.12949137
175	0xbbe45fd4	-0.0069694314
176	0xbca38f3a	-0.019965757
177	0x3f1c87ee	0.6114491
178	0x3cc52434	0.024065115
179	0x3da06787	0.07832246
180	0xbb4307aa	-0.0029759207
181	0x3e53c7b7	0.20681654
182	0xbe84dc70	-0.2594943
183	0xbd983416	-0.074318096
184	0x3e889559	0.26676443
185	0xbc2f2b0d	-0.010691416
186	0x3cb0d4e1	0.021585884
187	0xbdae8247	-0.08520942
188	0xbc249cb1	-0.010047124
189	0xbdd7bcea	-0.105340794
190	0xbe22898e	-0.15872785
191	0xbe9d13a8	-0.3067906
192	0xbcd52de0	-0.026022851
193	0xbca3bbaa	-0.019986946
194	0x3e64017b	0.2226619
195	0x3e0befc6	0.13665685
196	0x3e372c41	0.17887975
197	0x3c6c129c	0.014408734
198	0xbe05a91f	-0.13052796
199	0x3e228a95	0.15873177
200	0xbd7da9dd	-0.061929572
201	0x3cfd9861	0.030956449
202	0xbbd9ac69	-0.0066428673
203	0xbe073fa0	-0.13207865
204	0xbd078e22	-0.033094533
205	0xbdebce1b	-0.11513921
206	0x3ca84f1f	0.02054554
207	0xbcc1a856	-0.02363984
208	0x3c879c13	0.016553914
209	0x3b697f21	0.0035628753
210	0x3eab53ac	0.33462274
211	0xbe501cb4	-0.2032345
212	0x3e75eaa0	0.24015284
213	0xbdc9728e	-0.09836303
214	0xbd5cbc26	-0.05389037
215	0xbd259163	-0.040421855
216	0x3c6bc0e3	0.0143892495
217	0x3e565d1b	0.20933954
218	0x3db3b2e5	0.08774356
219	0x3eb7745e	0.3583097
220	0x3eb422a7	0.35182688
221	0xbb9b2ad1	-0.0047353287
222	0x3c58b596	0.013226887
223	0x3cb142cb	0.021638295
224	0xbd1d6836	-0.03842946
225	0xbd8f6b52	-0.070028916
226	0xbb9cf409	-0.0047898334
227	0xbda31d56	-0.0796458
228	0xbe27f31c	-0.16401333
229	0x3d4a7e55	0.049436886
230	0xbd47fa71	-0.048822824
231	0xbe0a2676	-0.13491234
232	0x3e2fafab	0.17156856
233	0xbd7247dc	-0.05915056
234	0x3cdfc1e0	0.027314126
235	0xbe2674a0	-0.16255426
236	0x3dbbfbe5	0.091789044
237	0x3daf10c5	0.085481204
238	0xbd8a78f5	-0.06761352
239	0xbdd32144	-0.10309079
240	0xbde71fed	-0.11285386
241	0x3c64f0fc	0.013973471
242	0x3e0fb942	0.14035514
243	0xbd42caf8	-0.047556847
244	0xbde6b6f3	-0.112653635
245	0x3de4e6af	0.11176812
246	0x3e0202cc	0.1269638
247	0xbcc68da7	-0.024237467
248	0x3dd82de7	0.1055563
249	0x3da1fc28	0.07909423
250	0x3de07cf5	0.10961334
251	0x3e200acc	0.15629119
252	0x3d2a166b	0.041525286
253	0xbe84aa98	-0.25911403
254	0xbc991fbe	-0.018691894
255	0x3eea063f	0.4570789

model.2.bias f4 [150]
0	0xbd4a29c0	-0.049356222
1	0x3eb389ec	0.35066164
2	0x3cac5760	0.021037757
3	0xbd9265ca	-0.07148321
4	0x3dd7247f	0.10505008
5	0x3dbeaa10	0.093097806
6	0xbdd58752	-0.10426201
7	0xbbf88e05	-0.0075852894
8	0x3f24d469	0.6438661
9	0x3f1fe311	0.6245585
10	0xbc1a4d17	-0.009417794
11	0x3d17c494	0.037052706
12	0xbd879dcf	-0.066218965
13	0xbdf77abc	-0.120839566
14	0x3e02ebf4	0.12785321
15	0xbc205eb1	-0.009788201
16	0xbdfd59bf	-0.12370633
17	0x3defc894	0.11708179
18	0x3c2f48e7	0.010698534
19	0xbf105fa9	-0.56395966
20	0xbeddcbc0	-0.4331951
21	0x3c1b5046	0.009479588
22	0x3cde8925	0.027165005
23	0xbf4f5681	-0.8099137
24	0xbe3c824d	-0.18409081
25	0x3e229c65	0.15879972
26	0x3cafcf64	0.021461196
27	0xbcec9d74	-0.028883673
28	0x3d8192b8	0.063268125
29	0x3dc1313c	0.09433219
30	0xbe31586a	-0.17318884
31	0x3df9aefa	0.12191577
32	0xbd813aa4	-0.06310013
33	0x3d6cd0f4	0.05781646
34	0x3e3db990	0.18527818
35	0xbd94a545	-0.07258085
36	0xbf6b66fc	-0.91954017
37	0x3d0c4813	0.034248423
38	0xbeb71f23	-0.35765943
39	0xbddf5386	-0.10904603
40	0xbe1fe03d	-0.15612884
41	0x3e775631	0.24153973
42	0xbf5fedb7	-0.874721
43	0xbd998df1	-0.07497776
44	0x3e8c7914	0.27436125
45	0x3c8df6c1	0.017329575
46	0xbd6f8771	-0.058478776
47	0xbe51cf74	-0.20489293
48	0x3d94570b	0.07243165
49	0x3f67c6ac	0.90537524
50	0xbed4f6d8	-0.41594577
51	0x3d2f36a2	0.04277671
52	0xbd625046	-0.055252336
53	0xbd802914	-0.06257835
54	0xbdec997f	-0.115527146
55	0x3dbf1001	0.093292244
56	0xbce88ae8	-0.028386548
57	0xbdfb4b14	-0.122701794
58	0x3bdde972	0.0067722136
59	0xbebcc120	-0.36866093
60	0xbf1d118f	-0.6135492
61	0x3f954676	1.1662128
62	0x3f299ce3	0.66255015
63	0x3de0b2f6	0.10971634
64	0x3dbf6cb8	0.09346908
65	0x3f0869b0	0.53286266
66	0xbf909e9c	-1.1298404
67	0xbdf0e892	-0.11763109
68	0xb91885e6	-0.0001454573
69	0x3f159dd9	0.5844398
70	0x3e876663	0.26445302
71	0xbec93e7a	-0.39305478
72	0xbf9bfec9	-1.2187129
73	0xbf33dc67	-0.7025818
74	0x3dc3bbba	0.095572904
75	0xbd2deff2	-0.042465158
76	0x3eceaad7	0.40364715
77	0xbf1e3ffd	-0.6181639
78	0xbd8d65aa	-0.069041565
79	0xbd80701e	-0.06271385
80	0xbe839406	-0.2569887
81	0x3e0fc6b5	0.14040644
82	0x3cd94381	0.026521446
83	0xbe3ba35c	-0.18324035
84	0xbdd869e4	-0.10567072
85	0xbb65bd15	-0.0035055329
86	0x3c013e0c	0.007888328
87	0x3e914834	0.283754
88	0xbcafe8fb	-0.021473398
89	0xb9cb0593	-0.0003872333
90	0x3e66e36e	0.22547695
91	0x3d48db94	0.04903753
92	0x3e8d5cad	0.27609769
93	0xbe4bd60f	-0.19905876
94	0xbc2469c8	-0.010034986
95	0x3dc5bad3	0.096547745
96	0x3df5f86c	0.12010273
97	0xbcdbe4b9	-0.026842462
98	0xbe316493	-0.17323522
99	0xbded7b00	-0.11595726
100	0x3ebe965d	0.37224093
101	0xbe85fceb	-0.26169524
102	0xbe45cb33	-0.19315796
103	0x3deba26e	0.115055904
104	0x3e414a56	0.18876013
105	0x3e71eee6	0.23626289
106	0x3d001036	0.03126546
107	0xbc34df8d	-0.011039627
108	0x3c5cc860	0.0134755075
109	0x3e12c925	0.14334543
110	0xbee6fdce	-0.45115513
111	0xbd63a70f	-0.05557924
112	0x3bda95e2	0.0066706995
113	0x3f285f20	0.6577015
114	0x3e0c7318	0.1371578
115	0xbd4a7dcc	-0.049436375
116	0xbe35033c	-0.17677015
117	0x3e84e3c6	0.25955027
118	0xbfa2ff65	-1.273419
119	0x3f498e1b	0.7873246
120	0xbc3a9fce	-0.0113906395
121	0xbf6909c0	-0.910305
122	0x3d003508	0.031300575
123	0xbf91b88b	-1.1384443
124	0x3dbcec30	0.09224737
125	0xbec49fe7	-0.38403246
126	0x3e4fd4fd	0.20296092
127	0xbf842209	-1.0322887
128	0xbe4b6a29	-0.19864716
129	0x3d449eb6	0.04800292
130	0x3def2095	0.116761364
131	0x3f1f68e0	0.622694
132	0x3daba776	0.0838155
133	0x3f2a6889	0.6656576
134	0x3e9035db	0.28166088
135	0xbcc3e525	-0.023912976
136	0x3deabcd3	0.114617966
137	0x3e129d6c	0.14317864
138	0xbca93cb6	-0.020658832
139	0xbd4ff262	-0.050768264
140	0x3f3e6bd7	0.743833
141	0xbed72180	-0.42017746
142	0xbf2fa914	-0.6861737
143	0xbe783117	-0.24237476
144	0x3f6d49b8	0.9269061
145	0xbd4a1965	-0.049340624
146	0x3f9af8b9	1.2107154
147	0x3b474d84	0.0030411193
148	0xbde1e7f2	-0.11030568
149	0x3f2eb826	0.6824974

model.4.weight f4 [150, 150]
0	0xbb0556c3	-0.0020345903
1	0xbde9d5a8	-0.11417705
2	0xbd4fef9e	-0.050765626
3	0x3b8a3a5a	0.004218382
4	0x39635db4	0.00021683314
5	0x3bcf1c8e	0.0063205427
6	0x3d12afcf	0.035812195
7	0xba1c0d90	-0.00059529487
8	0xbc121839	-0.008916908
9	0x3e6e000b	0.23242204
10	0x3bd28881	0.006424964
11	0xbc980759	-0.018558191
12	0x3b06be7e	0.002056032
13	0x3b88cb66	0.0041746376
14	0xbb0eb4bb	-0.0021775204
15	0x3c18aa8d	0.009318006
16	0x3c22c9b7	0.009935788
17	0xbc0451b4	-0.00807612
18	0x3bedebbc	0.0072607677
19	0x3d68072d	0.05664747
20	0x3ed0c307	0.40773794
21	0xbc3f18f0	-0.01166366
22	0xba617a2c	-0.0008601274
23	0x3c018e9c	0.007907536
24	0x3d0e290d	0.034707118
25	0xbc29b2ce	-0.010357572
26	0x3b5bea05	0.0033556235
27	0x3bd1aa50	0.0063984767
28	0xbd024ed0	-0.031813443
29	0x3c9d77ae	0.019222107
30	0xbcba1984	-0.022717245
31	0xbbc97346	-0.006147775
32	0xbcb0a7ac	-0.021564327
33	0xbc33a83c	-0.010965403
34	0xbd244aa9	-0.040110264
35	0x3cd43522	0.025904242
36	0x3e5c33fb	0.21504204
37	0x3ae55fdc	0.0017499882
38	0xbd066e29	-0.0328199
39	0x3c633e88	0.013869889
40	0xbd6f716f	-0.058457788
41	0x3d384354	0.044986084
42	0x3e43e0bb	0.19128697
43	0xbaf7b3a5	-0.0018898143
44	0xbd1af77a	-0.03783367
45	0xbb201299	-0.0024425148
46	0xbaefd5aa	-0.001829793
47	0xbf1fabbd	-0.62371427
48	0xbbbbb0c3	-0.0057278587
49	0xbe826153	-0.25464877
50	0xbd4b7879	-0.04967544
51	0x3daa16a2	0.08305098
52	0x3be2b748	0.0069188215
53	0x3b8a4c3e	0.0042205146
54	0xbc92b285	-0.01790739
55	0xbb2289ec	-0.0024801446
56	0xbcbc62df	-0.022996364
57	0x3c21dc30	0.009879157
58	0xbca48aff	-0.02008581
59	0xbcab3532	-0.020899389
60	0x3e1ce6b3	0.1532238
61	0xbd2a9b75	-0.04165216
62	0x3d811a65	0.063038625
63	0x3b0c8045	0.002143876
64	0xbd3e5fea	-0.04647819
65	0xbd39f7fa	-0.045402505
66	0x3b05838a	0.0020372593
67	0x3bdae2a7	0.006679851
68	0xbef6da68	-0.48213506
69	0x3c8eacb2	0.017416332
70	0xbcafcf46	-0.02146114
71	0xbc0ec015	-0.008712788
72	0x3e1d8dd7	0.15386139
73	0xbbb213c9	-0.0054344875
74	0x3bba5107	0.0056859287
75	0xbcb6f289	-0.022332447
76	0xbd9fde70	-0.078060985
77	0x3bdc55be	0.0067240885
78	0xbceeeb9f	-0.029165087
79	0x3d8afff1	0.06787098
80	0x3e616559	0.22011317
81	0x3b9d0fa2	0.0047931233
82	0x3c1c88d6	0.009554109
83	0xbc518fd5	-0.01279064
84	0x3c370622	0.011170896
85	0xbb6d8b56	-0.003624638
86	0xbc447e00	-0.011992931
87	0xbca2f68c	-0.019892953
88	0x3d408129	0.046998177
89	0x3bb9e4f8	0.005673047
90	0xbdf7715a	-0.12082167
91	0x3be75b09	0.007060413
92	0x3e443464	0.1916061
93	0xbc8d0af0	-0.01721713
94	0x3b25b4f8	0.0025284868
95	0xbc427182	-0.011867883
96	0xbb630614	-0.0034641074
97	0xbb3f81b8	-0.0029221606
98	0xbbd3f427	-0.006468314
99	0xbc97d1ce	-0.01853266
100	0x3c62aa80	0.013834596
101	0x3c08980a	0.00833703
102	0xbd275d3a	-0.040860392
103	0xbb3c242c	-0.0028708084
104	0xbbd79b3f	-0.006579786
105	0x3cc8e47f	0.024523018
106	0x3d7b23d3	0.06131346
107	0xb9718d15	-0.00023036108
108	0x3b6866b9	0.0035461618
109	0xbbc28933	-0.0059367656
110	0x3cb49962	0.022045795
111	0x3b724169	0.0036965257
112	0x3981854a	0.00024704105
113	0xbe278b83	-0.16361813
114	0xbc12163d	-0.008916435
115	0x3c121ee0	0.008918494
116	0x3c4b5188	0.012409575
117	0x3cb70bcc	0.022344492
118	0x3e65b6b7	0.22432981
119	0xbe0091ee	-0.12555668
120	0xbc1e1414	-0.009648342
121	0x3c84fd58	0.016234085
122	0xbc51fa83	-0.012816074
123	0x3d3c1c0a	0.045925178
124	0x3e93d281	0.2887154
125	0xbb430fd8	-0.0029764082
126	0xbde1c8df	-0.11024641
127	0x3e7ec153	0.24878435
128	0x3d402563	0.046910655
129	0x3e1060f0	0.14099479
130	0x3c97b121	0.018517079
131	0x3c87daa6	0.016583752
132	0x3b78cbf3	0.003796336
133	0xbda2ba4b	-0.07945689
134	0xbc024d4a	-0.007952997
135	0xbaa8a834	-0.0012867511
136	0xbcaea03f	-0.021316646
137	0x3a2ec35f	0.0006666686
138	0xbc687e1a	-0.014190221
139	0xbbb7d772	-0.0056104
140	0xbe0c3fdb	-0.13696234
141	0x3d006d5b	0.03135429
142	0xbc506d6f	-0.0127214035
143	0x3d33430e	0.04376512
144	0xbc0b0cab	-0.008486907
145	0xbb929f6f	-0.0044745724
146	0xbe46a98b	-0.19400613
147	0xbc16a1fa	-0.009193892
148	0xbc8823ee	-0.016618695
149	0x3c5ad5a0	0.013356596
150	0x3cbdf910	0.023190051
151	0xbdf52bb9	-0.1197123
152	0x3d89a3d3	0.067207
153	0x3a3e5766	0.0007260948
154	0xbc24f1fa	-0.010067457
155	0xbbae41d5	-0.0053179064
156	0xbc9d40f9	-0.01919602
157	0xbd1adc5e	-0.037807815
158	0xbe489097	-0.19586407
159	0x3a5f5f15	0.0008520943
160	0xbc0c725c	-0.008572187
161	0x3cceada5	0.025229285
162	0x3b6b03d9	0.0035860448
163	0x3d9250a9	0.07144291
164	0xbcd87f17	-0.026427789
165	0xbb8c285b	-0.0042772717
166	0xbc1ce82e	-0.00957684
167	0x3c99c46c	0.018770419
168	0xb97c1ed4	-0.00024044077
169	0x3df78671	0.120861895
170	0xbd49538a	-0.049151935
171	0x3b9a5cbb	0.0047107614
172	0x3d2dfe33	0.04247875
173	0x3a79b79f	0.0009525958
174	0xbc5130df	-0.012767999
175	0xbd4277ac	-0.04747741
176	0x3d0597f1	0.032615606
177	0xbadcb48c	-0.0016838475
178	0x3d5182cc	0.05115013
179	0x3c9db42d	0.019250954
180	0xbcea14f2	-0.02857444
181	0xbbe31c2d	-0.006930849
182	0x3d6a64e8	0.057225138
183	0x3b26edd9	0.0025471358
184	0x3d79dd77	0.06100222
185	0x3c9741d3	0.018464005
186	0x3dc52412	0.096260205
187	0x3c222ccd	0.009898377
188	0xbd827d2f	-0.06371533
189	0xbe5a645b	-0.21327345
190	0xbceb5d4b	-0.028731009
191	0xbc26c9a6	-0.010179913
192	0x3ba799c9	0.005114768
193	0xbcb73e88	-0.022368684
194	0xba3fb9dc	-0.0007313767
195	0xbce66080	-0.028122187
196	0x3b03873e	0.0020069624
197	0x3d4c7313	0.04991443
198	0xbc020b51	-0.007937268
199	0xbd519c65	-0.05117454
200	0xbc8125dd	-0.015765125
201	0xbd1ff4bd	-0.03905176
202	0x3cdcb1de	0.026940282
203	0x3bc0d830	0.0058851466
204	0xbd290c86	-0.04127171
205	0x3a1959e9	0.00058498845
206	0x3d89ed4e	0.067347154
207	0xbc98ed76	-0.018667918
208	0xbd3aebb2	-0.045634933
209	0x3dfd35c1	0.12363768
210	0x3e0135d4	0.1261819
211	0xbd98d6d4	-0.0746285
212	0x3d9f3d57	0.077753715
213	0x3d8d30d8	0.06894082
214	0x3d9f334b	0.07773455
215	0xbd3009f5	-0.042978246
216	0x3a8f373e	0.0010926498
217	0x3c923395	0.017846862
218	0x3ca67899	0.020321177
219	0xbe82a1d6	-0.25514096
220	0xbb10a0be	-0.0022068466
221	0x3e1ecad5	0.15507062
222	0xbec8c0e3	-0.3920966
223	0xbbc6fcb0	-0.006072603
224	0xbcb76c5f	-0.022390543
225	0xbdaca7e7	-0.08430462
226	0xbe07323d	-0.13202758
227	0xbcd9072e	-0.026492681
228	0xbd0daaa5	-0.034586567
229	0x3d65ad02	0.056073196
230	0x3cd7a9f5	0.026326159
231	0x3c2cb23e	0.010540543
232	0xbcf08c0d	-0.029363656
233	0xbd8789dd	-0.06618092
234	0xbc6422bb	-0.013924296
235	0x3d1155fa	0.035482384
236	0x3bb037bd	0.0053777383
237	0xbc2fb005	-0.010723119
238	0x3c9be115	0.019028226
239	0x3d031126	0.031998776
240	0xbdf7def6	-0.12103073
241	0x3bdc6a96	0.006726573
242	0x3c6453f6	0.0139360335
243	0x3c44ac5b	0.012003983
244	0x3ca238f0	0.01980254
245	0x3d009014	0.031387404
246	0xbb0b6b0e	-0.0021273526
247	0x3bea6f1d	0.007154359
248	0xbd22099d	-0.03955995
249	0xbb10c49c	-0.0022089845
250	0xbbf33938	-0.0074225925
251	0x3cac66b2	0.021045063
252	0xbd8d39de	-0.06895803
253	0x3ce5727a	0.028008688
254	0x3c911fa0	0.017715275
255	0x3d1f49a2	0.03888858

model.4.bias f4 [150]
0	0xbe5e5cce	-0.2171509
1	0xbe2ed1c7	-0.17072211
2	0xbf2e0987	-0.6798329
3	0xbdc7875d	-0.09742615
4	0x3e655f24	0.22399575
5	0xbd76aeab	-0.06022517
6	0xbd8750a3	-0.06607177
7	0xbdab8ea6	-0.083768174
8	0x3d92b9ee	0.071643695
9	0xbc9d82d8	-0.01922743
10	0xbec61891	-0.38690618
11	0x3e7b1341	0.24519064
12	0x3d9659f1	0.07341374
13	0x3bd8baa5	0.0066140466
14	0x3e3cd823	0.18441825
15	0x3eb711e7	0.35755846
16	0x3dd9be5f	0.106320135
17	0xbe021ecc	-0.1270706
18	0xbd36a7f5	-0.04459377
19	0xbd6ce4c8	-0.05783537
20	0x3e36b8db	0.17843954
21	0x3e834a49	0.25642613
22	0x3d38e9e1	0.04514492
23	0x3c892e61	0.016745748
24	0xbd8d8731	-0.06910551
25	0xbcc00143	-0.023438102
26	0xbced3a2c	-0.028958403
27	0x3ebf1fb7	0.37328884
28	0xbe44020d	-0.19141407
29	0xbd1f0de3	-0.038831603
30	0xbe9ec480	-0.31009293
31	0xbcb9405b	-0.022613695
32	0x3e4c93d9	0.19978274
33	0xbde2d6d5	-0.11076132
34	0xbe1e2377	-0.15443216
35	0x3dd749a4	0.10512093
36	0x3ef613be	0.48061937
37	0xbe0e7628	-0.1391226
38	0xbcf3d7de	-0.02976602
39	0x3e12862d	0.14308996
40	0xbe8e4a2a	-0.27790958
41	0x3d0d9bc9	0.034572396
42	0x3dd57717	0.10423105
43	0xbd55b38b	-0.05217318
44	0x3c8ea89a	0.01741438
45	0xbf05cff3	-0.5227043
46	0x3d142ebf	0.036177393
47	0xbd9ff747	-0.07810836
48	0x3c102e21	0.0088000605
49	0x3c97286f	0.018451897
50	0x3d804a7c	0.06264207
51	0xbe42522f	-0.18976663
52	0xbdb4b45e	-0.08823465
53	0x3ede9298	0.43471217
54	0x3ed83bfa	0.42233258
55	0x3d829019	0.06375141
56	0xbd4c3175	-0.049851853
57	0xbe0df9d0	-0.13864827
58	0x3dcdf06b	0.10055622
59	0xbde19540	-0.11014795
60	0xbe16bfa3	-0.14721541
61	0xbd159322	-0.03651727
62	0xbd2c2f50	-0.04203731
63	0x3d65673f	0.056006666
64	0x3f1c85ad	0.61141473
65	0xbc916006	-0.017745983
66	0x3bacf89b	0.0052786595
67	0xbd3b6648	-0.04575184
68	0x3bba15e6	0.00567888
69	0xbdb56086	-0.08856301
70	0x3e5d16bd	0.21590705
71	0xbefba67b	-0.49150452
72	0xbb353e77	-0.002765564
73	0x3d0791b1	0.033097927
74	0x3dbd1a0d	0.092334844
75	0x3e370232	0.17871931
76	0x3dc56385	0.096381225
77	0xbce6d49d	-0.028177554
78	0xbe147375	-0.14497168
79	0x3c9ebca4	0.01937706
80	0x3d8cc286	0.0687304
81	0x3e24464b	0.1604244
82	0x3e08656f	0.13319944
83	0xbe029062	-0.1275039
84	0x3da7aba6	0.08187036
85	0x3e5c3920	0.21506166
86	0xbe8ad73a	-0.2711733
87	0x3d0c3ab7	0.034235682
88	0x3ebd369d	0.3695573
89	0xbdfe9772	-0.1243123
90	0xbcf79822	-0.03022391
91	0x3e4c10ce	0.19928285
92	0xbe26f061	-0.16302635
93	0xbc3a130a	-0.011357078
94	0x3ec75ef3	0.38939628
95	0x3e6a1369	0.22858967
96	0x3d9a1d02	0.07525064
97	0xbed209ee	-0.410232
98	0xbb2b225b	-0.0026113007
99	0x3e918017	0.28418037
100	0xbde86687	-0.113476805
101	0x3e84f894	0.259709
102	0xbcc3aee4	-0.023887105
103	0xbd9bd91c	-0.0760977
104	0xbd352238	-0.044222087
105	0xbd822afb	-0.06355854
106	0x3db0eb22	0.08638598
107	0x3c91b201	0.017785074
108	0x3dfb1b21	0.12261034
109	0xbd26d8bf	-0.04073405
110	0xbd79a043	-0.060943853
111	0xbc94dfc8	-0.018173113
112	0x3c0a93d3	0.008458096
113	0x3d598908	0.0531092
114	0xbe232800	-0.15933228
115	0xbe04563f	-0.12923525
116	0x3dcf9441	0.10135699
117	0xbdd7b984	-0.10533431
118	0xbd9119ea	-0.07085021
119	0x3af002bf	0.0018311365
120	0xbd8959eb	-0.067066036
121	0xbdb56392	-0.08856882
122	0xbe770a7d	-0.24125095
123	0x3e83c4bd	0.25736037
124	0x3c067aea	0.008208016
125	0x3e175467	0.1477829
126	0xbcb748cc	-0.02237358
127	0x3ed8fd1f	0.42380616
128	0xbcdee161	-0.027207078
129	0xbea718e5	-0.3263618
130	0x3dbde96f	0.092730395
131	0xbf00e3e9	-0.50347763
132	0xbc6ab7b6	-0.014326027
133	0x3dac9176	0.08426182
134	0x3d49a76d	0.049231935
135	0x3ca20aa3	0.019780463
136	0x3c79c34c	0.015244316
137	0xbd8e93b5	-0.06961767
138	0x3d2450db	0.040116172
139	0x3dfbcfa1	0.122954614
140	0x3db820ef	0.089906566
141	0xbcfcc06a	-0.030853469
142	0xbf71da61	-0.94473845
143	0xbd8d202a	-0.068909004
144	0xbefc0033	-0.49218902
145	0x3da90aae	0.0825399
146	0xbc95ef0b	-0.018302461
147	0xbd41a4cd	-0.047276307
148	0x3d958bed	0.07302079
149	0xbd5b1b5e	-0.053492896

model.6.weight f4 [22, 150]
0	0xbe124118	-0.14282644
1	0xbbba9da3	-0.0056950613
2	0xbdbd040b	-0.09229287
3	0x3c2bbbcb	0.010481785
4	0x3bcd6914	0.00626863
5	0x395563da	0.0002035046
6	0xba986731	-0.0011627433
7	0x39f38754	0.000464494
8	0xba018331	-0.00049405085
9	0xb99da315	-0.0003006688
10	0xba247591	-0.0006273622
11	0xbdea435e	-0.114386305
12	0xb9ceca82	-0.00039442262
13	0xbb45893a	-0.0030141608
14	0x3c89b1e4	0.016808458
15	0x3c928165	0.017883966
16	0x3a2fb723	0.000670301
17	0x3d0878e1	0.033318404
18	0x3a0eda95	0.00054494414
19	0xba6a78d2	-0.0008944395
20	0x3ca685c6	0.02032746
21	0xbca58dcd	-0.020209217
22	0x3916bccc	0.00014375447
23	0xba0ec8e5	-0.0005446806
24	0xba666f07	-0.0008790348
25	0x3a05912f	0.00050951814
26	0xba21769d	-0.00061593374
27	0xbe210c87	-0.15727435
28	0xbcab3274	-0.020898081
29	0x39085cbe	0.0001300452
30	0x3c11cb3e	0.008898554
31	0xb971ff7e	-0.0002307873
32	0x3caaaf41	0.02083552
33	0xb9ada3ef	-0.0003311927
34	0xba583b44	-0.00082485774
35	0xbd639c00	-0.055568695
36	0xbc7f98ee	-0.015600426
37	0x3e071d9f	0.13194893
38	0xba502353	-0.0007939834
39	0x3d297382	0.041369922
40	0xbc884818	-0.01663594
41	0x3c2c037b	0.010498877
42	0x38dbab75	0.0001047467
43	0xbc6e4aed	-0.014544231
44	0xbbc10882	-0.005890907
45	0x3bdd2450	0.0067487136
46	0x3a2913b3	0.0006449774
47	0x3b6cbe41	0.0036124142
48	0xbbff7690	-0.007796116
49	0xba891f04	-0.0010461514
50	0x3a09fd1d	0.0005263852
51	0x3c86fbf3	0.01647756
52	0xb7d559fe	-2.5433485e-05
53	0xbc9b7637	-0.018977268
54	0xbc3a7c63	-0.011382195
55	0x3a55f578	0.0008161883
56	0x3c46174a	0.0120905135
57	0x3c29246f	0.010323628
58	0xbc48250a	-0.012215862
59	0x3802ebf8	3.121418e-05
60	0xb9d3f15e	-0.0004042489
61	0xbb12fd22	-0.002242871
62	0xba9909a5	-0.0011675848
63	0x3a1863b6	0.0005813198
64	0xbc43b506	-0.011945015
65	0xb71b7204	-9.265266e-06
66	0xb9f65132	-0.00046981272
67	0x3a1f1c98	0.00060696295
68	0xba8e1da0	-0.0010842569
69	0x3c1351e5	0.008991693
70	0xbbc0460e	-0.005867726
71	0x3e13a682	0.14418986
72	0x3cf30dba	0.029669631
73	0x39bd6e2a	0.00036130968
74	0x389f3835	7.59218e-05
75	0xbbb3e970	-0.0054904744
76	0xbc078e93	-0.008273738
77	0x3876c0ed	5.8830647e-05
78	0xbb3a6326	-0.0028440445
79	0x3a3df2b0	0.0007245941
80	0x3ad2b0c5	0.001607441
81	0x3dbd7c2a	0.09252198
82	0xbc9464c3	-0.018114453
83	0x3c43a7ce	0.011941863
84	0xba57284f	-0.00082076056
85	0xbb4b841f	-0.0031054092
86	0xbcb8d732	-0.02256355
87	0xba0cf3bc	-0.00053768954
88	0x3dfbdeec	0.12298378
89	0x3a102b2f	0.0005499599
90	0x3b39f8fc	0.0028377166
91	0xbb7e07b0	-0.0038761906
92	0xbb128881	-0.0022359195
93	0x39ee17cf	0.00045412636
94	0xbd4fe3ac	-0.050754234
95	0x3dfec012	0.12438978
96	0x3a891a9c	0.0010460201
97	0x3df268da	0.11836405
98	0x3a4db9ea	0.0007847833
99	0x3c4a9a76	0.012365928
100	0x3b895f56	0.004192273
101	0xbdf1b340	-0.11801767
102	0x393ab86b	0.00017807043
103	0xb8e0f157	-0.000107261054
104	0x3db2b5fa	0.087261155
105	0xba9e75d1	-0.0012089555
106	0x3aa01b63	0.0012215193
107	0xbc452736	-0.012033274
108	0x3ae37c2b	0.001735573
109	0xba90a855	-0.0011036495
110	0xb94ae87a	-0.00019350825
111	0xb8cac66f	-9.669072e-05
112	0x39e8d645	0.00044410132
113	0x3a377e31	0.00069997
114	0xb9d82c11	-0.00041231562
115	0xba7ba19e	-0.0009598973
116	0xb9a1107a	-0.0003072059
117	0xbc202650	-0.009774759
118	0xb8e41569	-0.00010875875
119	0x3d9caf29	0.07650597
120	0xba77ca82	-0.0009452478
121	0x3c5bec6c	0.013423067
122	0xbcae4e1e	-0.021277484
123	0xbda257a3	-0.07926872
124	0x391fe541	0.00015248825
125	0x39483bcf	0.00019095767
126	0x39e164a5	0.0004299033
127	0x3c217403	0.0098543195
128	0xb8161161	-3.5778972e-05
129	0x3ca6d4c3	0.020365125
130	0x3a40d778	0.0007356326
131	0xbcb4aa24	-0.022053786
132	0xb99e23a9	-0.00030162677
133	0x3a52e25a	0.0008044593
134	0xbdf109d5	-0.117694534
135	0xba1e76b2	-0.00060449087
136	0x39844089	0.00025225084
137	0x3db9e75d	0.09077332
138	0xb8d3484c	-0.000100747304
139	0x3a24a06e	0.00062800094
140	0x3a90537f	0.0011011212
141	0x39d39fb7	0.00040364053
142	0x3c4063e9	0.01174257
143	0xba24304e	-0.00062633015
144	0xbc6e3aeb	-0.014540414
145	0x39f36fe1	0.00046431928
146	0xb982df59	-0.0002496194
147	0x3e1572b1	0.14594533
148	0x3a9925ec	0.0011684275
149	0xba22d95b	-0.0006212198
150	0x3cbe54f1	0.023233863
151	0xbbd1b1fd	-0.0063993917
152	0x3c22d7cf	0.009939148
153	0xbbbe8809	-0.0058145565
154	0xbcc9e6a7	-0.024646116
155	0x3a09cde9	0.0005256818
156	0x389a2940	7.350976e-05
157	0xba009f11	-0.0004906515
158	0x3a85c18d	0.0010204777
159	0xb8cc729a	-9.748824e-05
160	0x3db035e6	0.0860403
161	0x3c3491b5	0.011021067
162	0x37e5da44	2.7400565e-05
163	0xba80ae4c	-0.000981757
164	0xbe17d176	-0.14825997
165	0xbe0844fd	-0.13307567
166	0xb9ff6f55	-0.0004872034
167	0x3d24a0d5	0.040192444
168	0xb9dec594	-0.00042490347
169	0x3a62b6f6	0.0008648479
170	0x3cb53e29	0.022124367
171	0xbca6975c	-0.020335846
172	0xb943f8a6	-0.00018689278
173	0x395b99c2	0.00020942747
174	0xb898c6c7	-7.28495e-05
175	0x3a848a09	0.0010111938
176	0x39c131d0	0.00036848942
177	0xbe0e9ba5	-0.13926561
178	0xbcb2c6d9	-0.021823334
179	0x3a8c195a	0.0010688708
180	0xbd763a42	-0.060114153
181	0xb93a6f7e	-0.00017779876
182	0xbe37aa86	-0.17936143
183	0x3a296d21	0.00064631
184	0xba24182f	-0.0006259707
185	0xbd50034b	-0.05078439
186	0xbd1c31ff	-0.038133617
187	0xbc6e3b72	-0.01454054
188	0xba17a655	-0.0005784978
189	0x3d2981d0	0.041383564
190	0xbc8cc9d2	-0.01718608
191	0xbb7280e5	-0.0037003097
192	0x3944fef7	0.00018786998
193	0xbc90164e	-0.01758876
194	0x3dc207e1	0.09474159
195	0x3bdc99b8	0.006732192
196	0x39e46b58	0.00043567526
197	0x3b717f29	0.0036849475
198	0xbbc8c2da	-0.0061267437
199	0xba01ab3b	-0.0004946475
200	0x3b0dca35	0.0021635417
201	0x3c832976	0.016010981
202	0xba589be0	-0.0008262973
203	0x3e3036a0	0.17208338
204	0xbbfb8535	-0.0076757916
205	0xba9ac99c	-0.0011809352
206	0x3c475e9b	0.012168552
207	0xbdbbb17d	-0.091647126
208	0xbc525193	-0.012836832
209	0xba891e82	-0.0010461363
210	0xb7198d84	-9.15246e-06
211	0x3bbd73bb	0.0057816184
212	0xbacb0a21	-0.001549069
213	0xba34ef71	-0.00069021346
214	0xbc3c8016	-0.011505147
215	0xb9aa9216	-0.0003253377
216	0x39fd2e3d	0.0004829037
217	0x3ab28632	0.0013620316
218	0xba6b707e	-0.0008981301
219	0x3be68047	0.007034335
220	0xbbc7273c	-0.006077675
221	0xbc36acaa	-0.011149565
222	0xbb329893	-0.0027251586
223	0x382f1596	4.1743355e-05
224	0xba309790	-0.0006736452
225	0x3d52f2a8	0.051500946
226	0xbbef98c2	-0.0073119113
227	0x3a408708	0.000734434
228	0xbbe31753	-0.0069302707
229	0xba0eec7a	-0.0005452108
230	0x3982dec5	0.00024961508
231	0xbc37d278	-0.011219613
232	0x3de3a905	0.11116222
233	0x3c1bedbb	0.009517129
234	0x39cd69b0	0.0003917939
235	0x3912958d	0.00013979357
236	0xbcba0884	-0.022709139
237	0x3a31c380	0.0006781146
238	0xbc8252cd	-0.015908623
239	0x3a6e08dd	0.00090803
240	0x3896d3d2	7.192012e-05
241	0x3dcee37c	0.10101983
242	0xba079074	-0.00051713665
243	0xb9953c69	-0.00028464504
244	0xbc354267	-0.011063195
245	0xbc6fea40	-0.014643252
246	0xba7ebfb9	-0.00097179
247	0x3e01a241	0.12659551
248	0x3a11453a	0.00055416266
249	0x3c492019	0.012275719
250	0x3bdc3e48	0.0067212917
251	0x3c5f3af2	0.0136248935
252	0x38eb1aef	0.0001121069
253	0xba78ad53	-0.00094862765
254	0xbbd279c7	-0.0064232084
255	0xb7ba4fa0	-2.2210006e-05

model.6.bias f4 [22]
0	0xbe2723d8	-0.16322267
1	0xbddbfaa7	-0.107411675
2	0xbdf8b321	-0.12143541
3	0xbdcce68e	-0.10004912
4	0x3d1838cb	0.037163537
5	0x3c8373b8	0.01604639
6	0x3e1fb0b7	0.15594755
7	0x3dea579b	0.11442491
8	0x3e01ee8c	0.12688655
9	0x3d7cb393	0.061694693
10	0x3dc79708	0.09745604
11	0x3d891b79	0.06694693
12	0x3e121428	0.14265501
13	0x3d7b9e4f	0.06143027
14	0x3cf613a7	0.030038668
15	0x3d20dc13	0.03927238
16	0x3e167e6d	0.14696665
17	0x3aed7179	0.0018115483
18	0x3c9470cd	0.018120194
19	0x3daffc07	0.08592992
20	0x3c838b3a	0.0160576
21	0x3dc8256c	0.09772763
