src/RNA/rna_global_model.pth (torch, 204268 bytes, 8 tensors)

model.0.weight f4 [150, 10]
00000000: 87fb 94bb b366 36be 9c78 8ebe e35a 08be
00000010: 1829 893e 505e 92bd 7d18 693d 26db 49bb
00000020: c186 333e 8ff3 48bc 3764 8a38 3966 b83e
00000030: 0a67 60be d640 dcbd 7a9a f8bc 249d 11be
00000040: 12b0 8d3d 46d5 25be b91f 8ebb 0d04 b13d
00000050: 202c 203b 6bb5 1ebd c018 c23e bb9f 4f3e
00000060: d9cf ed3d 9814 c33d 53be 80be 3618 2dbd
00000070: b546 d23c 052d 10be f1bb 78bb 06e5 48be
00000080: 14fe 5a3e 9498 573e 35ee 9cbe a53d c23d
00000090: 3059 0a3d f925 843c c5eb 09bd 0785 29bd
000000a0: 4e9b 073b 1536 1bbc 1c88 fabd 700b 4bbd
000000b0: 4d3e 0fbe 6837 c3bd 6844 b53d 369e 1b3e
000000c0: b0af 243e 908f 8c3d 0556 483b 98fc 7f3e
000000d0: fb3e 1c3e 0902 193e 7ffc 2ebf e5d1 5abb
000000e0: be5a db3c 9f2e 483d 45c4 f9bb 321e 49be
000000f0: 8a51 d237 fedf 9fbd ad38 623e 5d3f d3bc
00000100: 3cba b73e 5681 fdbc c7c3 c9bc 3b31 e0bc
00000110: 59b8 6f3e 30ad 22bc 6cc6 81bb 301d 553e
00000120: 45ba 8dbe 57d6 e13d 0d97 8ebd bfc8 d9bd
00000130: 36fc 7abe c047 91bb 131e 243c d037 d6bd
00000140: 3821 4cba 1c3f 1bb8 f202 14b9 eaa1 4ab7
00000150: 689e bf38 eda8 8639 8b21 f539 82d8 22b9
00000160: 451d 0eba d837 94b9 eb71 723a ae17 3f3a
00000170: b948 94ba d25f 3dba 9c2b 5639 6eab 11b9
00000180: c194 9139 fa15 b93a 58dd 3839 9c71 45b7
00000190: a3d3 173a ec7e 583d 8e25 8d3d 7f78 403d
000001a0: 3177 763d d50c 153d 2f60 293d 8b39 8e3d
000001b0: 8310 15be c7ee a5be 5def ac3a 5e8c e0bd
000001c0: 815a be3e c340 60be 326b be3d 5df3 42bd
000001d0: eecf 0fbe 9e49 15be f872 7abd b4f5 8cbd
000001e0: e437 3cb8 330b 52b9 3f0c a7b9 1e51 c3b7
000001f0: a8b1 9539 16cb feb6 c42d 08b8 cc1f 5538
00000200: 3353 0eba 69a0 10b9 f82b 0ebb 223a 463c
00000210: a45c a4bd 7aa6 d3bd d1ad dd3d 218c 13bd
00000220: 2741 14be 3e15 29bd eb83 55be 8ea3 0dbd
00000230: a756 05bb 898f 85be bec3 9d3c 0fae 313c
00000240: 2c82 47bf eb3e 7c3d 3a3b 9bbb a96c 08bc
00000250: 1eb9 303d 2e97 50bd 42ad c33a 028b b3be
00000260: e34f 783e 6759 10be 62f0 3abd d9df 103e
00000270: e04b 92bd a0be e53c 9557 14bd 27a4 9d3d
00000280: 0af8 95bb 3ede 393e 52ff 373e 30af 403e
00000290: f398 36be ac96 6cbc 23f4 5f3e 0357 e2bd
000002a0: 26e8 873c 453a 8b3d 32dc 77ba d533 9c3d
000002b0: f0e9 2c3e 0ff9 44be 4e7b 82bc 5c73 413e
000002c0: 18dc cbbd 2c9a 233e 3421 e83b 0d5a ab3c
000002d0: ad83 433a ff1d 4b3e f7c4 913e e873 2fbe
000002e0: cab5 f7bd 35cc 14bc 502d fdbd c79d c33c
000002f0: 103a e93d 0c31 703d 3411 bf3a acbc 443d
00000300: aa5f 68bf 2760 60bd b6b4 5dbd 5265 83bd
00000310: cddf 243d bbc9 1a3a 18f8 23bc feaa 01bc
00000320: 844a 84ba 642f 0abe bbe5 5e3e f18a 0a3e
00000330: 1c49 003d 6ed4 753d 470c 32be c6e9 57bd
00000340: cb88 943c 0d5f 0a3e f1b6 593b e31c 3abe
00000350: 24e2 1abe 946d 663e c0ac 7bbc 827f cfbd
00000360: 61dc 66bc 0407 69bd ed25 1a3e 8b2b e9bd
00000370: 2031 c43a 1258 0b3d 82b6 2b3c 7ea2 adbe
00000380: cf00 0a3d bcff e6bc ab60 bd3c efde 09be
00000390: 3ed4 4bbc 7dff 4f3e b418 74ba fd11 d5bd
000003a0: c628 98be 1363 90be bfe3 61bd 0330 b9bc
000003b0: 89c1 ef3d 8e71 10bc dfee efbd ec59 f5bd
000003c0: d87d 15b9 8c5b 6538 2edd 113a eb14 8239
000003d0: 9f78 12ba 14d0 9237 a6a2 5639 a757 10ba
000003e0: e553 8c39 c08b b3b9 34d1 c33b 6427 0dbd
000003f0: df68 963c d70d 713c eb7f 8cbc ba38 5fbd
-0.004546586 -0.17812614 -0.27826393 -0.1331592 0.26789165 -0.07146895 0.05690812 -0.0030800789
0.17531873 -0.0122651 6.599019e-05 0.3601549 -0.21914306 -0.10754554 -0.030347098 -0.142201
0.06918348 -0.16194639 -0.0043372777 0.08643351 0.0024440363 -0.038747232 0.37909508 0.20275776
0.116119094 0.09525412 -0.25145206 -0.042259417 0.025668481 -0.14079674 -0.0037953819 -0.19618616
0.21385986 0.21054298 -0.30650488 0.09484414 0.033776462 0.016131388 -0.033672113 -0.04138663
0.0020691934 -0.009473343 -0.12232992 -0.049571455 -0.1398861 -0.09532052 0.08850938 0.15197071
0.16082644 0.0686332 0.003056885 0.249987 0.152584 0.14942183 -0.6835403 -0.0033389267
0.026776668 0.048872586 -0.007622274 -0.19640425 2.507192e-05 -0.07806395 0.22091933 -0.02578705
0.35884273 -0.030945461 -0.024629487 -0.027367225 0.23410167 -0.009928986 -0.0039604213 0.20811915
-0.27681175 0.1102721 -0.069624044 -0.106339924 -0.24510273 -0.004433602 0.010016936 -0.10459864
-0.00077869324 -3.7013655e-05 -0.00014115477 -1.2077837e-05 9.137095e-05 0.0002568433 0.00046755033 -0.0001553018
-0.00054212316 -0.00028270367 0.00092485425 0.00072896003 -0.0011313177 -0.0007224056 0.00020424876 -0.0001389214
0.00027767385 0.0014120929 0.00017630064 -1.1768567e-05 0.0005791729 0.052855417 0.068919286 0.046989914
0.060172264 0.03638919 0.041351493 0.06944569 -0.1455708 -0.32408735 0.0013193894 -0.10964273
0.37178424 -0.21899705 0.0929779 -0.04759537 -0.14044163 -0.14578864 -0.0611448 -0.06882802
-4.4874745e-05 -0.00020031333 -0.00031861846 -2.3283585e-05 0.0002855186 -7.593432e-06 -3.246755e-05 5.081277e-05
-0.0005429268 -0.00013792668 -0.0021693688 0.012098821 -0.08025482 -0.10334487 0.108241685 -0.03602231
-0.14477979 -0.041280024 -0.20851104 -0.034579806 -0.0020345838 -0.2608607 0.019258376 0.010844721
-0.77933 0.06158344 -0.004737285 -0.008326688 0.04314529 -0.050925426 0.0014928954 -0.35066992
0.24249224 -0.14096604 -0.045639403 0.14147891 -0.07143378 0.028044999 -0.036216337 0.07697325
-0.0045766877 0.18151185 0.1796849 0.18816829 -0.17831783 -0.01444022 0.21870475 -0.110517524
0.01659019 0.067982234 -0.0009455114 0.07627074 0.16886115 -0.19235633 -0.015927937 0.18891662
-0.09954089 0.1597678 0.0070840362 0.020916963 0.0007458281 0.19835661 0.28470585 -0.17134058
-0.120952204 -0.00908189 -0.12362158 0.023878945 0.11388028 0.058640525 0.001457727 0.048031494
-0.9077097 -0.054779198 -0.054127418 -0.0641581 0.040252496 0.0005904694 -0.010007881 -0.007914303
-0.0010093008 -0.1349464 0.21767323 0.13529564 0.031319723 0.06001704 -0.17387496 -0.052713178
0.018131634 0.13512821 0.0033220614 -0.18175082 -0.15125328 0.22502738 -0.015361011 -0.10131742
-0.014090628 -0.056891456 0.1505353 -0.11385258 0.0014968254 0.034019537 0.010480525 -0.33913034
0.033692177 -0.028198116 0.023117384 -0.13463949 -0.012440739 0.20312305 -0.00093115424 -0.104038216
-0.29718608 -0.28200588 -0.055148836 -0.022605902 0.11706836 -0.008816136 -0.11715483 -0.11980042
-0.00014256628 5.4683114e-05 0.00055642694 0.00024811117 -0.0005587432 1.750145e-05 0.00020469222 -0.0005506225
0.00026765387 -0.00034245662 0.0059758667 -0.034461394 0.018360553 0.014712772 -0.01715084 -0.054497458

model.0.bias f4 [150]
00000000: dccf 29be 752a 2fbd 6bd3 f93e bb7f c8bd
00000010: 1f18 0e3d 0f73 34be 2882 9ebd 01f9 633d
00000020: efb8 0639 89ea 133a 00a0 3b3e 4b1a b93d
00000030: c7f9 2739 db00 c63d 3e23 00bf 9cab 533e
00000040: b0b2 0c3e 10c3 a2bd c2cc 9abd 3277 afbe
00000050: 61a8 3bbd e2b3 4e3d b16b 2ebe 5199 44be
00000060: 1991 d7b8 35ae 3cbd 0197 e13c 8eca 0ebe
00000070: 5b99 a037 e642 4b3c eb43 33b9 cf0b 8e3e
00000080: 5f4a b53d 119b ae3d e6e1 52bd f582 c7bd
00000090: a4cd e53d f18a e0bd c3c5 383d 8045 a0bd
000000a0: 9d07 07be d142 083a 0391 8c3e dd1e febc
000000b0: de0c 8bbe fe9c debe 6229 813c b018 3e3d
000000c0: 6646 97be 3077 8a38 b81e 1abe f5cb 8fbd
000000d0: 6c52 e43d 5f1d c5bd a344 09bd b883 5ebe
000000e0: b813 1236 3d24 c63a ff1a aabb 868f 40b9
000000f0: 1354 353e d401 a1be 6b8b 50be 7137 74b8
00000100: ef1f 853c 6e16 ebbe b6fc 1abc c29a 5ebe
00000110: fba5 6abd 7d50 58be dbea dbbd 6754 1e3e
00000120: 8df3 3239 5179 bd3d 646e f2bd f98f 1e3e
00000130: 8e81 a5bd 7d80 95bd 29d7 debe 040e a93e
00000140: ac8c 4d3e d59c 0839 1d90 7e3e fa65 4c3e
00000150: 26a1 003e b956 bbbe f359 91bd 3424 d13e
00000160: 21d4 06be 8cdb 9bb8 673a 38be bcee f1bd
00000170: da7b adbd 4eed 40be 9547 a938 eef4 1a3d
00000180: 0863 853c 203d 1f3e 00a9 9e3d 8ed2 f5bd
00000190: 612f 18b9 e31b 503e c600 8a3e 2c46 f43d
000001a0: ffd9 7fbd 7d9b d43c 2e12 27bd d48c 5dbe
000001b0: b4f1 ccbd 48c3 2cbf 448d 0c3d 5e67 cbbd
000001c0: 2e35 bdbd ead6 c139 156d cebd cd00 49bd
000001d0: b264 ca3c a046 c6bd 8d9a 173d 09ff da3e
000001e0: c8a8 e5bd 06bf 613d 06e2 073e 4957 abbd
000001f0: f517 7cb9 a1ba fe3d 801b 8abd 76a9 393e
00000200: 0f80 c8be 05aa ea3d 0dab 17bf a448 3bbd
00000210: 3395 223d 8db6 90bd a519 51be 2a36 ea3e
00000220: c588 dfbe e9df 1bbe ca28 b4bd f8d2 89be
00000230: d2ff b4bc 9c03 4fbe 6fef c83e 4262 a8bd
00000240: 2a24 89bd 5653 06be 6543 e63c 41f2 a637
00000250: 631d 88be ab0a 893c
-0.16583198 -0.0427651 0.48794112 -0.09789988 0.034690972 -0.17622016 -0.07739669 0.05565739
0.00012848129 0.00056425534 0.18322754 0.09038218 0.0001601941 0.09668132 -0.50053775 0.20670933
0.13740039 -0.079473615 -0.07558586 -0.34270626 -0.045814876 0.05046452 -0.17033269 -0.1919911
-0.000102790254 -0.046064574 0.027537825 -0.13944456 1.9144898e-05 0.012406087 -0.00017096072 0.27743384
0.08852076 0.0852567 -0.051484965 -0.09741775 0.112208635 -0.10964001 0.045110475 -0.07825756
-0.13186498 0.00051979447 0.27454385 -0.031020576 -0.27158254 -0.4347915 0.015766803 0.046410263
-0.29545897 6.602553e-05 -0.15050781 -0.070213236 0.11148533 -0.09624743 -0.033512723 -0.21729934
2.1767173e-06 0.0015117001 -0.0051912065 -0.00018364014 0.17707853 -0.31446707 -0.20365684 -5.8225767e-05
0.016250579 -0.4591555 -0.009459665 -0.21738723 -0.057287198 -0.21124454 -0.107381545 0.15461884
0.00017066133 0.09251655 -0.118374616 0.15484609 -0.08081351 -0.07299898 -0.4352353 0.33018506
0.20073193 0.00013028395 0.24859662 0.19960776 0.12561473 -0.36589602 -0.070972346 0.40847933
-0.13166858 -7.43187e-05 -0.17991029 -0.11813113 -0.084708884 -0.18840525 8.071881e-05 0.03783124
0.016282573 0.15550661 0.07747078 -0.12003051 -0.000145135 0.20323138 0.26953715 0.11927447
-0.062463757 0.025953049 -0.040788822 -0.21635753 -0.10007039 -0.67485476 0.03431441 -0.09931825
-0.09238659 0.00036971952 -0.100793995 -0.04907303 0.024706218 -0.096814394 0.037012625 0.427727
-0.11213833 0.055113815 0.13269815 -0.08366258 -0.00024041517 0.124379404 -0.067435265 0.1813105
-0.391602 0.1145821 -0.5924538 -0.045723572 0.03969307 -0.07066069 -0.20419939 0.4574445
-0.43659034 -0.15222134 -0.087968424 -0.2691877 -0.02209464 -0.2021622 0.39245173 -0.08221866
-0.06696351 -0.13117728 0.028108308 1.990155e-05 -0.2658492 0.01672872

model.2.weight f4 [150, 150]
00000000: 7838 493e a20e 023c 7fd5 bc3d 3398 a7be
00000010: dbcc 2fbe d558 f7be 718c 6a3e c593 00bd
00000020: dd72 783a 80e4 50bc da1a 013e 7cc3 453d
00000030: ce0e 493a ede3 d1bb 9b10 00bf e069 82bd
00000040: 1b60 e4bd 49f7 813d 76bd f2bd 39a1 27bd
00000050: b514 ae3d 91bb c6bc 6171 03bb 7fef 58bd
00000060: 87ee 333a 752d 423d 7661 01be fd29 b2bd
00000070: b551 ba3a fe9f 15be 8821 263a a48d 313c
00000080: 5ec5 703c a46f 5fbe afea 333e 82ec 7d3d
00000090: fee9 04bd 2139 fbbc cf91 c0bd eb4c 99bd
000000a0: 1041 dabd beee 24bd b65b fb3d 136e 7ebc
000000b0: 0d77 243d dcf2 71bd c87d eb3c 9076 2f3c
000000c0: 09fb 4bbd 90c5 023a 906a 03bd fb12 a2bd
000000d0: 509f 0abe ca69 2fbe 73a4 52bc 1abb bebd
000000e0: 745b 9dba 927b febd 990e 78bd 2cad 36ba
000000f0: ed92 983c 62bf eabd d4d8 2fbe ff33 d139
00000100: 11c4 f53c 5349 df3c 2135 8a3c aa62 00be
00000110: 840b 4abe 8494 d03c 24b0 973d ef9f af3d
00000120: a7c7 f5b9 b570 793e e9e0 a1bd a865 43bd
00000130: baf3 73bd 9095 59be 99d4 aebd fc6d 0fba
00000140: 99f1 cb39 b311 ddba 4add d13d 3180 45bb
00000150: d5c0 68bd 2e79 3fbe 3377 acbd ee47 2a3e
00000160: e90c 953d b081 9239 934d 9b3d f144 533e
00000170: 838f a53d c851 a83b 26e8 e4ba c8cd b8bd
00000180: 9b19 3b3e 794c b1bd d3af c43d a29f c73d
00000190: 392c 0e3a e283 efbd fb79 df3d 0567 a2bd
000001a0: 85cd 05be 2ce3 a8bd fb1f 92bd e63f d33d
000001b0: ac4a 29be d259 bcbc 9ffd e03c c0e8 0dbe
000001c0: 1375 5cbd dbbf 9aba 5a60 9cbd 0a0c a63d
000001d0: 3a32 b1bd b942 573d ab8a 3b3c 52ea bcbc
000001e0: a3c7 973c 854d 8a3e c498 d73e 4a58 7b3d
000001f0: 5277 1d38 75e9 e93d ecba 2ebd d95f cb3d
00000200: 4e66 c4bb b4bb 3e3c b870 f7be 9ca5 f0bd
00000210: 399d 323b bd52 4d3d e42b 40bb 5970 3abd
00000220: c0b7 78be bfd3 573e 398a 4e3d e86b 4dbd
00000230: 6470 583c 9752 0ebe b050 13be 8be4 f4bd
00000240: 89a8 97bc 7c29 e2bd 015b 6dbd dc50 603a
00000250: 50c0 483d 3fb8 7bbe 668c 52bb e4cc 203e
00000260: c8bf 3c3e ce46 0abe c025 e93c 7c5c 513d
00000270: 2407 f73d 6b55 b13d e15f 8bba 36f7 c6b9
00000280: dc63 0a3e 1074 91bb 2d54 7dba cc6e d63c
00000290: 051f 0ebe 80a6 adbd f2a1 d23d 37ef 2cbe
000002a0: 5d6c c7ba 222a 56bd 0d5a f9bd 103b cbbc
000002b0: 9396 43bd fbe7 bcbc d424 de3a 8af9 9e3d
000002c0: 7e0a c0bd dd9a c0bd d12e 9d3a c263 87be
000002d0: 70c8 2a3b 0754 1e3d ed8a c5bc c706 563e
000002e0: 82d2 533e 7b92 ae3c acb1 cbbd 3e5f d5bd
000002f0: 7781 043d fc05 263d 1f77 053e 5729 c5bd
00000300: 7401 d6bd 0baa ac3d e48c 7e3d c062 35be
00000310: fbb6 1a3e 32ca 5d3c b7d1 a43c a371 21b8
00000320: c606 ec3d 5c15 e3bb 0fab ea3c 1961 5e3d
00000330: 31e8 bebc 2f3a 033d df5b 0bba e916 463d
00000340: aa20 9dbd 1438 00ba 9531 843e 85fe d0bc
00000350: 1c15 713d 8a84 a63a 2bd8 38bd 3c99 82be
00000360: bf7d 2cbd 62cf 803d f2b7 2a3b 7e6e c83c
00000370: 152c 30be b64d 65bd c376 68bb e06d 9cbc
00000380: cf78 78bd 1b00 983b 18f3 0dbe 3836 c33d
00000390: 374f a1be ddbf 52be 6375 a13d bee6 a8ba
000003a0: bab6 9abe efcb 873c 21ba 9a3d 3146 ed3d
000003b0: 2773 1a3e 92b8 ebbd 446d 573e 22f2 8db8
000003c0: e60c 323d 648c 5c3e 1d30 0d3e d4f2 debd
000003d0: ba73 eeba fc8c 033e 60f8 f83d 43c2 77bd
000003e0: 5931 8ebd 573e 45be 0409 453b 43d7 613e
000003f0: 32b4 d83d d418 01be 4b09 75ba 5cc2 383e
0.19650447 0.007938059 0.09220409 -0.32733306 -0.1716799 -0.4830996 0.22905137 -0.031390924
0.0009477565 -0.012749791 0.126079 0.04828213 0.00076697476 -0.0064053447 -0.5002534 -0.0636785
-0.11151143 0.06345994 -0.11852543 -0.04092524 0.08500043 -0.02425936 -0.0020056593 -0.052962776
0.00068638514 0.047406632 -0.12634835 -0.08699415 0.0014215024 -0.14611813 0.0006337394 0.010836992
0.0146954935 -0.21819931 0.17569993 0.06199313 -0.032449715 -0.03066689 -0.09402811 -0.07485374
-0.10656941 -0.040266745 0.12273352 -0.015529173 0.0401526 -0.0590695 0.0287465 0.01070942
-0.049799953 0.00049885456 -0.032084048 -0.079137765 -0.13537335 -0.17130199 -0.012856591 -0.093130305
-0.0012005405 -0.12425913 -0.060560796 -0.00069685536 0.018624747 -0.114622846 -0.17172557 0.00039902327
0.030000718 0.027256643 0.016871037 -0.12537637 -0.19730955 0.025461443 0.07406643 0.08575427
-0.00046878794 0.243594 -0.07904226 -0.04770437 -0.059558608 -0.2124846 -0.085366435 -0.0005471406
0.00038899182 -0.0016866237 0.10247286 -0.0030136222 -0.056824524 -0.1869857 -0.08421173 0.16629001
0.07277853 0.00027943915 0.075831555 0.20631768 0.08084013 0.005136702 -0.0017464205 -0.09023625
0.18271486 -0.08657164 0.09603848 0.097472444 0.000542346 -0.116950765 0.10911938 -0.07929806
-0.1306668 -0.082464546 -0.07135006 0.10314922 -0.16532391 -0.022992048 0.027464686 -0.13858318
-0.05382259 -0.0011806445 -0.07635565 0.08107765 -0.08652158 0.052553866 0.011446635 -0.023060951
0.018527811 0.27012268 0.42108738 0.061363496 3.7542843e-05 0.114214815 -0.04265873 0.09930391
-0.005993641 0.011641432 -0.48328185 -0.117503375 0.0027254357 0.050127733 -0.0029323036 -0.0455173
-0.24288845 0.21076868 0.05042479 -0.050151736 0.01321039 -0.13898693 -0.14386249 -0.119576536
-0.018512981 -0.11043069 -0.057948116 0.0008556971 0.04901153 -0.24582003 -0.003212714 0.1570316
0.18432534 -0.13503572 0.028460383 0.05111359 0.12061909 0.0865887 -0.0010633433 -0.0003794969
0.13514656 -0.0044388846 -0.0009663727 0.026175879 -0.1387902 -0.08479023 0.10284795 -0.16888128
-0.001521479 -0.052286275 -0.12175379 -0.024808437 -0.04775102 -0.023059836 0.0016948231 0.077624395
-0.09377001 -0.09404538 0.0011992102 -0.26443297 0.0026059411 0.038654353 -0.024114097 0.20901023
0.20685771 0.021310082 -0.099459976 -0.10418557 0.03235003 0.04053305 0.13033722 -0.096270256
-0.10449496 0.084308706 0.062146083 -0.17713451 0.15108864 0.013536977 0.020119531 -3.8491224e-05
0.115247294 -0.0069300365 0.02864602 0.05429182 -0.023304077 0.03203791 -0.0005316119 0.048361693
-0.07672246 -0.0004891169 0.25819078 -0.02551199 0.058858022 0.0012704295 -0.04512803 -0.25507534
-0.04211211 0.06289555 0.0026049581 0.02446675 -0.17204316 -0.055982314 -0.0035471178 -0.019095361
-0.060662087 0.0046386844 -0.13862264 0.09531826 -0.3150575 -0.20581003 0.07883718 -0.0012886149
-0.30217534 0.016576735 0.075550325 0.115856536 0.1508299 -0.11509813 0.21037775 -6.768505e-05
0.043469332 0.2153793 0.13787885 -0.108861595 -0.0018192448 0.1284675 0.12156749 -0.060487997
-0.06943006 -0.19262062 0.0030065188 0.22054772 0.105812445 -0.12607127 -0.0009347393 0.18042892

model.2.bias f4 [150]
00000000: c8ba 8cbd 42e6 403d f0d3 ccbe b459 9c3d
00000010: 35b4 ec3e 7721 973d 3ab3 a3be 0828 e4be
00000020: 3503 36bd 9cf1 b83e 7e01 f33d 7ae7 f33e
00000030: 70b8 ad3d c5b4 933e 22d5 913d 9344 c8bd
00000040: 06fd af3c d2ac 483f 287e 843f 7add f2bd
00000050: f1a4 153e 880b ff3e b619 ca3b e2df 3c3d
00000060: c984 343d b22b d4be c80e c33d efba c6bd
00000070: b295 c33d 077a b4bd 0a67 1b3d b17e 3e3e
00000080: 5ed9 7a3e ff35 3fbf 1b15 a73d ff20 07bf
00000090: 77b6 fe3d 486e 393e 3b5d fabc fde1 973c
000000a0: 0190 c03e 645b b53d e488 d5bd 72d8 5c3f
000000b0: 8e87 85be e833 033d 63cd 103e 46f1 6abe
000000c0: 07df 463e bebd 92bd ad25 26bd 2a05 653e
000000d0: d4fd 8f3e 5dbc 0cbe 3847 223d 4af9 093c
000000e0: ac8a dc3d cb35 073e 2dfc 1a3e afa1 ee3e
000000f0: 57e4 883d d028 6f3d 7604 113e b39e ab3d
00000100: bfec 5e3e cd48 6d3e cebc fc3e 6922 6dbf
00000110: afc8 623d 2e5d d7bd 4273 e9bd 0482 aa3d
00000120: bbcc 62be f899 843b dfe1 0f3f 1bbb 1d3d
00000130: dffe 0ebd e26d b33e 6e0d 8cbd d4bf d1bd
00000140: 3317 eb3e c1f8 e23e 06d7 243e 9d74 1fbc
00000150: 5b45 d5bd 7a48 103e 70d5 cabe 5966 5c3e
00000160: c84e a039 7583 803e 9bac 553d 501b 573e
00000170: 9ee9 f43c 502d c7bd ff6c d53d c824 c8be
00000180: 7097 4ebd 89fa 883e 981d 92bd bb49 673f
00000190: 9315 57be b267 7d3e c961 3e3d 13f8 983e
000001a0: e08f 123d cb37 16be fe98 bcbd 49d4 c63e
000001b0: 7ef0 5a3e 965c 4bbe 5cac 293e fbfb 21bf
000001c0: f402 693d b4ed 17be c32a 9dbe 04bf efbd
000001d0: 548c 093d b434 2cbe f7db 3abe d28a 1d3e
000001e0: fdb9 dcbd 2884 c7be 63e4 d9bc 891b 82bd
000001f0: 26f8 06be cef5 b73d f4ae 123f a1dd bbbe
00000200: 06b5 683f 55ea 00be 3ae2 a7be 390d 8f3e
00000210: b549 0f3e ab1b 07bf 6f0f 96bc 6447 aa3c
00000220: eb9d f7bc 24d5 643d 223b 5bbd 018d d0be
00000230: 0570 a33d 1a09 bc3e 461b 3e3e 9be6 cabe
00000240: 0b06 533d ad55 d63c f470 983e f6e9 d7bb
00000250: aea5 b4bd 36f5 783e
-0.06871563 0.04709459 -0.40005445 0.07634297 0.46231237 0.0737943 -0.31972677 -0.4456179
-0.044436652 0.36121833 0.11865519 0.4763754 0.08482444 0.28848854 0.0712073 -0.097787045
0.021482956 0.783887 1.0351 -0.118586496 0.14613701 0.49813485 0.0061676158 0.04611195
0.044071946 -0.41439587 0.09524304 -0.097036235 0.095500365 -0.08812337 0.037940063 0.18603016
0.24496982 -0.74691767 0.081583224 -0.52784723 0.12437146 0.18108475 -0.030562034 0.018540377
0.37609866 0.08855322 -0.104265004 0.8626777 -0.26079983 0.032031924 0.14140849 -0.22943601
0.19421016 -0.07165097 -0.040563274 0.22365251 0.28123343 -0.1374373 0.0396187 0.008421252
0.10768637 0.13204114 0.1513526 0.4660773 0.06684177 0.05838853 0.14161858 0.08379879
0.21769999 0.23172303 0.49362797 -0.9263063 0.055367168 -0.105158195 -0.11398937 0.0832558
-0.22148411 0.004046675 0.56204027 0.038508516 -0.034911033 0.3504477 -0.06838499 -0.102416664
0.45916137 0.4433041 0.1609765 -0.009732393 -0.10413619 0.14090148 -0.39615965 0.21523418
0.00030576275 0.25100294 0.052166563 0.21006513 0.029896554 -0.097254395 0.1042118 -0.39090562
-0.05043739 0.26753643 -0.07134551 0.9034688 -0.21004324 0.24746588 0.046479974 0.29876766
0.03578174 -0.14669721 -0.092088684 0.38833836 0.21380803 -0.19859537 0.16569656 -0.63275117
0.056887582 -0.1483677 -0.30696687 -0.11706355 0.033581093 -0.1681698 -0.18247972 0.15384987
-0.10777662 -0.38968015 -0.026598161 -0.06352908 -0.13180599 0.089824304 0.5729821 -0.36692527
0.9090122 -0.1258939 -0.32789785 0.27939776 0.13992961 -0.5277659 -0.018317906 0.020785995
-0.030226668 0.05586733 -0.05352319 -0.40732577 0.079803504 0.36725694 0.18565091 -0.39629063
0.051519435 0.0261639 0.29773676 -0.0065891696 -0.088206634 0.2431229

model.4.weight f4 [150, 150]
00000000: d303 fa3a f903 d8ba 1e2c 12b9 b725 5d3c
00000010: 119b e5b9 f65f 0e3c ba06 7ebb ce63 9dba
00000020: 0df4 043c 63e4 8d39 f77b b83a 881f c73a
00000030: c148 5a3b 9d59 ccba 5003 a23b 0177 023c
00000040: e7f8 68bb 2d2b 963c a74c 88ba 824c dabb
00000050: a935 1cbc ad08 4cbb 07f0 67bb 3b8b a9ba
00000060: 355e 1e3c 1cda 5c3c 1604 89bb 91e0 12bc
00000070: 0094 9abb adf6 4ebb 8cbe 4bb9 f135 9fb9
00000080: 5215 1c3b 86b7 303d edc4 e73a 0d4f 9239
00000090: e2b9 3a3b 7a23 873a fff4 b6bc 9b0f e0bc
000000a0: 944d 803a d8c4 66bc 1645 d5bb 502e b03d
000000b0: 380c 003a d5f4 733a aba6 113c b3f9 4f3c
000000c0: 6294 59bb 0e67 fdb9 4728 5abc 333e 4a3a
000000d0: ca0d 7f3a 5cd5 5f3c 0da9 223b c72f 153d
000000e0: 4885 6b3c 0bcc 743b 1f3c c3bb 4a28 873a
000000f0: 4226 c33a 7c54 5d38 4fdf 87bc 852d f9bb
00000100: afcf 143b ad24 a53b 05e2 5c3c 80a8 913b
00000110: d2a7 ba3b 63e5 77bb e60c 29bc 5d37 803a
00000120: 8cd0 e4b9 b9fb ff3a 3216 d7ba f8c8 3dbb
00000130: 83e9 6abc f164 42ba 54d2 c1bc 0cd3 5db9
00000140: f965 0539 378a 803a a75d e7bb 3b5a db3a
00000150: 489c 963b b25a 0ebc 357e 993b 7c97 50bc
00000160: 7bee 7bba 3c3b bbbb 3607 5abb 101f 383b
00000170: bb91 453b f1d7 71bc 61e4 8b3a 44cd 5e3a
00000180: d806 c7bb e665 feba e363 643b 178f e1bb
00000190: 0c1f 1b3c 8a3c 053c 15c7 6f3b c337 773b
000001a0: efa9 1e3c 061d 243c aac2 163a 0c11 023c
000001b0: a7a3 a93a bebc 673b 57a3 8d3b 4eba 8a3a
000001c0: ef76 5b3b 9a26 acbb 8c63 a33a 9faa bcb9
000001d0: e3f7 88b9 6d4e d23a 067e 5ebc cd0d 04bb
000001e0: 6c5e 023b c8a9 ad3b e1b0 4aba bbf9 33bb
000001f0: a4ca 643a ec64 803b 66d6 5939 f639 caba
00000200: 98cb 2e3b 7632 7bba 6fd9 b93b 7da6 be3a
00000210: 8b52 89ba 469b 09bb c517 19bb e4bf 583b
00000220: 9ea4 85bb 4341 4abb 73ba 97ba 06bf 44ba
00000230: 4702 2a3b e1d2 03bc ffc2 3a3b c733 4d39
00000240: 2bfe a539 887f a93b 1899 9a3a 255c 2b3c
00000250: f996 8c3b d348 89bb 3b7d 95bd af84 1cbe
00000260: b995 333e 6f67 d33c 7025 a73c 0f6b 91bc
00000270: 3171 be3d f2d5 6fbd b5f8 1f3d 7c0f b2bc
00000280: 9160 99bd 32f0 51bc fb55 a9bd af24 553d
00000290: a75e eabb 32ab 17bc 431d 8abc 48ff f1bd
000002a0: e29c 8dbc 6d2c c83b 4648 923b 851c 253d
000002b0: 4f96 6e3c 3c19 71bc a991 6c3d 7264 2bbd
000002c0: ee76 673d 931b 35bd 9098 5fbc e7ff 4fbd
000002d0: 2126 b73c ef40 283c 66f9 643c 2bef 983c
000002e0: c365 163d 84ea 20bb 41ad 80bc c68f ae3a
000002f0: 790c 33be 3795 833d c13c cebd e6b6 c8bc
00000300: 8e6a 323d a67b dfbd aabb 7c3d a7bb 113c
00000310: 0a4b 5dbc 4382 cebd 1f9b 213d 29d8 abbb
00000320: bd9b 003e 6b58 a23c 73e0 fe3c 9fef a2bc
00000330: 4bf7 243b d94d 3ebe 69bd 1ebd 5f9a 1f3d
00000340: 067d d7bd f041 fbba 182c 7e3d a953 663e
00000350: c0ea 6cbd 87f1 af3d 27d4 42bd 70d4 fa3c
00000360: 6446 5e3d 7473 5c3d 34be 88bd 1f6a 0bbd
00000370: 4d9e e1bc e239 5fbe ad03 7f3d 0724 a73b
00000380: 8e53 233c fc92 82ba 1781 86b9 7a97 01be
00000390: c5cc 36bd c3cc 05bd 607a 9eba 5953 06be
000003a0: bdab 363d faae 18bd c8ea 57bc 5845 253b
000003b0: 381c daba 4e11 a7bc ec58 bc3c 11a0 edbb
000003c0: 1ec1 acbd a7f9 c13d 8ce6 0e3e 3757 aebc
000003d0: a6f3 243a f93f bf3c f021 14bc 2938 603d
000003e0: dc38 e4bb a0fa 28be 6fb6 c03d 3e44 e8bc
000003f0: 5dc1 753b b415 fabd 6202 dfbd 3909 18bc
0.0019074626 -0.0016480676 -0.0001394008 0.013497761 -0.00043793817 0.008689871 -0.0038761334 -0.0012007894
0.008114827 0.00027063777 0.001407503 0.0015191892 0.0033307525 -0.0015590672 0.0049442425 0.007962943
-0.0035548748 0.018331135 -0.0010398821 -0.0066619525 -0.009534278 -0.00311331 -0.003539087 -0.0012935171
0.009666015 0.013479736 -0.0041813953 -0.008964674 -0.00471735 -0.0031580136 -0.00019430573 -0.00030367033
0.0023816419 0.04314377 0.001768259 0.00027906187 0.0028492142 0.0010310255 -0.02233362 -0.027351191
0.0009788745 -0.014085017 -0.00650848 0.086025834 0.0004884633 0.0009306197 0.008889834 0.01269381
-0.0033200015 -0.00048332702 -0.013315267 0.0007714957 0.0009729533 0.013661709 0.002482 0.036422517
0.014375038 0.0037353064 -0.0059580947 0.001031169 0.0014888721 5.276919e-05 -0.016585974 -0.0076043033
0.0022706797 0.0050397725 0.013481622 0.0044451356 0.0056962753 -0.0037825934 -0.010318017 0.0009782125
-0.00043642928 0.0019529975 -0.0016409813 -0.0028958898 -0.0143379 -0.0007415554 -0.023659863 -0.00021154823
0.00012721856 0.0009806816 -0.007060725 0.0016735265 0.004596267 -0.008688616 0.0046842345 -0.012731429
-0.00096104265 -0.0057138484 -0.0033268458 0.0028094687 0.0030146677 -0.014760957 0.0010672921 0.0008499215
-0.006073814 -0.001940903 0.0034849576 -0.0068835127 0.009467851 0.008132109 0.0036587168 0.0037722446
0.00968407 0.010016685 0.0005751053 0.007938635 0.0012942449 0.0035360302 0.00432245 0.0010584088
0.0033487638 -0.005253625 0.001246558 -0.00035985277 -0.0002612463 0.0016045101 -0.013579851 -0.0020149827
0.0019892706 0.0052997805 -0.00077320455 -0.0027462083 0.00087277056 0.003918281 0.00020774602 -0.0015428651
0.0026671644 -0.00095824094 0.005671672 0.0014545467 -0.001047687 -0.0020997091 -0.0023360115 0.003307336
-0.004078462 -0.0030861653 -0.0011575952 -0.00075052714 0.0025941299 -0.008045883 0.0028497574 0.00019569612
0.00031660622 0.0051726736 0.0011794893 0.010458981 0.0042904583 -0.0041895895 -0.072992764 -0.1528499
0.17537583 0.025806157 0.020403594 -0.017751245 0.09298933 -0.058553644 0.039055545 -0.0217359
-0.07489122 -0.012813615 -0.082683526 0.052036937 -0.0071523967 -0.009257125 -0.016859656 -0.11816269
-0.017286722 0.0061088116 0.004464182 0.0403104 0.014562204 -0.014715489 0.0577561 -0.04184384
0.056509905 -0.04421575 -0.013647214 -0.050781157 0.022357048 0.010269388 0.013975477 0.018668732
0.03671814 -0.0024553845 -0.015707614 0.0013317994 -0.17485227 0.06424945 -0.10070182 -0.024501275
0.04355865 -0.10912256 0.061702408 0.008894837 -0.01350666 -0.10083439 0.039454576 -0.005244274
0.1255941 0.019817552 0.031112885 -0.01988965 0.0025171812 -0.18584384 -0.038754854 0.03896558
-0.10521893 -0.0019169431 0.06205377 0.22492851 -0.057841063 0.085909896 -0.047565605 0.030618876
0.05426635 0.053821042 -0.06676903 -0.03403675 -0.027541304 -0.21799424 0.062259365 0.0051007303
0.009968651 -0.0009962018 -0.0002565465 -0.1265544 -0.044628877 -0.03266598 -0.0012090914 -0.13117732
0.044597376 -0.037276246 -0.013178535 0.0025218334 -0.001664049 -0.020393994 0.02299162 -0.0072517474
-0.08435272 0.094714455 0.13955134 -0.021281822 0.000629241 0.023345934 -0.009041294 0.05474106
-0.006964786 -0.16501856 0.094097964 -0.028352853 0.0037499287 -0.12211171 -0.10889126 -0.009279543

model.4.bias f4 [150]
00000000: 8e8d 56bd 2b6f 7dbd 2373 893d d9fe 8abd
00000010: 5e94 7fbe c555 adba 7d99 d4be 7f21 d5bd
00000020: b606 8bbe 2507 d33c f529 543d 47aa ef3e
00000030: 2d9e 493e 3ca2 ba36 d5a8 203e 931a 4abd
00000040: 2682 2a3c f6d5 f83c 37eb e1bd f568 5ebd
00000050: d9dc 15bf 2438 ebbc c6f8 2f3e 40a8 2e3d
00000060: 2bb5 e23b 6214 a83d 5fff 1b3d ae41 b73d
00000070: 247d aabb 4426 d3be cae3 8d3e b4c9 2ebd
00000080: 08b9 45bd 2192 483e 7e1f 00bf ee33 e4bc
00000090: d657 a63d 41a9 c53d 1b2d 87be 7ba5 cdbd
000000a0: cea3 2d3e c870 2e3e ddc1 2cbd f5d0 a23c
000000b0: 8944 5fbd 9528 933d 6ea9 403d d11f 403d
000000c0: e2b8 1dbd 8444 bfbd 1f08 f6ba 2f3b 0d3d
000000d0: 44c2 1d3e 788a 023d 526f 19bd 82dd 673d
000000e0: 71cb a03c 3cd5 853e 5b58 363e 4103 77be
000000f0: 768f fd3d 9710 ae3d 4823 a93e 1624 e6bd
00000100: b587 3ebd 662a 8f3c 3998 2c3d 2243 633c
00000110: d7c1 6ebd faa8 f4bc ca9a 32bc 5a3d 013c
00000120: 1606 8bbd 0df7 a73b 5430 29bd 1cdf ba3c
00000130: d348 0b3d 1d9b 67be f8a5 91bd dd7b a83e
00000140: bb83 89bd 1d06 1d3d 1072 84bd 3514 26bd
00000150: 9da2 683d 50eb ddbe cb74 82be 9377 8dbd
00000160: 7aa2 ef3d ecda 6a3e 7c9a 75bd f748 35bc
00000170: 0030 453d bc2c a23e d496 b93e e1e3 03be
00000180: e3b9 acbe f284 12bf 47b9 d93d eadb 303d
00000190: 4f9d 58be e36f e9be 1545 0fbe 4de0 023f
000001a0: ca6b bb3d 4693 823e efc7 e33d 2797 0cbb
000001b0: d6cf 2539 749f febc 3e07 a2bd b244 8cbe
000001c0: 6e28 89bd fea7 82bd 1111 59bd daff 02be
000001d0: c4ee 173c dcce ff3c 4c35 9b3d c778 5a3d
000001e0: 959f e4ba 5f22 6bbd 761c c43d 790c c13c
000001f0: b25f a2bd 7be3 7f3e 7e43 443e 3dfb 8e3e
00000200: a221 0ebc 62be ee3d 0d1d b7bc f90c 6fbc
00000210: b84b dabc 3b7a 40be 6f7e 9ebd 0a20 ae3b
00000220: 9e6d ba3b 80c1 d2b9 c6c4 46bb a6c6 f9bc
00000230: 027b d63e 94b8 99be 4afb 333e f1cf 53bd
00000240: 1eee 863d 8f45 a73d d42f 243d dd7d 0a3f
00000250: 0562 0c3d a2a5 c73c
-0.05238109 -0.061873596 0.06711414 -0.067868896 -0.24958941 -0.0013224414 -0.41523352 -0.104067795
-0.27153558 0.025760243 0.051797826 0.468096 0.19689246 5.5621185e-06 0.15689404 -0.04934175
0.010407006 0.030375462 -0.11031192 -0.054299314 -0.5854011 -0.028713293 0.17184743 0.042640924
0.0069185696 0.08207013 0.038085338 0.08948074 -0.005202906 -0.41240132 0.27712852 -0.042672828
-0.048272163 0.19586994 -0.50048053 -0.027856793 0.08122222 0.09651423 -0.264016 -0.100413285
0.16957018 0.1703521 -0.04217707 0.01987503 -0.05450872 0.07185475 0.04703658 0.046905342
-0.038506396 -0.0933924 -0.0018770731 0.03448027 0.15406138 0.031870335 -0.03745968 0.05660773
0.019628258 0.26139247 0.17807142 -0.24122335 0.123808786 0.08499258 0.3303473 -0.112373516
-0.04651614 0.017476272 0.04213736 0.013870986 -0.05829033 -0.02986573 -0.010901162 0.0078881625
-0.0678827 0.0051258863 -0.041305855 0.022811465 0.034004997 -0.22617765 -0.07111734 0.32907
-0.06714579 0.03833591 -0.06467068 -0.040546615 0.056795705 -0.43343592 -0.2547973 -0.069075726
0.11700912 0.22935075 -0.05996178 -0.011064759 0.04814148 0.31674755 0.36247885 -0.12879898
-0.3373557 -0.5723411 0.10631042 0.043178476 -0.21153758 -0.45593175 -0.13991196 0.51123506
0.091514185 0.25502986 0.11122119 -0.0021452399 0.00015813051 -0.031081893 -0.079115376 -0.2739616
-0.066971645 -0.06379698 -0.05299479 -0.12792912 0.009273235 0.031226568 0.07578525 0.05333784
-0.0017442579 -0.057405826 0.09575741 0.023565518 -0.07928409 0.2498912 0.19166371 0.27926055
-0.008675011 0.116574064 -0.02235272 -0.014590495 -0.026647434 -0.18796627 -0.07738959 0.005313878
0.005689337 -0.0004019849 -0.0030329688 -0.03049023 0.41890723 -0.30023634 0.17576328 -0.05171198
0.06588386 0.08167564 0.040084675 0.540983 0.034273166 0.024370972

model.6.weight f4 [22, 150]
00000000: 130b 3ab9 59ea d73c 101d 04b8 84d9 01ba
00000010: c82e 56bc 7604 e339 c401 a13c a6fb e1ba
00000020: d4b5 45bc 05e8 82bc ebca 76ba a729 18bc
00000030: b20a 143d 8bbb ecb9 170b 6dbc c6e6 153a
00000040: 1a11 95ba 9355 833a 5f52 393c 4880 79bc
00000050: 1d03 213c 7e17 9039 9e7a d93b 71fa a4bc
00000060: 309d 10ba ee9f 60bc 3cca da39 b002 813a
00000070: 5999 3b3b 920f 8a3c 3bde 0a3c 3053 a43a
00000080: bf34 223a 929a e63d 4b16 e23c 020b 1bbb
00000090: 7b45 563a fce5 e7bc 0854 0abc ddf2 b1ba
000000a0: 50f1 cbbc 9155 763c e684 af3c 5248 143a
000000b0: cbe1 8c3a 3ecd 17bd ea23 ad39 5a87 32ba
000000c0: eaef 0d3a d2ef a1bb 0793 a03a df70 9a3b
000000d0: 5ab5 94bc e4e0 aebc 2d11 f63a d082 c5bd
000000e0: 4ad6 913a 5489 c6bd 885f 463c 5cac 1f3d
000000f0: 01db 96bb 7783 9d3a 98b8 80bd de06 e53d
00000100: 762c 3ab9 d15c 803a adc5 37ba 7559 053b
00000110: f529 99ba 9ecf 53ba 08a1 f7b9 306d 9f3a
00000120: 2870 273e ca05 3b3c 59d2 0939 9bfa 6fba
00000130: 78ef 803a 9dd8 0b3e 6cd6 92b8 7af9 3a3c
00000140: df5c 91ba 53da 413a 89b8 ddba 8e17 7439
00000150: 68a1 c0b9 3c00 0cbd cd20 ba3c ee1d bbb8
00000160: 1130 05bc 0da0 373e df5a 103b d37b 69bb
00000170: 78e6 53b9 d307 4d3c fe43 0a3c 5981 b13b
00000180: 1430 893d 0381 363c 9d48 ad3a 53ca 53bb
00000190: 28f0 9cbd 17d4 083e 10e2 92ba 5e65 11be
000001a0: bc47 873b 42ac 263c 79aa 13bb 0a8b a438
000001b0: 5c79 4f3d 7686 c63a e2da 9f3d 0dbc 38bc
000001c0: f812 5cba 13bb 19ba 985c 2639 e9e0 97bc
000001d0: 559c 433a e42d 553a 2075 c23c c748 08ba
000001e0: e189 4b3c a446 9b3d 3554 40bd a49a 99ba
000001f0: 7418 3c3c e7c2 8abc a39d 6d3d bc80 07bc
00000200: 1044 a539 ef08 d8bb a9e8 6439 af77 dd3d
00000210: 4911 b7bc c069 91bc 068b b439 e4d7 663a
00000220: f0af 85b9 dbc1 533b 7848 113c 491e 8fbc
00000230: d4af 543d 8d13 383b 25f3 d8bc f10d 59ba
00000240: a512 113a 1a18 27ba 57e4 09bc c3f4 70bd
00000250: 9fe5 aeba bb2c 2eba f0e0 973a d1b8 9cbc
00000260: 3255 9239 b727 d4b8 c643 61bc 45d8 913a
00000270: 4a82 8e3d 98c8 933a 3ad8 5ebc 0512 323c
00000280: 5987 d7ba 5caa 05bc 85cd 31bc 9c7f dfb7
00000290: 7b1e 50bc d078 bd36 6de5 9eb9 53d8 233b
000002a0: a3b6 25bd a78f b4b9 61f7 273c c350 8438
000002b0: 2db0 cfbd db35 f73d e882 df3a 0ff9 b53d
000002c0: 3591 063a cf64 4eb9 e98c 58bb f6e1 a63c
000002d0: fdb5 fabd 058c c03a aca2 183a d5dd edbb
000002e0: c53d 29be 0722 42bc d07d 0e3b 6afc 37bd
000002f0: 71cc 13bc 265c 2c3c 9924 0ebb 14c7 803c
00000300: 9596 453c e368 48ba 4966 6eb8 90ce 28bd
00000310: e083 80b9 01ea 98ba 8c6f 123b 3357 b1ba
00000320: ef58 c2ba 52ab 1b3b 4ef1 8abc 29f9 203e
00000330: 5991 bc3a 3834 213c 3e6c c73a 7421 013c
00000340: 99b9 18be d225 c1bb c3e6 c5bc 3068 65ba
00000350: 2571 b6ba c083 1abc 7ffa 17b8 5256 42ba
00000360: 794d 5dba d5d4 9e3a 7db8 f8ba 3a59 ae3a
00000370: 3684 2eb7 1e58 cc3a 8257 51bc 1a8d c8bb
00000380: c149 423b af98 2f3a fb2a 82ba 0805 69bc
00000390: ee0d 1a3a 885c 303c 6695 ecba b0e1 a939
000003a0: 5c33 5cba 95f6 37ba 7162 41bb 3d0d 283e
000003b0: 9146 ab3c 4972 c8ba a893 dabb bbd4 b0bc
000003c0: 6cb9 04bb 94fd 2b3d 6e7e 02ba 9144 4e3c
000003d0: a4d2 9dba 989d 573b a716 00bd 3233 ecbd
000003e0: bb78 363b 18b2 943a f4f0 c03b a24c f53d
000003f0: 425e 133a aaad 38bd 2cf6 6b3b b970 ad3c
-0.00017742468 0.026356863 -3.149832e-05 -0.0004953372 -0.013072677 0.00043300138 0.019654162 -0.0017241135
-0.012067277 -0.015979776 -0.00094143924 -0.009287274 0.036143012 -0.00045153158 -0.014467976 0.0005718287
-0.0011372895 0.001002001 0.011311143 -0.015228339 0.009827402 0.00027483323 0.0066369316 -0.020138951
-0.0005516587 -0.013710005 0.00041730877 0.000984272 0.0028625338 0.016853128 0.008475835 0.0012536999
0.00061876694 0.11259951 0.02759852 -0.0023657684 0.00081738055 -0.028307907 -0.008442886 -0.0013576407
-0.02489534 0.015035049 0.021425676 0.00056565285 0.0010748444 -0.03706097 0.0003302389 -0.000681033
0.0005414473 -0.004941919 0.0012250849 0.0047131623 -0.018152881 -0.02134747 0.0018773429 -0.09644091
0.0011126485 -0.09694162 0.012107737 0.038982734 -0.004603744 0.0012017329 -0.062852085 0.111829504
-0.00017754905 0.0009793286 -0.0007010352 0.002034751 -0.0011685478 -0.00080799486 -0.0004723149 0.0012163278
0.16351378 0.011414954 0.00013143699 -0.00091544696 0.0009836992 0.1365685 -7.001762e-05 0.011412019
-0.00110903 0.00073948986 -0.0016915958 0.00023278428 -0.0003674135 -0.03417991 0.022720719 -8.92243e-05
-0.008129136 0.17932148 0.002202682 -0.0035626784 -0.00020208384 0.0125140725 0.008439062 0.005417031
0.06698623 0.011139157 0.0013220493 -0.003231664 -0.07662994 0.13362156 -0.0011206288 -0.14198825
0.0041284245 0.010172905 -0.002253203 7.8460274e-05 0.050652847 0.0015146274 0.078054205 -0.011275304
-0.00083951605 -0.0005864363 0.00015865488 -0.018539863 0.0007461955 0.00081321434 0.02373749 -0.0005198833
0.01242301 0.07581833 -0.046955306 -0.001171906 0.011480439 -0.01693864 0.058011662 -0.008270439
0.00031521963 -0.006592862 0.00021830447 0.108138435 -0.02234711 -0.01775062 0.00034435856 0.0008805974
-0.0002549882 0.0032311592 0.008867376 -0.017470496 0.051925495 0.0028087825 -0.026483128 -0.00082799705
0.0005534089 -0.0006374136 -0.008416257 -0.058827173 -0.0013343579 -0.00066442386 0.0011587422 -0.019131096
0.00027910765 -0.00010116345 -0.013749069 0.0011127075 0.069584444 0.0011274992 -0.013601357 0.010868554
-0.0016443535 -0.008158293 -0.010852222 -2.6643094e-05 -0.01270258 5.6467034e-06 -0.00030307044 0.0025000765
-0.04045738 -0.00034439305 0.010251851 6.3092935e-05 -0.10141025 0.12070819 0.0017052563 0.08885395
0.0005133332 -0.00019683245 -0.0033042973 0.020371418 -0.12241743 0.0014690167 0.000582258 -0.0072591105
-0.1652747 -0.011848933 0.002174247 -0.044918455 -0.009020911 0.010520017 -0.0021689294 0.015719928
0.012059827 -0.0007645024 -5.6838882e-05 -0.04121262 -0.00024512317 -0.0011666418 0.002234432 -0.0013530016
-0.001482753 0.0023753238 -0.016960766 0.15720047 0.0014386579 0.00983911 0.0015214754 0.007881511
-0.1491455 -0.005894401 -0.024157887 -0.0008751182 -0.0013919218 -0.009430826 -3.6234498e-05 -0.00074133754
-0.0008442025 0.0012117872 -0.001897588 0.0013301738 -1.0401991e-05 0.0015590226 -0.012777211 -0.0061203362
0.0029646012 0.0006698472 -0.0009931022 -0.014222391 0.00058767095 0.010764249 -0.0018049895 0.00032402342
-0.0008399987 -0.00070176396 -0.0029508139 0.164113 0.020907672 -0.0015292849 -0.006670434 -0.021585813
-0.0020252122 0.041989878 -0.0004977946 0.01258959 -0.0012040925 0.003290033 -0.031271603 -0.11533202
0.0027842957 0.001134458 0.005888099 0.11977507 0.00056216505 -0.045087494 0.0036004884 0.021171914

model.6.bias f4 [22]
00000000: da10 80bd 7b99 f6bd b01b 45be b1fe c0bd
00000010: 8110 2a3d 7207 c73b cf5d d33d 8bf3 043e
00000020: edb8 a23d ebe9 8b3d a2d2 10bd 0794 bbbb
00000030: 9c32 8c3c fe14 63bc 7cf1 8d3d 449e e53c
00000040: 8a22 783d b7ac d93c ddc8 debc ca6d 5ebc
00000050: 67d7 72bc b14b 253c
-0.06253214 -0.12040993 -0.19248843 -0.094235785 0.041519646 0.0060738856 0.10320627 0.1298353
0.07945428 0.06831726 -0.035357125 -0.0057244333 0.017113976 -0.013859985 0.06930825 0.028029568
0.060579814 0.026571615 -0.027195388 -0.01357598 -0.014821864 0.010088847
