src/RNA/rna_global_model (10).pth (torch, 204268 bytes, 8 tensors)

model.0.weight f4 [150, 10]
00000000: 5d69 89bb 394e 49be a151 90be f237 11be
00000010: 5242 923e b82c a1bd 5cee 043d d47c be3b
00000020: dfd9 3c3e 5640 f8bc 1dad c83b 9b45 bf3e
00000030: 2790 88be 7e9f dabd 5966 0dbd 033d e3bd
00000040: 56bd b23d 8ff0 2dbe f026 453b 56cb a13d
00000050: 78fe 783a fbad 27bd ae3c be3e 7f1f 7b3e
00000060: 84a2 143e 7663 b73d 580f 6fbe 3180 86bd
00000070: 99c1 ef3c 2d55 34be 5e4c c1ba 0a8e 57be
00000080: ef89 763e 0ad1 573e 2322 a9be d26f d33d
00000090: 5930 233d f046 4eba 3322 8bbd f8f1 8bbd
000000a0: f61f 963a cd71 9cbc b850 09be eca5 5ebd
000000b0: 953a 21be 2da5 90bd 22a9 d63d b1f1 2c3e
000000c0: 77fc 353e f9e2 733d ab2e 2e3b 1e7d 983e
000000d0: 252b 113e 00ee 2d3e 064d 1cbf 7ef9 e93a
000000e0: a0e8 073d 2045 8f3d e481 8bbc d803 4dbe
000000f0: 6091 afba e00c c2bd 7f2a 733e de7b 3cbd
00000100: 0e03 b13e 91bd 53bd 07b0 92bc 9ff6 1dbd
00000110: 65d4 5f3e 137c d83b 6e4f 6c3a a936 5a3e
00000120: 185e 9bbe b838 e13d 1fc9 a8bd facc f8bd
00000130: 0c9b 77be 63c8 34bc 5380 723c 1a25 cabd
00000140: 2546 f839 14b9 63b8 753c 7539 7cf4 51b9
00000150: 1c14 34b9 75dc ca38 694f 87ba e06c e239
00000160: 776f f5b9 e6eb f1b8 d74c 1bbc 106a 713d
00000170: e2cc febb b237 a3bd f71f 8cbd 99a2 31bd
00000180: 0227 7fbb 61cf ca3d 6c82 15bd 6705 29be
00000190: 421e 063b c3d2 2e3d f1ab d73d a45e a93d
000001a0: 2d63 9b3d d00c 743d 6f27 3b3d f01f c73d
000001b0: f8b9 24be d964 acbe cd8c 41bb 454a eebd
000001c0: a0e7 d73e 3860 7cbe 13a3 e23d 99d0 1cbd
000001d0: 76bc 13be e101 10be 7418 8cbd b673 93bd
000001e0: 4b40 25ba 8e8f 29ba 2367 2eb9 c025 04b9
000001f0: 3c30 54b9 84eb 9fb8 b8b6 ac39 6012 b6b8
00000200: 4c89 1e3a 56f3 6eb9 caec cf3a a529 423d
00000210: 0795 e2bd a481 febd 7b51 e03d de68 4ebd
00000220: 783a 23be 1d35 2bbd ca41 5fbe 8b2a 35bd
00000230: 356f 88ba 5335 8cbe c061 1e3d fadf c83b
00000240: 7659 38bf 1768 ae3d 4169 11bd 461d 903a
00000250: 5e77 6d3d b02c 22bd 7d68 8a3b 0eec a6be
00000260: 33dc 9a3e f72f 1fbe 41c0 53bd 3868 1d3e
00000270: f09d cfbd d56c 113d 5aa3 16bd a000 7f3d
00000280: 9304 913b a99e 4b3e 94e8 3b3e 551d 633e
00000290: 3cca 3ebe 4a5f dbbc 8527 6b3e 16c1 e6bd
000002a0: bbb8 0f3c 244d b33d 9010 e83a 0a58 343d
000002b0: 3720 503e d1fd 5ebe 4b4d 87bb 9326 5a3e
000002c0: dfe6 d9bd 7b68 213e 47b1 093c 59be c03c
000002d0: c13d faba 3aba 2f3e 268a 943e 5feb 6ebe
000002e0: 9eeb 26be b729 2ebd 74ad f0bd bf8c 413d
000002f0: 5b6f f63d 5697 783d 0129 64ba 1dfc 3b3d
00000300: 5259 41bf c6a4 25bd e1ac 3bbd f8da dcbd
00000310: 3e2d 313d b02d e7bc 2076 be37 f86e a1bc
00000320: d6e6 8bbb b910 38be c31f 743e ef9c 143e
00000330: 21cb 323c 654a 893d 8beb 42be 931b 89bd
00000340: 5826 1d3d 8322 143e 0629 b43a cab4 46be
00000350: 7e53 1cbe 4d32 843e 1faa 113c cac3 d6bd
00000360: decf dbbc f5e9 44bd 032b 213e 8033 f8bd
00000370: fc73 1fb8 2024 ed3c faa5 fe3b ffc2 b4be
00000380: 108b 613d f6b4 24bd 3464 223d 0835 16be
00000390: 044b cdbc b3ba 673e d4c3 12ba 80c6 11be
000003a0: db01 aabe 8783 9bbe 418b a2bd a0bd 16bc
000003b0: db24 0c3e ac22 31bc 75bf 06be 11b6 f1bd
000003c0: 1c68 93b9 b51a eb38 2cda f239 345f e4b8
000003d0: 0ffc 1339 5375 c6b8 1813 6c37 5a13 b938
000003e0: 395c 4339 e3c1 5539 88b3 dc3b 28da 91bd
000003f0: a351 cb3c fd08 053d 26e7 b9bc 7dc3 3ebd
-0.0041934685 -0.19658746 -0.28187278 -0.14181498 0.28566223 -0.078698575 0.03245388 0.0058132205
0.18442486 -0.030304115 0.0061241523 0.37357792 -0.2667248 -0.10674952 -0.034521434 -0.110956214
0.08727519 -0.16986297 0.0030083023 0.079001114 0.0009498368 -0.040937405 0.3715567 0.24523734
0.1451512 0.089545175 -0.23345697 -0.06567419 0.02926712 -0.17610617 -0.0014747491 -0.21050277
0.24076055 0.21075836 -0.33033857 0.103240624 0.03984103 -0.0007868847 -0.06793632 -0.06833261
0.0011453617 -0.019097233 -0.13409698 -0.054357454 -0.15745004 -0.07062755 0.10481478 0.16889073
0.17772089 0.05954263 0.002657811 0.29782957 0.14176615 0.16985321 -0.6105503 0.0017850844
0.033180833 0.069956064 -0.01702971 -0.20020998 -0.0013394766 -0.09475112 0.2374668 -0.046016566
0.34572643 -0.051694456 -0.017906202 -0.038565274 0.21858366 0.0066065877 0.00090145215 0.21309914
-0.30345225 0.10997146 -0.08241486 -0.12148471 -0.2418024 -0.011034104 0.014801103 -0.09870358
0.00047354508 -5.4293385e-05 0.00023387543 -0.00020022871 -0.00017173629 9.673174e-05 -0.0010323349 0.00043187197
-0.0004681309 -0.00011535715 -0.009478769 0.05893904 -0.007775889 -0.079696074 -0.06842034 -0.043367956
-0.0038933163 0.09902836 -0.036501333 -0.16505967 0.0020464812 0.042681467 0.10530842 0.082700044
0.07587276 0.05958253 0.045691904 0.097228885 -0.16086566 -0.3367069 -0.0029533387 -0.116352595
0.42168903 -0.2464608 0.1106626 -0.03828487 -0.14427361 -0.14063217 -0.068406016 -0.071998045
-0.0006303831 -0.00064682297 -0.00016632355 -0.00012602564 -0.00020235864 -7.625579e-05 0.00032942533 -8.681859e-05
0.00060476805 -0.00022788098 0.0015863415 0.047402997 -0.11063581 -0.12427071 0.10953041 -0.050392978
-0.15940273 -0.0417987 -0.2180244 -0.044230025 -0.0010409119 -0.27384433 0.03866744 0.0061302157
-0.72011507 0.08515947 -0.03550077 0.0010995052 0.057975166 -0.0395934 0.0042238818 -0.3260197
0.30246124 -0.15545641 -0.05169702 0.15371788 -0.10137546 0.03550418 -0.036776878 0.062256455
0.004425594 0.19884743 0.1835044 0.22179158 -0.18631834 -0.026778836 0.22964294 -0.11267297
0.0087720705 0.08754948 0.0017705131 0.044029273 0.20324789 -0.21776511 -0.004129087 0.21303777
-0.10639738 0.15762512 0.008404083 0.023528265 -0.001909189 0.17160884 0.2901165 -0.23331974
-0.16300818 -0.04252025 -0.117518336 0.047253367 0.12032958 0.0606912 -0.000870362 0.04589473
-0.75526917 -0.040440343 -0.045819167 -0.107839525 0.043256037 -0.028220028 2.2704771e-05 -0.019706234
-0.004269461 -0.17975129 0.23840241 0.1451299 0.0109126875 0.06703643 -0.19035165 -0.066947125
0.038366646 0.1446629 0.0013745136 -0.19404903 -0.15266225 0.25819626 0.008890658 -0.104865626
-0.026832517 -0.04807468 0.15739064 -0.12119198 -3.8016573e-05 0.02894789 0.007771251 -0.3530502
0.05506426 -0.04021164 0.039646342 -0.14668667 -0.025060184 0.22629814 -0.00055986387 -0.14235878
-0.3320454 -0.30373785 -0.07936717 -0.009200484 0.13685934 -0.010811489 -0.13158973 -0.118023045
-0.00028115592 0.00011210648 0.00046320388 -0.0001088962 0.00014112912 -9.463229e-05 1.4071142e-05 8.825092e-05
0.00018631005 0.00020385491 0.006735269 -0.07121688 0.0248192 0.032479275 -0.022693228 -0.04657315

model.0.bias f4 [150]
00000000: eac6 47be dbcd 3cbd 79c4 e23e 488c f8bd
00000010: 39e2 903c 4ed6 3abe ad79 8ebd 5204 983d
00000020: 2308 d7b8 c638 8c3d 4af0 2f3e 9bdf d93d
00000030: 7765 1238 34f5 bc3d 5665 02bf 504a 823e
00000040: 3be4 1d3e ab16 aebd b334 bbbd ea8b 96be
00000050: c8ed 33bd ee06 6f3d 4664 43be c5aa 83be
00000060: c2c2 e538 c412 85bd aff5 053d ace8 17be
00000070: c07a c9b8 c2ae f83b 80a4 8fb7 141c 8d3e
00000080: 5c6a cb3d 1b24 d23d ca34 33bd a0cb 00be
00000090: b0b6 013e 0865 eabd 5444 623d cea2 c1bd
000000a0: 0a30 1dbe 755d 85bc bfae 9a3e 4a09 6e3c
000000b0: 14e4 8fbe 1b30 d3be b880 2abb 5d98 9c3d
000000c0: 78d9 a8be 6d23 4ab9 3820 31be 2733 b6bd
000000d0: 0a77 f53d 562d 0dbe 2969 2abd a648 77be
000000e0: ae3b f7b8 e072 933c 2885 0f3a d25d 5638
000000f0: d09e 5d3e 8df9 bbbe e916 51be 0a0a 3a38
00000100: fc80 c43c a6f6 dfbe 091a 1abd 9d21 7dbe
00000110: 852d d8bd 00a2 73be 0455 e9bd 6cef 453e
00000120: f123 72bc 5074 113e 13d2 09be 8e97 513e
00000130: 09f7 b8bd 3b56 f5bd e220 dfbe 8874 9e3e
00000140: 809a 733e e274 ec38 476f 8b3e 2890 7b3e
00000150: da0e 183e 9d32 a8be aef4 a2bd 0000 e33e
00000160: fe1b 19be 18de f238 8aaa 62be 13df 0dbe
00000170: d14c d2bd 2a0a 59be d0f9 e4b8 54f5 8a3d
00000180: 83da c43c 377f 273e 23fa cd3d 9d5b 0cbe
00000190: b445 2139 d6c1 613e d27b 8e3e d635 f43d
000001a0: 28b3 89bd f782 f43c 2518 7abd 1dd5 72be
000001b0: 657b 06be 0432 17bf 24f7 733d 6919 02be
000001c0: 1591 f1bd 6ced 55b8 862a f6bd 2d83 68bd
000001d0: d60d e53c 6862 01be 78fe d43c 12c2 c03e
000001e0: ac6e 11be 0a68 953d eb56 443e a3fb d8bd
000001f0: 10a1 2039 ee34 133e 677c fcbd cfcf 433e
00000200: 1eae d9be eb5e 0b3e ff8d 06bf a6be 69bd
00000210: 0135 a33d 776c a8bd c702 64be e4d9 e33e
00000220: 89aa d6be 8d1a 31be 48e4 05be e625 84be
00000230: 4920 68bc 96e2 5cbe 5d15 cc3e 6298 b9bd
00000240: 353a e0bd f43a 1ebe 02fc 353d 632a 7db9
00000250: 4d58 a0be 34f1 c63c
-0.19509473 -0.046094757 0.44290522 -0.121361315 0.017685996 -0.18245813 -0.069568016 0.07422699
-0.000102535145 0.06846766 0.17181507 0.106383525 3.490361e-05 0.09226456 -0.50935876 0.2544732
0.15419094 -0.08500417 -0.09140911 -0.2940362 -0.043927938 0.058356218 -0.1908122 -0.25716224
0.000109558474 -0.0649772 0.032705005 -0.14834851 -9.607291e-05 0.007589192 -1.712353e-05 0.27560484
0.09932396 0.10260793 -0.043751515 -0.12577677 0.12667346 -0.114450514 0.055240944 -0.09454881
-0.15350357 -0.016279915 0.30211446 0.014528582 -0.28103697 -0.4124764 -0.0026016664 0.076462485
-0.32978415 -0.00019277418 -0.17297447 -0.08896475 0.119855955 -0.13786826 -0.041604195 -0.24148807
-0.00011788994 0.017999113 0.0005474859 5.1108953e-05 0.21642613 -0.3671383 -0.20418896 4.4355205e-05
0.023987286 -0.43742865 -0.037622485 -0.24719854 -0.10555557 -0.23792267 -0.113931686 0.19329613
-0.014779077 0.14204526 -0.13459043 0.2046797 -0.09031493 -0.11979338 -0.43579775 0.3094828
0.23789406 0.00011275128 0.27233335 0.2456671 0.14849415 -0.32851115 -0.07956825 0.44335938
-0.14952084 0.000115808274 -0.22135368 -0.13854627 -0.10268558 -0.21195284 -0.000109184184 0.06785074
0.024029976 0.16357122 0.100574754 -0.13706823 0.00015380123 0.22046599 0.27828842 0.11924331
-0.067236245 0.029847605 -0.061058182 -0.23714109 -0.13133009 -0.5906069 0.059561864 -0.12705006
-0.1179525 -5.1004274e-05 -0.120198295 -0.056765724 0.027960699 -0.12635195 0.026000246 0.37648064
-0.14202374 0.072952345 0.19173782 -0.10594871 0.0001531879 0.1437566 -0.12328415 0.19122241
-0.42515653 0.13610427 -0.5256042 -0.057066582 0.07969094 -0.08223813 -0.22266684 0.44502175
-0.41926983 -0.17295285 -0.13075364 -0.25810164 -0.014167854 -0.2157081 0.3986005 -0.09062268
-0.10948602 -0.15452176 0.044429787 -0.0002414375 -0.31317368 0.024284936

model.2.weight f4 [150, 150]
00000000: 9357 543e 49b0 203c 1370 203e 7b07 a7be
00000010: 5d2f 3bbe 3c79 bfbe b232 693e 5e5e 03bc
00000020: 455f 59b9 62be b7bd 705e bb3d 83f8 8f3d
00000030: b32b 0d3a 6701 d1bc 6842 debe 2ef4 80bd
00000040: 27da 24be cb35 7e3d 7ea4 e4bd aa8e a4bd
00000050: 16dd 9b3b d1eb 45bc cdf3 a6ba 95e1 82bd
00000060: f11e 05bb 6a5b 8a3d 6c2c a9bd 7dc6 9dbd
00000070: 58d3 023b b702 15be 8781 96ba cd2b 8cba
00000080: d4ea 84bb 6f65 3cbe e517 053e 71e5 593d
00000090: 29a5 64bd 2584 8fbc ee7d 3abd cb14 f6bd
000000a0: d3d0 7abd 82ca 9ebd 3499 f33d c067 c1bb
000000b0: 8774 963d be68 6bbd a976 c73c 7709 b63a
000000c0: 169e cbbd 86fa 5bbb 8ac2 053c 23d2 27be
000000d0: 2a71 21be 2153 f9bd bcfa 25ba 2459 e2bd
000000e0: e4bb 7f3a fac5 fbbd 895b 693c 1b87 0cba
000000f0: 539a 1f3c 3cc4 15be fb32 28be 4fc5 6fba
00000100: 9257 34bb 5d44 243d ab4f 013d 8eff b6bd
00000110: 9536 39be 3d85 ff3b d822 ee3c 3826 923d
00000120: 0e7b 89bd 2679 793e d4b0 b5bd f861 33bd
00000130: 5afa 053c 9c8a 6abe 7de5 9abd 8a6e 593c
00000140: 0a19 54bb ab6d e13a ccaa c93d 175e 70bd
00000150: 20b1 23bd 227d 56be b705 7abd e7b6 3d3e
00000160: e12d ee3d 267c 99ba 8a98 913d 6853 443e
00000170: 35b1 dd3d b5d0 153d 89db 0e39 87fd 8dbd
00000180: 417e 463e 095f c6bd 1687 e23d 39d8 093e
00000190: 14be 67ba 445c 90bd 3e83 9c3d d49f 70bd
000001a0: 4a93 19be 176c 00be 3ec8 66bd b580 d63d
000001b0: 7111 40be d18c a5bd 3191 a53b 2adf bcbd
000001c0: adc4 a1bc b897 4dbd f0f2 e9bd 7744 8e3d
000001d0: ac5a 1bbd fc67 723d c3df 56bd d365 00bd
000001e0: c2a1 5b3b 7b8c 923e 2279 b93e 268d 243d
000001f0: fabf 54ba 1476 9d3d 8068 273b b42b 903d
00000200: 6406 913c c244 c5bb 8ddc c1be 97a8 e1bd
00000210: b878 21bc 8e62 993d 493d 603c 73e8 3a3b
00000220: e559 4abe 3ed6 4e3e b305 3e3d 787c b4bd
00000230: 55b9 a43c 446b e5bd b732 15be 6d28 21be
00000240: fee0 143d c965 f4bd 1fb2 80bd e938 373a
00000250: 9304 0c3d 3a04 59be c1f2 8abc 4fa3 fd3d
00000260: 9a02 073e 4270 e9bd 5af1 ffbc cfe3 ba3c
00000270: d4e1 d93d 2030 853d 44d2 23ba 42b3 e23c
00000280: 6a19 d93d 7ec7 c53b adae a3ba a26f 183d
00000290: d698 e9bd d0c7 a4bd 6e0f e43d 0778 16be
000002a0: 0828 f33c dd09 d33c b2d8 bcbd 797e 5ebc
000002b0: 9543 6fbd 23a9 2dbd 9a76 c738 570a de3d
000002c0: ed43 97bd f2f9 d7bd 05ae a9b9 2d0b 80be
000002d0: edc3 ffb8 5445 ad3b 59ad 57bd 8b37 4b3e
000002e0: fb81 463e 8e65 583d 87ad ccbd 5b44 9fbd
000002f0: 66ed cbbb 9508 7c3c bdcd d43d 5788 e1bd
00000300: a1db 9bbd c612 ec3c 4b63 0d3d 3a9d f6bd
00000310: 479d f93d 1b33 353d a54f e33c c967 0fbb
00000320: 2255 073e 3308 ac3b f4c4 bfbc a520 db3c
00000330: 967a 36bd 502c c73a edef 3aba 56a1 973d
00000340: c1c3 88bd 037a 523a 8148 6c3e e3a8 3abd
00000350: 4b0c 303d 50e0 d139 9d8d 02bd 3cf7 2ebe
00000360: afc2 8dbc a26c 383d d219 edbc a45a 38bc
00000370: 6f0b 84bd 13c4 63bd d6d8 333d e03d aebb
00000380: 95e9 3abd f6f1 c23c 4a27 f1bd 212b aa3d
00000390: 3adc 62be 1af8 2fbe 7b24 593d fb35 47bb
000003a0: c68e 79be 428f e83c e22e 113d b09c ba3d
000003b0: 09a0 e43d 046c cbbd fdd9 423e c945 a13a
000003c0: 3c45 443d aae7 2b3e d270 0f3e 53a3 8ebd
000003d0: b460 bc3a 63d2 143e e817 013e b89a 3ebd
000003e0: 6526 a2bd 5c06 35be 2483 9e38 d2e9 163e
000003f0: e2e2 af3d 7834 f7bd bd3e 563c 3f87 1d3e
0.20736532 0.009807655 0.15667753 -0.32622895 -0.18279786 -0.37397182 0.22773245 -0.008018104
-0.00020730223 -0.089718595 0.09148872 0.07029822 0.0005385235 -0.025513364 -0.4341004 -0.062965736
-0.16098844 0.06206302 -0.11164187 -0.080350235 0.00475658 -0.012080149 -0.0012737453 -0.063906826
-0.0020312632 0.06755717 -0.08260426 -0.07703874 0.0019962396 -0.14551817 -0.0011482694 -0.0010694206
-0.004056314 -0.18398069 0.12997396 0.053197328 -0.05582157 -0.017519066 -0.045530252 -0.12015685
-0.061234307 -0.07753469 0.118944556 -0.0059022605 0.073464446 -0.057472937 0.024348574 0.0013888319
-0.09942262 -0.0033566072 0.0081640575 -0.16388755 -0.15765825 -0.12174059 -0.0006331613 -0.110521585
0.0009755476 -0.122936204 0.014243015 -0.00053607085 0.009741384 -0.14625639 -0.16425698 -0.0009146528
-0.0027518016 0.04010426 0.031570118 -0.08935462 -0.18087228 0.0077978657 0.02906935 0.07136196
-0.06712924 0.2436262 -0.08871618 -0.043794602 0.008177364 -0.22904438 -0.07563303 0.0132709835
-0.0032363557 0.0017198821 0.0984703 -0.05868348 -0.03996384 -0.20946172 -0.061040606 0.18526803
0.116298445 -0.0011709973 0.07109173 0.19172442 0.10824815 0.03657599 0.00013623959 -0.06933122
0.193841 -0.09686095 0.11060922 0.13461389 -0.00088402745 -0.07048848 0.0764222 -0.058746174
-0.14997593 -0.12541233 -0.05634331 0.10473768 -0.18756653 -0.08083499 0.0050527086 -0.09222253
-0.019747103 -0.05019352 -0.1142329 0.069466524 -0.03792827 0.0591812 -0.05245949 -0.031347107
0.0033513163 0.28622803 0.3622523 0.040173672 -0.0008115765 0.07688537 0.0025544465 0.07039586
0.017703243 -0.0060201595 -0.3786358 -0.11018484 -0.009855442 0.07489501 0.0136864865 0.0028519898
-0.19760855 0.20198914 0.046392154 -0.08812803 0.020107904 -0.112021 -0.14570127 -0.15738077
0.03634738 -0.119334765 -0.06283974 0.0006989376 0.03418405 -0.21193019 -0.016961457 0.12384664
0.13184586 -0.113983646 -0.031243015 0.022813706 0.106387764 0.0650332 -0.00062492886 0.027673367
0.106005505 0.006035744 -0.001248797 0.037215836 -0.11406104 -0.08045924 0.111357555 -0.14694224
0.029682174 0.02576154 -0.09221019 -0.013579958 -0.05841406 -0.04239763 9.511151e-05 0.10841816
-0.07386003 -0.1054572 -0.00032363847 -0.25008526 -0.000121958416 0.0052878056 -0.05265555 0.19845407
0.19385521 0.052831225 -0.09994035 -0.0777671 -0.0062233685 0.0153829055 0.10390804 -0.11012333
-0.0761025 0.028817546 0.03451852 -0.12041707 0.121882014 0.04423819 0.027747938 -0.002188193
0.1321607 0.005250001 -0.023409344 0.026748965 -0.0445505 0.0015195701 -0.00071310886 0.07403819
-0.06677962 0.00080290454 0.23074533 -0.04557122 0.042980473 0.00040030712 -0.031873334 -0.170865
-0.017304746 0.045025475 -0.028942976 -0.011252079 -0.06447493 -0.055606913 0.043907963 -0.0053174347
-0.045632917 0.023797017 -0.11775072 0.083090074 -0.22154322 -0.17184487 0.053013306 -0.0030397165
-0.2437087 0.028388623 0.0354451 0.09111917 0.11163337 -0.09932712 0.19028468 0.0012304123
0.04791759 0.16787592 0.14007881 -0.069647454 0.0014372081 0.14533381 0.12606776 -0.04653427
-0.079174794 -0.17678207 7.558454e-05 0.14737633 0.08588196 -0.120705545 0.013076481 0.15383624

model.2.bias f4 [150]
00000000: 561e 81bd 574e 163d 327f a3be 31b8 583d
00000010: d182 e23e bb3b 823d b580 78be bca7 9abe
00000020: 47f0 d9bc 987f 8d3e 5c8b d23d ed44 bf3e
00000030: 8ef8 883d f82a 8f3e 9d94 723d 9233 b0bd
00000040: d7ec 54b9 e0e3 223f 9611 3f3f 5e23 fcbd
00000050: e72f 1c3e 3d12 e33e 16fa 373b 59be 363d
00000060: 2f47 4b3b 9d85 d4be 44bc a43d 4513 d7bd
00000070: fb21 b53d 218f 8abd 8e32 f13c 9ccf 463e
00000080: 68a5 7f3e 5e37 23bf bb21 b13d 16bd d5be
00000090: 7345 d73d 833c 353e 7813 b0bc 35ce 29bc
000000a0: eb3a 883e 95cb b83d acaa d2bd a209 273f
000000b0: 71c6 83be e056 ec3c 1221 153e 605f 4bbe
000000c0: 6dd6 313e d459 a3bd 4672 24bc 13e2 1d3e
000000d0: de39 833e f756 12be 0447 283d 8c6c 233b
000000e0: d062 d03d 4cef 193e a817 e83d 1fba b13e
000000f0: 5e5c 913d 8b79 3f3d b025 0a3e d6a2 a83d
00000100: 83cc 4d3e ce8a 4b3e 82b3 e73e 2d42 48bf
00000110: 0891 873d de93 d5bd 24cf cbbd ce94 5b3d
00000120: c8c3 21be 82d3 633c 843d 043f 8c1f bc3c
00000130: 8be8 09bc f312 963e 44fe 94bd 8d71 d6bd
00000140: e10d af3e 45b8 ba3e 9588 233e 535b 0fbd
00000150: e3e7 d1bd bdf6 1e3e 62b2 c2be 3565 3a3e
00000160: 7c78 27bd 3bc4 853e eccc 763d b47b 2b3e
00000170: 3a14 c43c a4e9 e5bd f3cf f03d 7340 abbe
00000180: c8b9 46bd 8b02 653e 94e0 9cbd 5825 403f
00000190: 91f4 57be 3d3f 4b3e 1dc3 473d 75a8 863e
000001a0: 9317 6d3c fe6e 27be 05fe c8bd d44e 953e
000001b0: 0b37 633e 355f 25be 0c0b 113e b055 f4be
000001c0: 25f7 733d ecdb 0abe f1d1 7bbe 5687 e9bd
000001d0: fd66 f23c 7d74 3bbe eb3a 3cbe a422 193e
000001e0: d8d7 adbd f8f1 99be d810 d6bb 1315 87bd
000001f0: 6ec3 a8bd b908 ca3d 2542 ef3e 4211 abbe
00000200: f916 333f 15ca 8bbd 14cc a1be be80 783e
00000210: a87b 003e 0013 0abf aa53 dcbc 1089 f13c
00000220: e7d8 14bd 1f99 bb3c 8464 23bd 0633 a8be
00000230: 7bb5 a13d 04b2 a63e 9721 2b3e a75f a2be
00000240: 8999 493d 8fad d63b e641 9f3e bd3c 96bc
00000250: 2da0 c1bd 3988 403e
-0.06304614 0.036695804 -0.3193298 0.052910034 0.4424043 0.06359049 -0.24267848 -0.30206096
-0.026603831 0.2763641 0.10280487 0.37357274 0.06688033 0.2796247 0.05922376 -0.08603586
-0.00020306125 0.6362896 0.7463621 -0.12311433 0.15252648 0.44349852 0.0028072647 0.044615123
0.003101777 -0.4150819 0.08043721 -0.10501722 0.08844372 -0.06765581 0.029443052 0.19415134
0.24965441 -0.6375636 0.08649012 -0.41745824 0.10511293 0.17698865 -0.021493658 -0.010364105
0.2660745 0.09023205 -0.10286459 0.65249074 -0.25737336 0.028850019 0.14563397 -0.19860601
0.17366953 -0.07976118 -0.010037011 0.15418272 0.25630087 -0.14290987 0.04108335 0.0024936525
0.10175097 0.15032691 0.11332637 0.34712312 0.07097696 0.04674677 0.13490939 0.082341835
0.20097546 0.19877169 0.4525414 -0.78225976 0.066194594 -0.10428594 -0.09951618 0.053608708
-0.15797341 0.013905408 0.51656365 0.022964261 -0.008417259 0.29311332 -0.0727506 -0.10470877
0.34190276 0.36468711 0.1597007 -0.034999203 -0.10249307 0.1552381 -0.3802672 0.1820267
-0.040886387 0.26126274 0.060254022 0.16746408 0.023935426 -0.11226204 0.11758413 -0.33447608
-0.04851702 0.22364251 -0.076600224 0.7505698 -0.21089388 0.19848342 0.04877006 0.26300398
0.014470953 -0.16350934 -0.098140754 0.29161704 0.22188966 -0.161496 0.1416437 -0.47721624
0.059561867 -0.13560456 -0.24591805 -0.114027664 0.029590124 -0.18306156 -0.1838185 0.1495462
-0.084884346 -0.3006742 -0.0065327697 -0.065958165 -0.082404 0.09864945 0.46730152 -0.33411604
0.6995693 -0.068256535 -0.31601012 0.24267861 0.12547171 -0.5393524 -0.026895363 0.029484302
-0.036339667 0.022900162 -0.03989078 -0.32851428 0.07895943 0.3255769 0.16712032 -0.31713602
0.04921869 0.0065514515 0.31104964 -0.01833951 -0.09454379 0.18801965

model.4.weight f4 [150, 150]
00000000: db0a 7cba 3014 5a3b c1be 203b a160 9e3c
00000010: b4b8 06bb 6c4a 9bbb e215 08bb 4268 0d3c
00000020: 0857 d53c 1ce1 473c fedc fd3b 2f6b 473c
00000030: 99f8 0b3c a121 11bb 70ea 15bc de88 01bc
00000040: f483 1a3c fde1 843c e261 163b 82dc 58bc
00000050: a33f 1c39 a139 5cbb d58c 793b 1ab2 c2bb
00000060: f8cd 11bc 5379 e63b e822 76bc 50cd 3fbd
00000070: 411b a3bc 660d a5bb 9a72 733a dd18 78bb
00000080: 488d ebbb 5d1d 2a3d 6d40 1c3c 0dcb ac37
00000090: c0ba e93a d1c7 ecbb 3db0 06bd 6b1c 68bd
000000a0: 6ec1 153c 4faf 95bb 0298 15bc 38f5 ae3d
000000b0: d5fc 84bc a8e4 843b 59d7 893c 5c94 633b
000000c0: af3b 6bba 4d05 62bb c66d 2cbb 3a22 303b
000000d0: 7731 583c 1f75 643c 5fdf 2e3c 4199 763d
000000e0: b743 7f3c 7210 aebb a100 4abc 18a6 bc39
000000f0: 7fa3 5f3a c86b 133c d8fb dc3b 3c8c 45bc
00000100: 6c13 683c acfe 07bc fd11 64bc f74c e53b
00000110: 1c5e bd3a e55c abbb 8b00 63bc 00e2 32bb
00000120: f6ab a6bb 95fa 063b ce0d 5dba dc05 29bc
00000130: 2da0 ffbc 39f4 873b cdc7 ddbc 7718 253b
00000140: 0de4 663a 3968 55bc 31de f8bb 1b48 de3a
00000150: 0eaf c53b 4f5d 8bbb 2197 5f3c 7ec9 87bc
00000160: e777 f43a 7960 423c de12 9bbb 5994 9e3b
00000170: 3b22 bdba c3b9 17bd 116c 9cbc 8dfc 263c
00000180: 9d96 8bbc 8420 8b3c c218 983b b036 62bc
00000190: 0e11 b53c 7057 a5b9 dcdc b5bb 18a9 a2ba
000001a0: b87a 7fbc a32e 6b3c 3f8d 943b f7ff a53c
000001b0: 16c7 04bc 6f8c a83b fdd2 1e39 22a9 3d39
000001c0: 5fab 653b b5db f13a efde 4a3c c94e bebc
000001d0: 0b5b 933b 0029 153b b7f2 7ebb 9100 8bbb
000001e0: 2e3d c63b 82ea de3b 4572 833c 9168 f2bb
000001f0: c59b 023c da0e 01bc 462a c13a a6e4 87bb
00000200: 464a ab3c de03 813b 2241 7fba 7c0e 11bc
00000210: 1a27 93bc 03d0 a7bb b777 bc37 b6f5 8b38
00000220: 71e4 a4bc f943 b339 def0 a93b 12d1 583a
00000230: f32c 9d3b 4316 bbbb bc42 99ba 7ba1 ecba
00000240: fcd2 433a 26f4 8f3b d02f 88bc 6c5d 75bc
00000250: 2f61 9e3c 67ea 88bc 6f3c abbd 76f8 8dbd
00000260: 321a 2c3e 2064 593d beb8 883c c357 0fbc
00000270: 1444 be3d d2f7 96bc 7206 653d 60ef 1bbd
00000280: 9960 46bd 5fba 11bd 0ecf c7bd bf37 c73c
00000290: f33a 89bb f8a2 993b 08ca 39bb 214f 02be
000002a0: ce1b fbbc 8c1b 90ba 073e 9bbd a443 963d
000002b0: 30b1 89bc 37d1 aabc e781 b73d d400 4d3d
000002c0: b5ef 70bd d629 d9bc 1dc6 a63b db3b 91bb
000002d0: 78ff 5a3d e10f 3e3d 24eb 88bd d376 4e3d
000002e0: d30c 5c3c cbdd 863d 454e e6bc a73a 313c
000002f0: 83c7 b3bd ad47 783d 1683 95bd bb9e c9bb
00000300: 0ae6 213c affe c4bd 7ba4 273d fe76 c43b
00000310: 3e64 f2bb a29a d3bc 37a4 b53c a9d7 b6bc
00000320: 0e86 ed3d f5cc 733c 2b37 dfbc 20de 29bb
00000330: 0baf c0bb d029 b8bd 2416 78bc 7e86 053d
00000340: 69b5 edbd 1e9b 45bd 3d96 e43d 5802 543e
00000350: b1c2 48bd 9576 2f3d 114f 22bd e69e 20bc
00000360: 4660 76bc c196 0d3d 3dd5 4abd 95e2 f3bc
00000370: b4a2 abbd b27a 7ebe ce8b ea3d 07e1 af3c
00000380: 146b 4e3c fbde 463c 5d6c 9abc dd3c 10be
00000390: 6687 98bd 97ca 57bc c9c8 89bd 9a6b 1abe
000003a0: 6d2f a53d e82a 58bb 0a3b 453b 47f6 a73c
000003b0: 6a55 c63a 0053 93bc 1fde 95bc fdbc aabc
000003c0: 6595 cf3b 66c3 8c3c 6ae8 c43d 22a6 4ebd
000003d0: d030 f9bc be96 233b 1474 59bb dc49 e6bd
000003e0: 1168 92bc ae9c 24be 737f 043e 9225 893c
000003f0: 7274 0e3d 323f 873d 57d1 bbbd c4a2 b83c
-0.00096146547 0.0033276193 0.002452776 0.019333186 -0.002055687 -0.0047390964 -0.0020764996 0.008630814
0.026042476 0.012199666 0.0077472916 0.012171551 0.008543157 -0.0022145289 -0.009150133 -0.007906167
0.009430874 0.01622104 0.0022946526 -0.013236167 0.00014901026 -0.0033603685 0.0038078327 -0.0059416415
-0.008899204 0.007033506 -0.015022971 -0.04682666 -0.019910457 -0.0050369976 0.00092867913 -0.0037856617
-0.007188473 0.04153191 0.009536845 2.059855e-05 0.0017832145 -0.0072259684 -0.032882918 -0.056667726
0.0091403555 -0.0045680176 -0.00913048 0.085428655 -0.016233841 0.0040555783 0.016826319 0.003472588
-0.0008973432 -0.0034488023 -0.0026310547 0.002687587 0.013195387 0.0139439395 0.010673373 0.060204748
0.015580109 -0.005312019 -0.0123292515 0.00035981904 0.0008531138 0.008997865 0.0067438893 -0.01205736
0.014164787 -0.008300465 -0.013920304 0.0069977003 0.0014447602 -0.0052295798 -0.01385511 -0.002729535
-0.0050864173 0.0020596136 -0.0008432538 -0.010316338 -0.031204307 0.0041489867 -0.027072811 0.0025191584
0.0008807786 -0.013025337 -0.0075948467 0.0016958745 0.006032831 -0.0042530666 0.013646872 -0.016575571
0.0018651456 0.011863821 -0.0047324738 0.0048394618 -0.0014429757 -0.03704239 -0.019094499 0.010192049
-0.017039591 0.016983278 0.0046416232 -0.013806984 0.022102859 -0.00031536398 -0.00555001 -0.0012410013
-0.015593223 0.014354381 0.0045334394 0.020263655 -0.008104106 0.005143694 0.00015146653 0.00018087451
0.0035044772 0.0018452319 0.012382253 -0.023230927 0.004496937 0.0022760034 -0.0038901994 -0.004242011
0.0060497737 0.006802858 0.016045699 -0.007397719 0.007971709 -0.007877076 0.001473733 -0.00414713
0.02090944 0.0039372286 -0.00097371836 -0.008853551 -0.017962981 -0.0051212325 2.2467093e-05 6.673804e-05
-0.02012846 0.00034192184 0.0051861843 0.00082709 0.004796618 -0.005709441 -0.0011692862 -0.0018053496
0.0007470099 0.0043931184 -0.016624361 -0.014975887 0.01933345 -0.016713334 -0.08361136 -0.06932156
0.16806868 0.053074002 0.016689654 -0.008748951 0.092903286 -0.018428717 0.05591435 -0.038070083
-0.048431966 -0.035578128 -0.097562894 0.024318574 -0.0041879355 0.004688617 -0.002834918 -0.12725498
-0.030652907 -0.0010994538 -0.0758019 0.0733712 -0.016808122 -0.020851715 0.08960324 0.050049618
-0.058822352 -0.026509207 0.005089535 -0.004432184 0.05346629 0.046401862 -0.066854745 0.05040629
0.013430792 0.065852724 -0.028113494 0.010817206 -0.08778288 0.06061523 -0.07300393 -0.0061529553
0.009881506 -0.096188895 0.040928345 0.0059956303 -0.0073972037 -0.02583057 0.02217303 -0.022319632
0.115978345 0.0148804085 -0.027247986 -0.002591975 -0.0058802417 -0.0899235 -0.0151419975 0.032598965
-0.11606867 -0.048243634 0.11161468 0.20704019 -0.049013797 0.042837698 -0.039626185 -0.009803509
-0.015037602 0.0345676 -0.049519766 -0.029771129 -0.083806425 -0.24851492 0.11452447 0.021469606
0.012598772 0.012138124 -0.0188505 -0.14085717 -0.074477 -0.01317086 -0.0672775 -0.15080109
0.080656864 -0.0032984558 0.0030095004 0.020503176 0.0015131657 -0.017983913 -0.018294392 -0.02084207
0.006334948 0.017183017 0.09614642 -0.050451405 -0.030418783 0.0024961676 -0.003318076 -0.11244556
-0.017871888 -0.16075394 0.12939243 0.016741548 0.03477902 0.066038504 -0.09170788 0.02253855

model.4.bias f4 [150]
00000000: 21f5 5ebd b8b9 82bd 63b4 863d c2d3 87bd
00000010: eedf 5fbe a5dd d4ba 7705 b1be 0856 cebd
00000020: 618a 73be 6479 98ba 7de8 583d e9d2 bc3e
00000030: 5fb3 343e 5b6c 68bb 3dde 223e 7f4a 6bbd
00000040: 6ef7 293c aedf b43b 0a5f a3bd 3557 a3bd
00000050: a921 d3be d05c 03bd dcbd 203e d37d 3e3d
00000060: 6a1f a83c 89ce 873d e81b 1f3d cbc6 b13d
00000070: 8c40 a4bb 7ab0 b0be adec 773e 487e 31bd
00000080: 6d2d 59bd e8dd 333e a63c d3be b400 80bc
00000090: b07f 483d c71a 9b3d d837 5bbe b2e9 adbd
000000a0: cdc8 553e 00cc 393e c5ce 2dbd 7cf8 b53c
000000b0: d022 6bbd 6147 503d e6c1 353d 63c1 463d
000000c0: cb28 35bd 8caa c2bd 6473 39bb 3603 673d
000000d0: ef82 013e 54b1 bd3c 7ee4 29bd 5892 ab3d
000000e0: 04f8 4ebd 9af6 783e c31a 343e 989a 5cbe
000000f0: 47ed f73d 477d bc3d bc09 933e eadb bebd
00000100: 42e3 48bd 1389 d03c 3176 213d ca1d a73d
00000110: 149c 6abd cfe8 07bd f4bc a5bb 8276 da3b
00000120: 72fe 69bd d835 f73b c3e8 38bd d111 41bc
00000130: 8804 1e3d 7f70 3abe 3efe 9ebd 39e7 943e
00000140: b8a2 8ebd 2211 4a3d c1a0 85bd a70d 4ebd
00000150: 19c1 8a3d 02fd c0be 55c5 65be 7e8e 80bd
00000160: 51e1 0f3e 6a36 483e 05c9 4bbd 9645 b4bb
00000170: 16a8 4f3d d245 953e 0266 b53e c0ba ffbd
00000180: 49d8 91be e710 eabe f708 e23d 12b2 123d
00000190: f210 17be 0ff0 c2be d47d 14be 57ba d93e
000001a0: 3dbf b93d 3bfd 5a3e 8d94 c23d 89fa 7639
000001b0: d25e 2b3c 4f5f e5bc 1581 8bbd 4359 81be
000001c0: b1d5 8dbd 9330 76bd ac04 68bd 6b80 00be
000001d0: b16e 193c fb08 3a3b 1892 d63d c74b 723d
000001e0: c00c 4ebc ed42 45bd 0425 bd3d 154a b73c
000001f0: ab27 91bd 862b 5c3e b79d 643e 8964 8e3e
00000200: a9cb 26bc 244f d03d 4939 98bc d819 11bc
00000210: a41b 24bd 0f92 1bbe 6376 b1bd 24eb 3cb9
00000220: a82a 383a 949b a93c 8fa6 0a3b 7a2e bf3b
00000230: d695 9a3e 837a 96be 20f1 053e 8fde 7abd
00000240: 03a0 933d 0d53 ab3d 6908 ed3c 0be6 d93e
00000250: deb9 003d e349 d13c
-0.054432992 -0.06383079 0.06577375 -0.066321865 -0.21862766 -0.0016240372 -0.34574482 -0.10075003
-0.23783256 -0.0011632857 0.052956093 0.36879662 0.1764655 -0.0035464976 0.1590509 -0.057444092
0.010373933 0.0055198288 -0.07977112 -0.07975618 -0.41236618 -0.032070935 0.15697426 0.046506714
0.020522792 0.0663119 0.038844973 0.08680495 -0.0050125774 -0.3450964 0.24211378 -0.04333332
-0.053021837 0.1756512 -0.4125721 -0.015625335 0.048949897 0.07573467 -0.21408021 -0.084918395
0.2087738 0.18144226 -0.04243352 0.022213213 -0.057406247 0.050849322 0.04437437 0.04852427
-0.044228356 -0.095051855 -0.0028297538 0.056399547 0.12647603 0.023155846 -0.041477673 0.08377522
-0.050529495 0.24312821 0.17588334 -0.21543348 0.12105804 0.09203582 0.28718364 -0.09319289
-0.049044855 0.025455987 0.039419357 0.08159979 -0.057277754 -0.033181008 -0.0050579254 0.0066669593
-0.057127424 0.0075442605 -0.045143854 -0.011784033 0.03857854 -0.18206976 -0.077633366 0.2908266
-0.0696463 0.049332745 -0.06524802 -0.05030599 0.06775112 -0.3769303 -0.22438557 -0.06277178
0.14050795 0.19552007 -0.049752254 -0.0055014594 0.05069741 0.2915483 0.35429388 -0.124867916
-0.28485325 -0.4571602 0.11036866 0.035814352 -0.14752558 -0.38073775 -0.14501125 0.4252498
0.09069679 0.21385662 0.0950099 0.0002355372 0.010459619 -0.027999548 -0.0681173 -0.25263414
-0.06925524 -0.060104918 -0.05664508 -0.12548988 0.00936477 0.00283867 0.10477084 0.0591543
-0.012576282 -0.04815953 0.09235576 0.022374192 -0.07087644 0.21500978 0.22325788 0.27811077
-0.010180392 0.10171345 -0.018582003 -0.008856259 -0.040065423 -0.15192436 -0.086651586 -0.00018016674
0.0007025399 0.020704068 0.0021156406 0.005834398 0.3019244 -0.29390344 0.13080263 -0.061247405
0.07208254 0.0836545 0.028934674 0.4255832 0.031427257 0.025547927

model.6.weight f4 [22, 150]
00000000: e273 043a e716 083d ce49 3f3a dc52 86ba
00000010: 71f1 2bbc 56e7 57b9 1141 fa3c e12d 15bb
00000020: 63bd 35bc b597 b4bc 9bd0 91b6 03ea 0dbc
00000030: c0d1 773c 276a 8fb8 8162 54bc 9a23 1e3b
00000040: 3ede efb8 cdda b3ba beb8 1a3c 119a a5bc
00000050: 003d 183c 8c40 80ba 6559 a83b 5dfa 40bc
00000060: 9b22 be3a 3fca 3bbc 04ce bbb9 4d1b ef39
00000070: 455d ecb9 8aff a13c a2dc 043c 4850 143a
00000080: 3bdc e739 e895 063e 80a8 c53c 0dc1 8dbb
00000090: 1977 503c 7642 1cbd d139 92bb 9d51 303d
000000a0: 5412 aabc 72d6 6f3c 2295 d23c b8e1 19ba
000000b0: 29b9 9d39 834f efbc 63eb 0d39 69da 02bb
000000c0: 79b6 333a cd4d 64bb af01 b0b9 33f1 103b
000000d0: 0687 a0bc f6e3 c7bc 02b3 9d39 91c0 ebbd
000000e0: 4459 5f3c a770 b0bd e221 803c bf3b 383d
000000f0: e001 bfbb bb4e 28bb c563 4dbd 7846 db3d
00000100: 4c26 9c39 b9b1 6d3a c7d1 693a 085d 48bb
00000110: 021c deba 2181 11b9 462f f5b8 bd2d 35b9
00000120: aebf 363e d0e2 1a3c 68e0 dbb9 8a57 0e3c
00000130: 6503 6e3b f086 fe3d e4a9 a03a 80c5 173c
00000140: ca57 b13a 1b07 0fba ebae 00ba a490 3b3a
00000150: 27fc 643b 957b 19bd 64ec d43c 0f54 aeb8
00000160: 6f4f 15bc a083 453e 78b6 d13b 7080 48bc
00000170: 0a6f 2b38 f9ef 413c 69da 4bba 62c9 0d3c
00000180: e013 9b3d 95e7 293c 58b0 caba a18e 653b
00000190: 9c09 b6bd 63a1 f83d a6d3 f939 a005 07be
000001a0: 7900 1abc e0d7 81ba 7d9f 8d3b afd2 593a
000001b0: 595e 873d 638c 1eba f223 353d e77f 43bc
000001c0: 2757 e2ba a729 d23a 047f 3b3a 662f 8ebc
000001d0: c8de 9f39 45bc 04bb b5e3 293d 9ccd cdba
000001e0: b646 933c 6462 b53d c24c 4bbd e53d cfba
000001f0: b05f 253b f1f6 a9bc d404 873d 5d70 96bb
00000200: 63ba 82ba a8fc 8aba 2afb b638 da69 023e
00000210: 70ac e5bc f368 92bc a688 fab9 2c1a 8cb9
00000220: abbf bd39 5008 173c 0a4b 0c3c 2ada a2bc
00000230: 9835 3e3d aeaa 823b e5bf f6bc 8ace bcb9
00000240: 5d4f 6dbb 6c6d b2b9 f722 05bc ea0c 32bd
00000250: 5f55 993c e6f2 6a39 d80c 163b 544e 16bd
00000260: e7b2 3c3a c3ce c43a e05a 63bc 0867 6fba
00000270: 67a3 8e3d 6084 deba 681b 5fbc 5c55 023d
00000280: 0648 12ba dfdf 1bbc b64a 5cbc 40b4 1aba
00000290: f0ca 73bc e219 85ba 6e97 c6b8 117b 0fb9
000002a0: 7a50 2bbd 5dca eb3b 7a53 283c d461 a239
000002b0: a105 d3bd 6657 a33d b33b 5f3b b1d1 a03d
000002c0: 2757 9dba 30f0 683a 8a0f 88ba 53ea c03c
000002d0: b9db efbd a057 84ba c531 0e3a b82d e4bb
000002e0: 0488 2abe e7ae c9bc ba9a 2c38 6e62 50bd
000002f0: e5ca 2bbc 4122 153d 4733 12bc 1429 6e3c
00000300: 0c10 063c 9ed6 9aba 0948 e3ba 5b3f 3fbd
00000310: 386e 013a b3ee 9fba fe0d dcb9 2fb4 64bb
00000320: dc2d 0e39 a140 bd3a 2cbd 8ebc 73f1 213e
00000330: 8955 483a 2d0e 593c af7b 85bc 16f5 933b
00000340: 0b07 3ebe 833d b1bb 7fe0 e2bc d30d 193b
00000350: 29eb 43bc 4b25 40bc 4b49 d739 0aee 6db8
00000360: f7df 8e3a 8ead 8cbc 0055 beb9 5bd0 efb9
00000370: 0228 08b9 fa24 dbb7 c56e 45bc 48d6 39bc
00000380: 91af 19bb a66e 05bc 2a03 55ba 9699 5bbc
00000390: 6a51 c339 b40f 0f3c 2699 91ba 4ddd afba
000003a0: f3d1 27ba 66ad 863a b58f 2bba 3643 253e
000003b0: b626 ae3c d5ee 01ba c9f1 91bb 8b7c c2bc
000003c0: e94c 873b 259c 563d da39 5cba 173e 373c
000003d0: fde3 e5bb 221f ea3b d5f6 11bd 2410 e4bd
000003e0: 86f7 813a cc7f 433b 02af c73b bf68 e23d
000003f0: ca07 643a dc54 20bd d44b db3b d862 093d
0.0005052668 0.033224966 0.00072970695 -0.0010248083 -0.010494576 -0.00020590177 0.030548604 -0.0022762942
-0.011092517 -0.022044996 -4.3456216e-06 -0.00866175 0.015125692 -6.838544e-05 -0.012962938 0.0024130107
-0.00011437804 -0.0013721824 0.00944346 -0.020215066 0.009291887 -0.0009784861 0.00513761 -0.011778441
0.0014506163 -0.011461793 -0.00035820913 0.00045605973 -0.0004508292 0.01977517 0.008109244 0.0005657715
0.00044223838 0.13143122 0.024128199 -0.004325992 0.012723708 -0.03814932 -0.0044624587 0.043046582
-0.020760693 0.01463853 0.025705878 -0.00058701215 0.0003008333 -0.029212719 0.00013534496 -0.0019966608
0.00068554987 -0.0034836412 -0.0003357059 0.0022116422 -0.019595634 -0.024400692 0.00030078745 -0.115113385
0.013632122 -0.08615237 0.015641157 0.044978853 -0.005829081 -0.0025681693 -0.050143976 0.107068
0.00029783172 0.0009067315 0.0008919504 -0.003057303 -0.0016945603 -0.00013876382 -0.00011691316 -0.00017278544
0.17846557 0.00945349 -0.0004193813 0.008687863 0.0036317941 0.12428081 0.0012257663 0.009263396
0.0013530191 -0.0005456076 -0.00049088773 0.0007155037 0.0034940334 -0.037471373 0.025991626 -8.312624e-05
-0.009113177 0.19288492 0.006399926 -0.012237653 4.087299e-05 0.011836999 -0.0007776381 0.00865397
0.0757215 0.010370155 -0.0015463931 0.003502764 -0.088885516 0.12140157 0.0004765067 -0.1318574
-0.009399527 -0.0009906255 0.004321991 0.00083092874 0.06609792 -0.0006048141 0.044223733 -0.01193235
-0.0017268405 0.0016034142 0.00071524107 -0.017356586 0.00030492828 -0.002025382 0.041476924 -0.0015701535
0.017978054 0.08856657 -0.04963375 -0.0015811293 0.0025234036 -0.020747634 0.06592718 -0.0045910315
-0.000997376 -0.0010603862 8.725219e-05 0.12735692 -0.028036326 -0.01787231 -0.00047785527 -0.0002672238
0.00036191693 0.00921829 0.008562813 -0.01987942 0.04643783 0.0039876318 -0.0301208 -0.00036012038
-0.0036210634 -0.0003403233 -0.008126012 -0.043469347 0.018717466 0.00022406466 0.002289584 -0.036695793
0.00071982894 0.0015015233 -0.013876647 -0.00091324793 0.0696476 -0.0016976707 -0.013617374 0.031819686
-0.00055801903 -0.009513824 -0.013445547 -0.0005901493 -0.014879927 -0.0010154808 -9.469582e-05 -0.00013683389
-0.041824795 0.0071957544 0.010273809 0.00030971935 -0.10303808 0.07975654 0.0034062683 0.078524955
-0.0012004123 0.00088858884 -0.0010380608 0.023549234 -0.11711831 -0.0010096915 0.00054242864 -0.006963458
-0.16653448 -0.024619533 4.1152096e-05 -0.05087512 -0.010485386 0.03640962 -0.008923358 0.014536161
0.008182537 -0.0011813228 -0.0017340194 -0.04669128 0.00049373833 -0.0012201875 -0.00041972095 -0.0034897437
0.00013559259 0.0014438817 -0.017424189 0.15814762 0.000764214 0.013248009 -0.016294328 0.0045153005
-0.18557374 -0.005408944 -0.027694939 0.0023354187 -0.011957922 -0.011727641 0.00041062603 -5.6726894e-05
0.0010900487 -0.017172601 -0.00036302954 -0.0004574087 -0.00012984875 -2.6124053e-05 -0.012050335 -0.011342593
-0.0023450593 -0.008144056 -0.00081257767 -0.013403317 0.00037253957 0.008731771 -0.0011108264 -0.0013417393
-0.00064018293 0.0010275065 -0.00065445463 0.1613892 0.021258693 -0.0004956548 -0.004453872 -0.023741027
0.0041290415 0.052395005 -0.00084009545 0.011184237 -0.0070157037 0.0071448246 -0.035635788 -0.11135891
0.0009915687 0.0029830812 0.0060938606 0.11055135 0.00086986704 -0.03914343 0.006692389 0.03354153

model.6.bias f4 [22]
00000000: 694b 32bd 23aa d7bd 0d29 39be cc2d cfbd
00000010: d125 283d 720b 18bb 1e33 ad3d cd3a ed3d
00000020: cfa9 873d 779a 983d 8dc2 07bd f674 163b
00000030: f025 cf3c 8db0 20ba a211 863d 65e3 863c
00000040: 0305 363d ef36 203d a61b 02bd d02c 20bc
00000050: b245 25bc 9f93 423c
-0.043528948 -0.10530498 -0.18082066 -0.10116157 0.04105169 -0.0023200181 0.084570155 0.11583481
0.06624185 0.07451337 -0.033144522 0.0022957898 0.025286645 -0.0006129824 0.06546332 0.016465852
0.044438373 0.03911489 -0.03176465 -0.009776309 -0.010087417 0.011876016
