src/RNA/rna_flag_model_fbp.pth (torch, 100470 bytes, 5 tensors)

model.0.weight f4 [150, 10]
000000 7f bc 12 bc 2a f3 cc 3d fd 28 f8 3c d2 5b e2 3d
       -0.008956074 0.10007317 0.030292982 0.110526696
000010 53 02 16 3d d6 ad e8 3b e4 b0 13 3d a8 3e c1 3b
       0.03662331 0.007100801 0.036057368 0.005897362
000020 71 99 c2 3c 1a bb 01 bd 80 f6 a4 be 51 90 37 be
       0.023754807 -0.031672575 -0.32219315 -0.17926146
000030 51 e9 b6 bd 6d c4 5f be 82 ec 8c 3d b1 29 bc 3d
       -0.0893122 -0.21852274 0.06881048 0.091876395
000040 4c aa f9 bd f1 12 c7 bd 19 68 f3 bd b8 75 1f be
       -0.12190685 -0.0972041 -0.118850894 -0.1557225
000050 55 c2 aa 3d ee 0f f8 3e 81 ef f6 bd 22 fc 10 3e
       0.08337847 0.48449653 -0.120574005 0.14158681
000060 f0 79 50 3e 99 56 3a 3e 54 c0 9c 3e 75 8f 09 3e
       0.20359015 0.18197097 0.30615485 0.13433631
000070 97 cc d4 bf 49 38 18 bf 38 3b f2 3e b3 4f c3 be
       -1.6624936 -0.59460884 0.47310805 -0.38146743
000080 c8 84 b5 3e 9f 5e 23 3f 81 ae 8a bf f2 3d 04 bf
       0.35452867 0.63816255 -1.0834504 -0.5165702
000090 21 d6 86 3e db 83 af 3e 08 8b c5 be 54 34 bb 3e
       0.26335242 0.34280285 -0.38582635 0.3656336
0000a0 f2 e7 63 3d d8 1d 99 3d 03 d8 06 bd e5 70 98 bd
       0.055641122 0.07476395 -0.03292085 -0.07443408
0000b0 7f 85 96 be d7 1b 88 3c 8a 5e 3f bd 31 dd 32 bd
       -0.29398724 0.016614838 -0.04672102 -0.043667976
0000c0 97 22 f5 3d 9b 3e 8d 3d 80 f0 96 3e 5a de 07 3f
       0.11969488 0.06896707 0.29480362 0.53073657
0000d0 7a 28 0c 3f d5 1b f3 3e d7 8e 98 3e 85 69 c5 3e
       0.5474926 0.47482172 0.29796478 0.38557068
0000e0 33 4e a9 3e 83 29 04 3e 8c c4 b4 3d 0a 9d 43 3f
       0.33067474 0.1290646 0.08826551 0.764115
0000f0 ff fa 00 be 85 e5 3a 3f 00 c7 6f 3f 4e 5e d9 be
       -0.12595747 0.7300647 0.93663025 -0.4245476
000100 4a c8 69 be 6f d5 02 3f 76 5e 34 3f ef 17 fe bd
       -0.2283031 0.51106924 0.70456636 -0.12406909
000110 c8 e4 98 be a3 2a a0 be ba 50 7d bd 7f 33 1c bf
       -0.29862046 -0.3128253 -0.061844565 -0.61016077
000120 61 00 51 3f c5 af 53 3e 39 72 98 be 7a 5c de be
       0.81641203 0.2067252 -0.29774645 -0.4342993
000130 43 61 e7 3e 2a c4 f3 3d 9e 8f 68 bf 6c 86 24 be
       0.45191392 0.1190265 -0.9084414 -0.16066903
000140 8a 7a 3e bd a7 62 1c bb 32 97 31 bd 53 fc 16 be
       -0.04650358 -0.0023862512 -0.04335708 -0.14744692
000150 51 22 48 be eb e3 f3 3d b9 de 08 bd ea d8 00 3d
       -0.1954434 0.11908706 -0.03341553 0.031456865
000160 48 92 e5 3d 8c 77 f7 3d d4 c8 ab 3e ce 5f 9d 3e
       0.112095416 0.12083349 0.33551657 0.30737156
000170 a8 ad 55 be 42 9b 98 3e 81 9f 6e 3e b0 59 66 bf
       -0.20867026 0.29805952 0.23303033 -0.899806
000180 ed 88 9f 3e fb 32 4f bf 63 e9 05 3f 6b 06 a0 be
       0.31159154 -0.80937165 0.52309245 -0.31254897
000190 62 ea b1 3d 75 ea 6b 3d b9 31 c4 3d fe 9c 15 3f
       0.08687283 0.057596643 0.09579796 0.58442676
0001a0 1e 68 9b bf 6f 42 ac bd ec f7 13 3d 9e d7 68 3e
       -1.2141149 -0.08411109 0.03612511 0.22738501
0001b0 3d 4b be be 66 b3 55 3f 35 20 20 3e 82 0d c1 3d
       -0.37166777 0.83476865 0.15637286 0.094264045
0001c0 d2 b4 60 3f b0 33 a3 be 98 7c 05 bf 47 44 7d be
       0.8777591 -0.31875372 -0.5214324 -0.24733077
0001d0 e9 08 b9 3f 43 c0 e2 be bb be 48 be 13 7a cb 3d
       1.4455844 -0.4428731 -0.19604008 0.09935393
0001e0 28 27 cb bd b4 f1 22 3e 0e ea ea 3d ba 28 e5 3d
       -0.09919578 0.15912515 0.11470424 0.111894086
0001f0 33 4b eb bf a1 d2 17 bf eb f0 21 bf 43 e1 b7 be
       -1.8382324 -0.5930577 -0.63258237 -0.3591405
000200 0d 58 6a 3e 07 eb 81 be e0 2a 95 be 07 53 15 3f
       0.22885151 -0.25374624 -0.29134274 0.58329815
000210 d6 22 89 be 9f b2 4f bf e6 4f c5 3e 47 8b a7 3e
       -0.2678439 -0.8113193 0.3853752 0.32723448
000220 21 94 5e be 45 3a 96 be e6 f4 75 be 97 71 63 3e
       -0.21736194 -0.2934133 -0.24019203 0.222113
000230 e7 16 b0 3d c4 b4 41 bd ca 70 93 3d b3 e1 d6 3c
       0.08598118 -0.047291532 0.07199247 0.026230669
000240 fc 81 91 3d 96 e0 d8 bb 9d 9b 58 3d 4f fa 22 3d
       0.07104871 -0.0066185696 0.05288278 0.039789494
000250 98 5c fa 3c 54 ff 3c bd 7d b5 71 3d 10 33 fb bf
       0.03056173 -0.046141937 0.05901097 -1.9624958
000260 0a 95 3c 3e 79 a7 fe 3d 76 77 8d 3e ac 40 69 3e
       0.18416229 0.124342866 0.27630204 0.22778577
000270 96 42 00 bd f2 1c 8d bd 82 a5 fa 3d 7f c0 f9 3d
       -0.0313135 -0.068902865 0.12238599 0.12194919
000280 80 f2 7b 3e fe 6a 1d 3d e6 f6 24 be 9b 70 a6 3f
       0.24604225 0.038432114 -0.1610981 1.3003114
000290 15 a5 ce be de 8b 95 be 66 76 22 3f 58 e3 62 bd
       -0.40360323 -0.29208273 0.6346191 -0.055392593
0002a0 67 c5 87 be 46 34 c2 3e c2 f7 81 3e 0e 09 87 bd
       -0.26517794 0.37930506 0.25384337 -0.06593524
0002b0 34 c8 ab 3e 64 d2 30 3e 54 2b 60 3f dc ca 08 3e
       0.3355118 0.17267758 0.87566113 0.13358635
0002c0 8c f9 a8 3d 47 50 f8 3e 29 fb 53 3e b8 3a 62 bf
       0.08250722 0.48498747 0.20701279 -0.8837085
0002d0 83 95 ac 3d df 68 ac 3d f4 23 d0 3d 91 21 c6 bc
       0.084269546 0.0841844 0.101631075 -0.024185928
0002e0 05 a9 d6 bb 7e 4f 9e bd 47 6f 81 bd 34 04 19 3c
       -0.0065509104 -0.07730006 -0.063200526 0.009339381
0002f0 4b 11 bd 3d d1 27 52 bd 93 5e 94 be 4f 74 ec 3d
       0.09231814 -0.051307503 -0.28978404 0.115456216
000300 62 25 32 3e cb 22 32 bf 6f 7e f6 3e 26 d5 11 3f
       0.17397073 -0.6958434 0.48143336 0.56965864
000310 6d da 0d 3e ad 8b 10 bf c1 01 96 3d 07 66 70 be
       0.13852854 -0.5646313 0.07324553 -0.2347642
000320 7d 06 5a 3c 46 2b b5 be 06 f2 c6 3f 19 29 cd be
       0.013307211 -0.35384578 1.554261 -0.40070418
000330 f7 2d 50 3d bd df 08 bf 14 a5 6a bd b3 5a 00 3f
       0.050825085 -0.534664 -0.057286337 0.50138396
000340 f3 14 dd bd 08 8d 74 3e 00 42 18 be fa 9c aa 3e
       -0.10795011 0.23881924 -0.14868927 0.3332289
000350 d6 fc 4a bf 12 f4 5f bf 0f 26 7d 3d 35 19 2b be
       -0.7929205 -0.87481797 0.061803874 -0.16708834
000360 65 9e 0b be 6c 51 43 be 93 49 12 3e c6 49 98 3e
       -0.13634641 -0.19074029 0.14285879 0.29743785
000370 05 60 5b 3e cd fa fc 3e e4 ed 8a 3e 17 15 ec be
       0.21423347 0.49410096 0.2713462 -0.4610984
000380 dc f5 51 3f cc 0f 7b be cb b2 d6 3e 55 36 0c 3f
       0.82015777 -0.24517745 0.41933283 0.54770404
000390 ad 93 26 3e c7 aa 4a 3f 64 e1 8b bd a3 02 2a 3e
       0.16267271 0.79166836 -0.06830099 0.16602568
0003a0 aa c2 07 c0 5c ce b4 bf e3 fe ba 3d dd dc 7d 3e
       -2.1212564 -1.4125476 0.09130647 0.24791284
0003b0 8e 6c 02 3f d9 c9 52 3f 7f ed e0 3d 2b d7 1a 3f
       0.5094689 0.82339245 0.10982799 0.6048457
0003c0 25 3f 35 be 0b 8e 59 bd e7 c5 bd 3d 93 17 b9 bf
       -0.17699869 -0.05311398 0.092662625 -1.4460319
0003d0 9b 89 ff be 58 aa 23 bd db 0a 2d 3e 1e f0 77 3c
       -0.49909672 -0.039957374 0.16898672 0.015132932
0003e0 74 ca e6 be 5d 10 88 3e d1 2e b9 bd d8 e8 8f be
       -0.45076334 0.26574984 -0.09042133 -0.28107333
0003f0 93 4f 19 3f dd 99 ac be 0a 0c 3e 3e f2 ad bc be
       0.59887046 -0.33711138 0.1855928 -0.3685146

model.0.bias f4 [150]
000000 2f 15 1b 3f 3e 21 a3 be 77 58 87 3e 6f 9d 07 3f
       0.605792 -0.318613 0.2643468 0.529746
000010 08 ec 15 bf 0b ee c1 be bb 41 da 3e 18 56 de 3e
       -0.5856328 -0.37876925 0.42628273 0.4342506
000020 6d d8 19 bf 30 e8 72 be de b0 02 bf 8b be e4 be
       -0.60095865 -0.23721385 -0.5105113 -0.44676623
000030 dc cc 15 bf ee 05 fe 3e 3d 55 18 3f ae 1f 43 be
       -0.58515716 0.496139 0.59505063 -0.19055054
000040 af 46 54 be 79 88 94 be 73 85 02 3f c3 f9 02 bf
       -0.20730089 -0.2901037 0.5098488 -0.51162356
000050 ed d5 39 3e 73 a8 58 3e 69 3d 3f be aa d7 54 bf
       0.18148012 0.21158008 -0.1867577 -0.8314158
000060 bd d1 b3 3e a3 ec 99 3c 8b 66 3c bf ee f4 6c 3f
       0.35120955 0.018789595 -0.7359397 0.92561233
000070 f0 82 41 3e 9c 3b d1 be 1c b6 c0 3e 6c 87 31 3f
       0.18897605 -0.4086579 0.37638938 0.6934726
000080 3b 70 0e 3f 11 92 09 3f 50 15 fa be 9c 74 0d 3e
       0.5564 0.53738505 -0.48844385 0.13814014
000090 9c b9 c6 be 69 9a 96 be c3 98 18 bf ed f1 b7 bc
       -0.38813484 -0.2941468 -0.59608096 -0.022454226
0000a0 53 f8 12 3f 95 f7 a9 be 1c df 16 3f ac 25 58 be
       0.5741016 -0.33196703 0.5893419 -0.2110812
0000b0 e2 de 85 3e 4a 10 ac 3e 66 1c 63 bf 79 bc 96 be
       0.2614661 0.33606178 -0.8871521 -0.29440668
0000c0 1f 28 15 3f 26 02 4b bf 74 e4 0a 3f ac c1 89 bd
       0.58264345 -0.79300153 0.5425484 -0.06726393
0000d0 d0 5a 0b 3d 3f 0b f9 bd d1 3a b8 3e 2a 31 e8 3e
       0.034022152 -0.12160348 0.35982373 0.4535001
0000e0 78 ea 57 be a8 7d 1d 3e 8f 60 f1 3e 0c 3a 0d bf
       -0.21085536 0.15379965 0.4714398 -0.551667
0000f0 f0 e7 c3 3e f6 e6 17 3f 1e 6c 1e 3d 44 fa f2 3e
       0.38262892 0.59336793 0.038677327 0.47456563
000100 cd b5 32 bf 6e 04 47 be 4f cb 95 3e fe 4d 18 3f
       -0.69808656 -0.19435284 0.29256675 0.59494007
000110 ec cc f1 be 8a c3 16 3e 22 5f 31 3e 0c 59 a2 be
       -0.47226655 0.1472303 0.17321447 -0.31708562
000120 6b e9 1b 3e f6 b2 b2 be 12 cd 0d be 47 16 12 bf
       0.1522576 -0.3490216 -0.1384776 -0.5706524
000130 c8 9b 0f bf 0d 5f 23 3f 7d 82 da be b0 14 63 bc
       -0.5609708 0.6381691 -0.4267768 -0.013859913
000140 4b b0 0a 3f 61 56 e5 be 3a 37 80 3d 54 7a 05 bf
       0.5417525 -0.44792464 0.06260534 -0.5213978
000150 da f4 05 3f b1 d3 ee be c6 be 30 3f ed ed e6 3e
       0.5232674 -0.46645883 0.690411 0.45103398
000160 8b 65 e7 bc 54 2c c1 be 5a 4b a3 be 65 cb 97 3e
       -0.028246662 -0.37729132 -0.31893426 0.29647365
000170 b1 01 f1 be 69 4e f8 be 1a 09 f3 3e 8a f4 1d be
       -0.47071603 -0.48497322 0.4746788 -0.15425315
000180 9a b9 ee be 78 72 f0 be 07 d8 0e bf 6d 8b 14 bf
       -0.46625978 -0.46962333 -0.5579838 -0.58025247
000190 cd 32 e9 be 37 80 dc be 52 05 3d bf 1a b5 15 bf
       -0.4554657 -0.4306657 -0.73836243 -0.58479464
0001a0 95 c5 59 3f af 54 f2 3e 41 ec e9 3e b6 61 9e 3e
       0.8506711 0.47330233 0.4568806 0.30933923
0001b0 d4 a9 0e bf 02 fc aa 3e 6d bc 26 bf b5 ce 13 3f
       -0.5572789 0.33395392 -0.65131265 0.57737285
0001c0 41 68 ad 3d ed 6d 9e 3d 95 bb a4 be cb 75 f9 3e
       0.084671505 0.077358104 -0.32174364 0.4872268
0001d0 63 b2 ce bd 81 80 fa 3e 84 12 f0 be 3a 4f 5f be
       -0.10092618 0.48926166 -0.46889126 -0.21807566
0001e0 5a fd c2 bd 6f db 8a 3d ec 5b 00 bf 05 cf 28 bf
       -0.09520979 0.06780135 -0.5014026 -0.65940887
0001f0 5b 46 05 3f 43 67 00 bf 94 9c 9c be f6 b9 84 be
       0.5206048 -0.50157565 -0.3058821 -0.25923127
000200 f0 f9 08 bf ee 0c dc be a9 5a f4 3d 5b bc 2a bf
       -0.53506374 -0.42978615 0.119313546 -0.6669366
000210 32 d4 ce 3e 3c 4b 87 be 52 f9 0c 3f 07 27 f0 be
       0.40396267 -0.26424587 0.5506793 -0.46904776
000220 6e 35 17 3f e1 61 0c bf 1e ec 96 be 7c 74 1d bf
       0.590659 -0.5483685 -0.29477018 -0.61505866
000230 72 96 7f be b4 fa 26 3f 02 0e c7 bd 5c 5f 5d 3d
       -0.24959734 0.6522629 -0.09719469 0.05404602
000240 0e 7d 9b bd 2e cf cc be ab ac f6 be 7b 75 e3 3e
       -0.07592212 -0.40001816 -0.4817861 0.44425568
000250 58 48 a1 bd 93 7d 09 3f
       -0.078751266 0.53707236

model.2.weight f4 [150, 150]
000000 92 d2 2b 3e 8a 6f 1c be bf f0 4f be b9 64 ac be
       0.16779545 -0.15276924 -0.20306681 -0.33670595
000010 35 d4 af bd 97 0e 16 3e de 15 bf be 5b 1b ad bd
       -0.08585397 0.14654003 -0.3732137 -0.08452483
000020 32 e7 87 bd 1a 36 6b 3e c0 dc 56 3e b4 7c e6 ba
       -0.06635894 0.22969857 0.20982647 -0.0017584772
000030 a2 7b 35 be c0 d2 b0 be 77 33 67 3e 8a 64 20 3e
       -0.17722943 -0.3453579 0.22578226 0.15663353
000040 6c d8 af 3e 6c ab 94 3e e7 f3 d2 3c fd a8 16 3e
       0.34344804 0.29037035 0.025751067 0.14712901
000050 48 e9 9f bc 43 93 ce be 49 00 17 3e 46 b4 3d 3c
       -0.019520417 -0.40346727 0.14746203 0.011578625
000060 48 b1 a2 be 17 57 5d 3e 53 e5 cb 3d 90 46 1f be
       -0.3177588 0.21615253 0.099558495 -0.15554261
000070 7a 8f 84 3d 9d cc 0d 3d 07 c6 3c bd c9 31 7c be
       0.064726785 0.034618963 -0.04608729 -0.24628367
000080 4d 84 c1 3d f9 ee 4a 3c 46 6b 27 bc 20 8a be 3e
       0.094490625 0.012386077 -0.010218447 0.37214756
000090 46 a2 c7 3d b3 94 c8 bd 1c 56 34 be da 51 cd bd
       0.09747748 -0.09793987 -0.17610973 -0.100253776
0000a0 2f 65 80 3d 3e 16 82 3e 48 7f 83 3c 83 28 87 3e
       0.06269299 0.25407594 0.016051903 0.26398095
0000b0 09 89 0d bc 27 86 09 be 76 45 50 3e 9c 43 ed 3e
       -0.008638629 -0.13430081 0.20338997 0.46340644
0000c0 76 b3 ca bd e3 58 ef bd 28 c8 52 3e 15 b4 80 be
       -0.09897511 -0.11686876 0.20584166 -0.25137392
0000d0 45 89 74 3d 2e e3 80 3e 46 6f 6c be 60 d0 21 bd
       0.059701223 0.25173324 -0.23089322 -0.039505363
0000e0 75 cc 38 be 33 8e 38 3d af 44 07 3e 69 f6 d4 3e
       -0.18046744 0.045057487 0.13209794 0.41594246
0000f0 4c 55 2d be 90 fa 18 3e b2 50 16 bd 24 04 29 be
       -0.1692707 0.14939332 -0.03669805 -0.16505486
000100 36 68 0e 3d 17 8a a2 bd f9 ed d9 be 8f 30 d1 3c
       0.034767352 -0.07936495 -0.4256437 0.02553585
000110 56 fa 89 3e 93 7d 5d be ed d6 c4 3e 3b 4e 28 be
       0.26948804 -0.21629934 0.38445225 -0.16436093
000120 3c ec 3d be 26 af ba 3e 09 80 c6 3c 19 1b b2 bd
       -0.18547148 0.36461753 0.024230974 -0.08696575
000130 e1 7b be bc d8 0c 7c be 26 ec b3 3d 3d 2a 08 3e
       -0.02325243 -0.24614275 0.08785276 0.13297363
000140 df 8f db 3d 3e 21 73 3d 52 54 b6 be a1 7d 8c 3e
       0.107208006 0.059357874 -0.35611206 0.27439597
000150 e1 0b d9 3d 2f 7a 09 3b df 7d c0 3c 36 9a 69 3e
       0.10597969 0.0020977368 0.02349752 0.22812733
000160 a6 d8 e0 3d fd 51 3f 3e e7 f8 cd bd cc 82 e5 3d
       0.109788224 0.1868362 -0.1005724 0.11206588
000170 02 41 85 3d 3f 01 1b be fc ee 60 bd f9 c5 5e 3e
       0.0650654 -0.15137194 -0.054915413 0.21755208
000180 85 8b 01 be 13 93 81 3e b6 91 33 3c 82 0b c6 3d
       -0.12650879 0.2530752 0.010960033 0.09670164
000190 95 b7 62 be b6 4f 76 3e cf c6 85 3d ad b9 53 bd
       -0.22140343 0.24053845 0.0653206 -0.051690746
0001a0 2e 67 ab 3d ba 57 e3 bc 33 65 5f be 63 2b b3 3d
       0.08369289 -0.027751792 -0.21815948 0.0874851
0001b0 52 db 52 bd c3 22 cd be 7b 6c 21 be 27 ef fa be
       -0.05147869 -0.40065584 -0.15764038 -0.49010584
0001c0 f6 94 52 3e 2f 3f dd 3d fd 20 0b 3e 23 a7 fb 3d
       0.20564637 0.10803067 0.13586803 0.12287738
0001d0 81 cd 9c 3e e6 35 2b be 6a 9e 21 3e c6 4f c3 3d
       0.30625537 -0.1671978 0.15783086 0.095367
0001e0 ef 16 55 3e ce 9d 5c 3e 3b 76 0c 3e 9a 27 80 bd
       0.2080953 0.21544573 0.13716976 -0.062575534
0001f0 5b ec 37 3d 76 79 99 3e 9b 9a 61 be f6 c6 dd 3d
       0.04490314 0.2997548 -0.22031634 0.108289644
000200 70 3e 43 3e 61 77 fb bd 35 f8 a0 3e fe 96 a1 be
       0.19066787 -0.12278629 0.31439367 -0.3156051
000210 2f bd 04 3e 59 98 84 3e dd fc 94 bd 38 c3 32 be
       0.12962793 0.25897482 -0.07274792 -0.17457283
000220 f7 eb 94 be cb 32 46 be 92 f0 88 3e b2 43 81 bc
       -0.29086277 -0.19355313 0.2674604 -0.01577935
000230 61 a6 b4 3d 60 cc 41 bd 2a 99 7a 3d a0 96 3d be
       0.08820797 -0.047314048 0.061181225 -0.1851449
000240 33 f7 53 bd 28 e4 fc bd b2 17 fc 3d 0c e5 3d be
       -0.05174942 -0.12348205 0.12309207 -0.18544406
000250 68 b8 0d 3b a1 06 c4 3d 4f ac 73 3e d3 93 04 be
       0.0021624807 0.09571577 0.237962 -0.12947015
000260 28 03 84 bd 25 d2 be bd 06 4c 7f be 8d 8f ae 3c
       -0.064459145 -0.09317426 -0.24931344 0.021308685
000270 d9 29 8f be 5e 1d 50 be f7 3c d9 bd 4b 56 c5 bd
       -0.27961615 -0.20323703 -0.10607331 -0.096356
000280 48 da 8a 3e 01 66 30 be d4 2a b8 bd 9a 9a 07 be
       0.2711966 -0.17226411 -0.08992544 -0.1324257
000290 0a e2 3d 3e 1b 03 89 bd bc 2e 12 3e c9 6c 99 3e
       0.18543258 -0.066900454 0.1427564 0.2996581
0002a0 bc 5d 0d 3e 60 95 64 3d 95 6b 79 3c cf 56 8a 39
       0.13805288 0.055806518 0.015223403 0.0002638609
0002b0 88 cf 67 bb a4 b8 87 bc 18 68 d0 bd 6f 56 0d 3e
       -0.00353715 -0.016567536 -0.10176104 0.13802503
0002c0 e5 b1 2a 3c 27 f6 39 be 1c 35 34 38 4f a5 59 3e
       0.01041839 -0.18160306 4.2964806e-05 0.21254466
0002d0 29 4e 33 be 37 e3 c3 bd e5 b5 3c 3e 05 c4 28 3e
       -0.17510284 -0.09564822 0.18428762 0.16481026
0002e0 ca 7b 88 3e 07 97 6a bd 90 d6 57 3e fd 11 aa bb
       0.26656944 -0.057272937 0.21077943 -0.0051901327
0002f0 ca fa 1e be 12 c0 ea bd f2 e3 6c 3e e6 b4 48 3e
       -0.15525356 -0.11462416 0.23133829 0.19600257
000300 37 45 1b 3e 8e da 75 3e 09 43 82 bd 82 7e a2 bd
       0.15163122 0.24009153 -0.06360442 -0.07934286
000310 be d5 13 3e be 41 85 3e 91 f3 00 be b2 9f cb bc
       0.14437005 0.2602672 -0.12592913 -0.024856422
000320 d2 67 52 3e 5b 2a e6 bd c5 09 35 3d ba 59 f6 3d
       0.20547417 -0.112385474 0.04419877 0.12028833
000330 bc ad 6e be 3d 65 56 3c 20 e1 a0 bd d1 aa b7 bd
       -0.23308462 0.0130856605 -0.07855439 -0.089681275
000340 df f1 46 3e b5 6e fd 3d f3 e6 f0 bd e3 94 0d 3e
       0.19428204 0.12374631 -0.117628 0.13826327
000350 f6 1c 7d 3d e2 ec 92 be 93 74 42 3d 23 54 38 be
       0.061795197 -0.28696352 0.047474455 -0.18000846
000360 b4 5b 1c be 9c 52 19 3d a3 7b 7c 3e 8f 4b 96 be
       -0.15269357 0.037432298 0.24656539 -0.29354522
000370 dc 48 eb bd 97 5f 53 3d 57 54 ea bc cf bd aa 3d
       -0.11488506 0.051604833 -0.02860467 0.08336984
000380 0d fa c2 3d dc 8e cd bd 00 a9 1a be 41 51 49 3b
       0.0952035 -0.10037014 -0.15103531 0.0030718597
000390 7a 1c cd bd f9 71 49 be f0 f6 01 3e 77 fe fe bd
       -0.10015197 -0.19672383 0.12691855 -0.12450879
0003a0 74 a4 11 be 18 97 d0 3d 26 df 1b 3e b4 0a 84 3d
       -0.1422289 0.10185069 0.15221843 0.06447354
0003b0 f7 5a 3c 3e eb be 33 3e bf e9 60 3e 9c 1c 0a bc
       0.18394075 0.17553298 0.21964167 -0.008429673
0003c0 f9 fb dc 3c 1d 2b 90 3d 99 77 60 3d 8c b6 79 bd
       0.026975619 0.07039473 0.054801557 -0.060965106
0003d0 0f 20 90 be 3a fd de bc ae 58 6e bd b5 73 53 3e
       -0.2814946 -0.027220357 -0.05819004 0.20649607
0003e0 96 5a 35 be 4f 8e 1c 3e e9 b1 9d bd 7c 58 26 bd
       -0.17710337 0.15288661 -0.07699949 -0.04061173
0003f0 a9 e5 13 3d d4 72 9e bd ee fa 1b 3d a5 a3 0c 3e
       0.036107693 -0.077367455 0.038081102 0.137343

model.2.bias f4 [150]
000000 6b 59 6c 3e 4d 55 63 3e a4 40 e8 be ad d6 2d 3e
       0.23080985 0.22200508 -0.45361817 0.16976424
000010 ab 12 7c 3e 98 6e 4f 3e 82 aa 56 be 46 c5 87 3e
       0.24616496 0.20257032 -0.20963481 0.26517695
000020 90 ec 31 3e 58 a4 55 3e 18 b3 d8 3d 6a e9 88 3e
       0.17375398 0.20863473 0.105810344 0.2674058
000030 cd f7 92 be a0 f8 37 3e c6 f2 86 3e 3d a9 e6 be
       -0.28704682 0.17965937 0.26357096 -0.45050994
000040 f1 98 ad be 4d d3 f5 bd 67 51 9e be 25 07 62 be
       -0.33905748 -0.12003193 -0.3092148 -0.22073038
000050 78 06 42 3e 6b 2f f9 bd e0 b7 a3 3e 8d fe 6c 3e
       0.1894778 -0.121672474 0.31976223 0.23143978
000060 c5 e8 81 3e 6b b1 81 be e3 ce a3 3e d1 9d 92 be
       0.25372902 -0.25330672 0.3199378 -0.2863603
000070 cd 79 57 be c6 e3 b9 3e 1e df 06 3f 37 ba a2 3e
       -0.21042557 0.3630659 0.526842 0.31782696
000080 bc 6e ab 3e aa ae a6 be 55 5a a5 be 96 61 0e 3f
       0.3348292 -0.32555133 -0.3229548 0.55617654
000090 25 57 9d 3e 56 40 8c be 4d 3b 85 be 41 f0 c3 3e
       0.30730549 -0.27392834 -0.26021805 0.38269237
0000a0 ef fd 82 be 09 a5 98 be eb 02 e9 be 27 51 fb bd
       -0.2558436 -0.29813412 -0.4551004 -0.12271338
0000b0 c1 f7 42 3e 4c f7 a4 3e ba 38 6d 3e 44 90 16 3f
       0.19039823 0.32219923 0.2316617 0.5881388
0000c0 1f 67 1a bf d1 96 6e be a3 9a 60 be be 2e 84 3e
       -0.603136 -0.2329972 -0.21933989 0.2581691
0000d0 15 48 8f 3e e8 ac 17 3f cb c7 d6 3e 39 28 a4 3e
       0.27984682 0.5924821 0.41949305 0.32061937
0000e0 0e c3 e9 be 60 c1 a3 3e b5 d6 9c be 2c 0a 8b 3e
       -0.45656627 0.3198347 -0.30632558 0.27156198
0000f0 eb e0 83 3e 62 fc 3d be 8b 3e cb 3e 0f 0b 65 be
       0.25757536 -0.18553308 0.39696154 -0.223675
000100 f1 83 cb bd 91 f6 67 3e 4f 81 b3 3e 02 76 84 be
       -0.09937275 0.22652651 0.35059592 -0.25871283
000110 dd 62 fa bc 56 2b 5c be 6c f3 71 3e 55 bf c0 be
       -0.03056472 -0.21500906 0.23628014 -0.37645975
000120 21 6e a5 be 5b 6e df bd 71 5f 0d bf 9f da a3 3e
       -0.32310584 -0.109097205 -0.5522376 0.32002732
000130 5c bf 91 3e 1e 52 41 3e a9 2f 38 be 7d 8e 9a 3e
       0.28466308 0.18878981 -0.17986931 0.30186835
000140 94 5a ef 3d d8 48 a9 3e d3 cb 8c 3e a4 5d 94 be
       0.11687198 0.33063388 0.27499256 -0.28977692
000150 07 7c 85 be 99 d4 2b 3e 96 f2 92 3e 9b f2 94 3e
       -0.26071188 0.16780318 0.28700703 0.29091343
000160 16 04 13 3a 9b 31 aa 38 81 0a ab be 0e 9e fd be
       0.0005608214 8.1154714e-05 -0.3340645 -0.4953465
000170 75 f3 41 be 5d 49 b1 3e f5 85 4c 3e 72 6c 5a 3d
       -0.18940528 0.34626284 0.19972976 0.053326078
000180 22 a4 17 bc d8 9d 3d be 43 e2 80 3e 9c ba b1 be
       -0.009255441 -0.18517244 0.25172624 -0.34712684
000190 93 04 d2 3e 75 31 9d 3e a7 37 02 3e a8 b9 a6 3e
       0.41019115 0.30701795 0.12716542 0.3256352
0001a0 76 bf 67 be 64 69 8f 3e f4 9f 6a be be 1f 8e be
       -0.2263163 0.28010094 -0.2291258 -0.27758592
0001b0 68 9f 7e be d6 31 a2 be fd f5 71 3e cd 0d af be
       -0.24865496 -0.31678647 0.23628993 -0.34190217
0001c0 5e 24 91 be 99 94 91 be bc 84 61 3e e9 bd 51 3e
       -0.28348058 -0.28433684 0.2202329 0.20482601
0001d0 57 49 96 3e 7c a3 2d be ed 1c c7 be b4 34 fc 3e
       0.2935283 -0.16956896 -0.38889256 0.4925896
0001e0 19 97 b1 3e 1e 71 18 3f 40 52 df bd 58 8a 98 be
       0.3468559 0.59547603 -0.1090436 -0.29793048
0001f0 91 08 38 be 5b 2d 0b 3d 74 45 9c 3e 27 c2 8d be
       -0.17972018 0.0339788 0.3052174 -0.2768719
000200 8c e8 a4 3e d6 3c b9 bd 6c c0 b9 3e 63 fe 80 be
       0.3220867 -0.09044807 0.3627962 -0.25194082
000210 70 4c 2f 3e f7 62 97 3e 56 f2 a1 bd 4c 54 b9 3e
       0.17119002 0.29567692 -0.0790755 0.36197126
000220 e4 a4 b0 be 11 b7 ac be 6f 49 61 be 2c 12 d9 3e
       -0.34500802 -0.3373342 -0.22000669 0.42396677
000230 c4 70 a5 3e d1 e7 af 3e cf ca ed be 8f 25 35 be
       0.32312596 0.3435655 -0.46443793 -0.17690109
000240 94 ad 84 3e 41 e7 bc 3e de 18 ab be 45 5c 89 3e
       0.2591368 0.36895183 -0.3341741 0.2682821
000250 ac 20 7e be a7 8b 8e 3e
       -0.24817151 0.2784092

model.4.weight f4 [1, 150]
000000 bc 31 e4 bf fe b3 b4 bf 66 e9 ef 3f 73 ec 47 c0
       -1.7827678 -1.4117429 1.8743103 -3.1238067
000010 9c 19 05 c0 a9 1a 04 c0 88 96 bf 3f c6 46 1e c0
       -2.079688 -2.0641272 1.4967813 -2.4730697
000020 c6 a1 00 c0 2c 43 f2 bf a5 71 1c 40 ec 52 d5 bf
       -2.0098739 -1.8926749 2.4444363 -1.6665931
000030 d2 df 84 c0 c8 5a 29 c0 4c 94 dd bf 66 e7 cb 3f
       -4.152322 -2.6461658 -1.7310882 1.5929992
000040 ef 89 7d 3f 11 f4 01 40 fc 80 f0 3f 2b 17 74 40
       0.99038595 2.0305216 1.8789363 3.813914
000050 51 a1 0b c0 3b 37 0c 40 c0 d9 ae bf 3b e5 03 c0
       -2.181721 2.190871 -1.3660202 -2.060866
000060 c7 84 c2 bf 3b 8f a6 3f 0c 8c e6 bf 9a 32 1e 40
       -1.519677 1.301246 -1.8011489 2.4718385
000070 58 8f 06 40 46 e2 24 c0 cf b8 93 bf 22 b6 a9 bf
       2.102499 -2.5763106 -1.1540774 -1.3258708
000080 26 1b f5 bf 95 cb ca 3f 05 35 b5 3f 80 14 0f bf
       -1.914891 1.5843378 1.4156805 -0.55890656
000090 b0 81 bb bf 80 85 a1 3f 88 c0 6c c0 a3 53 e9 bf
       -1.4648952 1.2618866 -3.6992512 -1.8228649
0000a0 21 21 e4 3f 6c 1b 6f 40 03 9f d1 3f 7d b3 21 40
       1.782261 3.7360487 1.6376652 2.52658
0000b0 37 51 20 c0 46 3e 82 40 75 2b 18 c0 e3 37 e6 bf
       -2.504957 4.0701017 -2.3776524 -1.7985805
0000c0 90 68 0f 3f c3 4b 98 3f 9f 7b a5 3f b1 92 9f bf
       0.56018925 1.1898121 1.2928351 -1.2466642
0000d0 a7 8d 10 c0 70 a7 17 bf 58 47 cd bf 33 bb 0f c0
       -2.2586458 -0.59239864 -1.6037397 -2.2458007
0000e0 18 11 c8 3f d7 52 bf 40 5f 30 8e 3f 21 49 eb bf
       1.5630217 5.9788623 1.1108512 -1.8381692
0000f0 dd b7 93 bf 2b c3 cf 3f dc a4 68 c0 0a 91 cc 3f
       -1.1540486 1.6231436 -3.6350622 1.5981762
000100 32 2a 18 c0 6c ca 96 bf 20 44 0c c0 e9 56 a7 3f
       -2.3775754 -1.1780524 -2.191658 1.3073398
000110 fe 4a 74 40 ea 46 ba 3f 61 c7 fa bf f6 35 6c c0
       3.8170772 1.4552891 -1.9592096 -3.6907935
000120 26 4d bc 3f c5 d2 e4 3f 60 a7 dc 3f a8 fb ba bf
       1.4711044 1.7876822 1.7238579 -1.4608049
000130 d0 96 95 c0 f9 d5 e1 bf 54 a2 d2 3f 82 8b a6 bf
       -4.6746597 -1.7643424 1.6455789 -1.3011324
000140 6a 28 72 40 fe d6 a8 bf 01 0d be bf 9a 6c 0f 40
       3.7837167 -1.319061 -1.4847718 2.2410035
000150 97 fe ee 3f be cd 07 c0 77 d1 09 c0 31 9c 93 bf
       1.8671445 -2.1219325 -2.1534097 -1.1532041
000160 48 95 1d 40 49 22 13 c0 42 e0 d0 3f aa 35 ee 3f
       2.4622364 -2.2989676 1.6318438 1.8610127
000170 95 79 1e 40 42 bf 98 c0 2e b0 f3 bf 5b 16 38 c0
       2.4761708 -4.773347 -1.9038141 -2.8763645
000180 72 83 22 c0 a4 d1 1c 40 75 13 97 bf f7 90 21 40
       -2.5392728 2.4502954 -1.1802813 2.524473
000190 1c 87 d0 bf f8 7e ef bf 58 99 16 c0 f7 1a c0 bf
       -1.6291232 -1.8710623 -2.3531094 -1.5008229
0001a0 35 e3 04 40 ad ad 86 40 ef fe c3 3f 06 74 15 40
       2.0763676 4.2087007 1.5312175 2.3352065
0001b0 f0 08 ec 3f de 39 b3 3f 3f ad 7c 40 26 f8 c3 3f
       1.8440228 1.4002035 3.948074 1.5310104
0001c0 94 4f e1 3f c0 0f be 3f 4c fd e7 bf cc 3b ba bf
       1.760241 1.4848557 -1.8124175 -1.4549499
0001d0 67 9a c1 bf 94 65 07 40 ec 94 8f c0 3a 36 01 c0
       -1.5125245 2.1155748 -4.486929 -2.0189347
0001e0 02 34 d4 bf 0c 89 0f bf f0 43 1a 40 ac da 00 40
       -1.6578372 -0.5606849 2.4103966 2.0133467
0001f0 ff 40 12 40 ae 75 3e c0 f9 14 dc bf f9 6e c1 3f
       2.285217 -2.9759326 -1.71939 1.5111991
000200 6b 73 36 c0 f0 76 6c c0 fd c8 92 c0 57 47 07 40
       -2.8507946 -3.6947594 -4.5870347 2.1137292
000210 5b 26 19 c0 b3 34 d2 bf eb 49 13 40 1f 09 b2 bf
       -2.392966 -1.6422333 2.3013866 -1.3909034
000220 8d e8 da 3f ad 48 db 3f 03 8e 10 40 24 cd ed bf
       1.7102219 1.7131554 2.2586677 -1.8578229
000230 47 a8 ac bf ab 39 6f 40 df e1 b3 3f 76 34 32 40
       -1.3488854 3.7378948 1.4053305 2.784452
000240 37 20 d4 bf 00 58 23 c0 d4 0c bb 3f 73 22 d6 bf
       -1.6572331 -2.552246 1.461329 -1.6729263
000250 c7 86 1d 40 fb 80 b5 bf
       2.4613512 -1.4179987
