src/RNA/rna_flag_model_fbp.pth (torch, 100470 bytes, 5 tensors)

model.0.weight f4 [150, 10]
000000 04 52 83 be dd a2 1a bf 63 fc 82 bf 7b b5 b1 3f
       -0.2564851 -0.6040476 -1.0233272 1.3883508
000010 44 5b f6 be 64 3e 29 bc db 4b 02 be 16 76 0f 3f
       -0.48116505 -0.0103298165 -0.12724249 0.5603956
000020 a0 4a 45 3f 55 93 34 bf 24 24 b8 be 58 41 3e bf
       0.77066994 -0.7053731 -0.35965073 -0.74318457
000030 47 c7 5b 3d a8 e1 44 3f f8 b6 3b 3f 6a 0a 27 3e
       0.053656843 0.76906824 0.73326063 0.16312566
000040 70 2f 1b be 6d 6a 0b 3f 8c e0 a2 3f 6b 90 94 3e
       -0.15154815 0.5445927 1.2724776 0.29016432
000050 f8 c5 fb be 2f 1b 24 bf 8c 69 62 3e e4 d3 2f bf
       -0.49174476 -0.6410398 0.22110575 -0.68682694
000060 b0 12 7e 3f 0a 02 2d 3f 25 5e 7c bf 5e 2c bc be
       0.99247265 0.67581236 -0.98581153 -0.367526
000070 79 ee 0d bf f1 83 36 bf 08 a1 22 3e aa 3f 96 bf
       -0.55442005 -0.71295077 0.15881741 -1.1738179
000080 97 f7 0f 3f cf b9 27 3f 24 49 0c 3f 83 32 bf be
       0.5623717 0.65517896 0.54799104 -0.37343225
000090 8c 00 1d 3f 94 b2 f7 3e 76 06 0c bf b2 e3 0d be
       0.6132896 0.48378432 -0.5469736 -0.1385639
0000a0 59 56 0b bf 25 61 c9 bd 6f 4e dc 3e a2 fe 85 bd
       -0.5442863 -0.09832982 0.4302859 -0.06542708
0000b0 30 a9 e7 3d 90 b2 fe be 94 d6 5a be aa 52 08 bf
       0.11311567 -0.49745607 -0.21370918 -0.53251135
0000c0 23 a8 6a 3d 27 d8 77 be 18 2c ae bb 68 51 a0 be
       0.057289254 -0.2420355 -0.005315315 -0.31312108
0000d0 52 b7 36 3f 57 0a 6d 3f 0e 98 0f bf ba 25 7b 3e
       0.71373475 0.925939 -0.5609139 0.2452611
0000e0 99 33 d9 bd f1 8f bd 3e 0b 07 32 bf 9c 55 bf be
       -0.106055446 0.3702388 -0.69541997 -0.37370002
0000f0 58 0b 16 3f b8 f3 85 bf 2c a2 dc 3e 75 e8 9f bf
       0.5861106 -1.0465002 0.43092477 -1.2492815
000100 2a b0 99 3d 57 ac 2a bf 8c a4 af be 86 eb 99 bf
       0.07504304 -0.6666922 -0.34305227 -1.2025001
000110 45 1a 53 be dd 8d ac bd c8 61 78 be 3f 2e 3d bf
       -0.2061549 -0.08425496 -0.2425605 -0.7389869
000120 a2 55 bd 3e 04 a3 83 bc ea c7 80 bf 87 a4 f4 3c
       0.36979395 -0.016068943 -1.0061009 0.029863609
000130 75 34 c9 3e de 71 da 3e c4 c9 3a bf 5a b8 d8 3e
       0.39297834 0.42665 -0.7296412 0.4232815
000140 01 20 51 3e 7d 69 08 3f dc 85 a0 bf 28 d4 0c 3e
       0.20422365 0.5328596 -1.2540851 0.13752806
000150 ee 58 56 3e 81 e5 85 3e f0 18 46 bf fc d1 4f be
       0.20932361 0.2615166 -0.773818 -0.20294946
000160 2d d0 19 3e 0a 39 11 3f 78 dc 6e bc fb 55 b4 ba
       0.15020819 0.5672766 -0.014578931 -0.0013758534
000170 04 2c 36 bd cc c2 a3 3c b4 93 12 bd 15 f3 33 bd
       -0.04447557 0.019990347 -0.035785392 -0.043932993
000180 46 b1 28 bd d1 6e 2e 3c 6c d7 ea 3d 0c 9b 36 3d
       -0.041184686 0.010646538 0.1146687 0.044581458
000190 97 76 60 be 13 c8 fb bf 2d 37 70 be ba 53 8a bf
       -0.21920238 -1.9670433 -0.23458548 -1.0806801
0001a0 31 50 c2 be b2 bf 8f bf ef e3 d6 3e 66 1c 18 bf
       -0.37951806 -1.1230376 0.41970775 -0.5941833
0001b0 8d ad 94 3e d3 00 d6 be 22 8f 30 3d cf 50 19 3f
       0.2903866 -0.41797504 0.043105252 0.5988893
0001c0 5c 1e 3d 3f 6b 86 58 be bb 83 44 3e 48 1b 57 3e
       0.7387445 -0.21145026 0.19190876 0.210065
0001d0 1b a1 4d 3f 56 fa 0f bf 82 d7 c6 3e f7 48 d2 3e
       0.8032395 -0.5624136 0.38836294 0.41071293
0001e0 f1 e4 80 be f9 67 81 3e ae 3b 18 3f 6f ff d3 3e
       -0.25174668 0.25274637 0.59466064 0.41405818
0001f0 72 20 a5 bf 44 06 d5 be 64 b0 81 3e c4 cd 90 3d
       -1.2900527 -0.41606343 0.25329888 0.07070497
000200 9c 23 dc be 1f 44 e8 3e 91 dd fe bb b2 23 96 3d
       -0.42995918 0.45364472 -0.0077778776 0.07331027
000210 a8 1d 49 bf 79 6d 96 be a8 1a 51 3e 11 a2 3a bf
       -0.78560877 -0.29380396 0.20420325 -0.72903544
000220 e4 80 4a be 34 a8 b9 be 89 fc b7 3f 64 42 88 bf
       -0.1977573 -0.3626114 1.4373943 -1.0645261
000230 61 99 db 3c 50 df 20 3f ff 68 3a 3f 7c 04 a3 bf
       0.026806535 0.6284075 0.7281646 -1.2735744
000240 0a 77 95 bf 54 c1 17 bf 57 c8 34 bf 17 a6 fc bd
       -1.1676953 -0.5927937 -0.70618194 -0.123363666
000250 56 c9 da bc ae 33 fd be 73 80 72 3e 67 32 0e 3f
       -0.026707333 -0.4945349 0.23681812 0.5554566
000260 85 04 ab bc 72 54 8a bf 4c 26 5b 3e a6 48 71 3f
       -0.020876179 -1.0807021 0.21401328 0.9425148
000270 5c 90 d9 3b 86 56 ad 3e 2d ba 85 3e 0f 01 9f bd
       0.0066395234 0.33855075 0.26118603 -0.07763874
000280 5a bf 38 3e 91 a9 ca 3d 70 aa 4b 3d 53 48 a8 bc
       0.18041745 0.098956235 0.04972309 -0.0205423
000290 f2 75 58 bc ff 6a b6 bd f1 bf 98 bc 18 91 a3 bd
       -0.013211714 -0.08907127 -0.018646212 -0.07986659
0002a0 f7 43 95 3d 23 39 87 bd 69 ab a3 3c 01 45 0e 3e
       0.07288354 -0.06602695 0.019979196 0.1389351
0002b0 2a 39 32 3d 3e 8f c4 3b 48 a7 df ba 63 7c f4 bd
       0.043511547 0.005998521 -0.0017063404 -0.119377874
0002c0 94 e1 c6 3b c7 0d 3d bd 9a b4 6d 3d 38 a1 b9 bd
       0.0060693715 -0.046155717 0.058033563 -0.09063953
0002d0 66 2b 04 bd 17 d1 e4 3d 05 09 24 3e f0 74 50 3f
       -0.03226795 0.11172693 0.16019066 0.8142843
0002e0 82 11 42 bf 91 9b 3b bf 4b a2 d7 3d bc 71 26 3f
       -0.75807965 -0.7328425 0.10529002 0.65017295
0002f0 79 7e 44 bd 03 67 14 bf 1a ab 08 3e eb 22 3a bf
       -0.047972176 -0.57969683 0.1334652 -0.7270953
000300 60 65 41 3f a4 63 0f 3f fe 88 54 3e e2 bd 6d 3d
       0.7554531 0.56011415 0.20755383 0.058042414
000310 9e e0 30 3f 4b a9 ea 3e 9b e3 5a 3e f3 84 05 bf
       0.6909274 0.45832285 0.21375887 -0.5215599
000320 1c f9 2f be 35 8d d5 be 4a fb 84 3f f5 56 38 3f
       -0.17184871 -0.41709295 1.0389187 0.72007686
000330 ce ac 2f 3f c5 74 4c be cb 43 01 3d f3 28 1f 3e
       0.68623054 -0.19966419 0.031558793 0.15542965
000340 bc a8 bf be 03 9f 2a 3f 22 80 98 3d 4a 9e 61 bd
       -0.37433422 0.6664888 0.074463144 -0.055082597
000350 a7 e4 f4 bc 61 87 2e bd 76 d8 5d bd 90 8c c4 3d
       -0.029894186 -0.042609576 -0.05416151 0.09597123
000360 5a 19 03 bd 98 98 43 bd 23 e0 60 3d 24 1d 9f 3d
       -0.0320066 -0.047752947 0.054901253 0.0776923
000370 9b 76 df 3b 43 64 8f bd cd d1 21 bf c8 da 43 bf
       0.006819559 -0.07001545 -0.63210756 -0.7650571
000380 f9 43 54 be 3f 03 70 3e 86 3b 38 3f b4 de 13 3f
       -0.20729055 0.23438738 0.71965826 0.57761693
000390 f9 ae ed be 98 73 8f be cb c9 3d 3e 66 bd 41 be
       -0.46422556 -0.2801788 0.18534009 -0.18919906
0003a0 7c cf c9 3f f5 c8 81 be ba ed 63 be 0f 0b 3d be
       1.5766444 -0.2534863 -0.22258654 -0.1846125
0003b0 cb f7 13 3e ba 29 b7 3d 1c dd 46 bf 8e 62 97 be
       0.14449994 0.089435056 -0.77681136 -0.2956738
0003c0 26 7b 16 3c 49 22 f2 bb 28 c1 9e 3d d1 d1 32 bd
       0.009184634 -0.007389341 0.077516854 -0.043657128
0003d0 b2 58 d3 3c 71 12 5e 3b c5 86 42 3c 30 27 a7 bd
       0.02579913 0.0033885504 0.011872952 -0.08161771
0003e0 95 f1 3b bd 59 ca b8 bd f8 ed 85 bc 1c a2 1f c0
       -0.045884687 -0.0902297 -0.016348824 -2.4942694
0003f0 39 ad c2 bd 3c a2 b2 be bd 6f 50 bf e3 2e 58 3f
       -0.09505696 -0.348894 -0.814205 0.84446543

model.0.bias f4 [150]
000000 d6 f7 90 be a2 2b 26 3f bd 57 df be ec b6 0c bf
       -0.28314084 0.6491033 -0.43621626 -0.54966617
000010 32 59 af 3e 8b 23 8e be 55 fc da be cf 6c bb be
       0.34247738 -0.27761492 -0.4277064 -0.36606452
000020 84 e0 c8 be 0f d3 30 bf 21 51 e1 3e 13 64 01 3f
       -0.39233792 -0.6907205 0.4400721 0.50543326
000030 48 55 e0 3e 68 eb d6 be 51 17 7b 3e 7c b4 89 bd
       0.43815064 -0.41976476 0.24520613 -0.06723878
000040 be 24 21 3f 4d a0 1c 3f d3 52 aa 3e 5f 37 20 bf
       0.6294669 0.611821 0.33266315 -0.6258449
000050 f0 e4 f0 3e 08 02 25 bf 5d 8e 22 3f 85 7e ec be
       0.47049665 -0.64456224 0.6349848 -0.46190277
000060 9f 40 30 3f b6 5a b0 bf 83 56 3c bf a2 8e 2e 3f
       0.68848604 -1.3777683 -0.73569506 0.6818639
000070 b9 7d 2c 3f 47 98 0d bf 63 22 28 bf 1b 73 12 be
       0.6737934 -0.5531048 -0.6567747 -0.14301722
000080 91 76 ba be 1d de 42 be 30 b5 3c bf d2 1f 71 3f
       -0.36418584 -0.19030042 -0.7371397 0.9418918
000090 b8 3d 33 3e e6 cf 4b 3e 11 56 3f 3f 1d c1 09 3f
       0.17504013 0.19903526 0.747407 0.5381029
0000a0 07 d8 2e 3f bc 4f 8d 3f ee 94 15 3f 69 41 29 3f
       0.6829838 1.1039958 0.58430374 0.6611543
0000b0 c8 25 24 3e e5 1f 06 3f e7 d9 b8 be 47 e1 cd be
       0.16030037 0.5239242 -0.36103746 -0.40210935
0000c0 b3 e9 c7 be 56 b5 1d bf 26 58 4b 3f 7f d3 fe be
       -0.39045486 -0.6160482 0.7943138 -0.49770734
0000d0 da c7 24 bf 63 55 af be 5b 6d 91 3f 9b 9f ce be
       -0.6436745 -0.34244832 1.1361498 -0.40356144
0000e0 8c 07 c6 be 5e fd c7 be ef e4 06 3f 19 0d 8f be
       -0.38677633 -0.3906049 0.52693075 -0.2793968
0000f0 3d a9 a1 3e 3c 97 17 bf aa 25 4d 3f fe 57 98 3e
       0.3157443 -0.5921514 0.80135596 0.29754633
000100 c5 a6 24 bf 67 50 01 3c 46 cd fd 3d df c7 a8 be
       -0.6431697 0.007892705 0.123926684 -0.3296499
000110 19 01 21 3f 94 05 c6 3e 9e 52 d3 3e 81 fd 10 3f
       0.628923 0.3867613 0.4127397 0.56636816
000120 a7 c7 ae be b1 6c ee be d9 00 0b bf 4b 0b 2d bf
       -0.34136698 -0.465673 -0.5429817 -0.67595357
000130 d3 3c d9 be dd 1c 80 be 7b ea d7 be b7 04 f2 3d
       -0.42429218 -0.2502202 -0.42171082 0.118173055
000140 58 1a 38 bf 89 3d 4e 3d 3a 1e 26 bf ab 53 6e 3e
       -0.719152 0.050351653 -0.6488987 0.23274104
000150 6f cd b4 3e db 46 ae 3e c8 f2 82 3f 58 8d 03 3f
       0.35312983 0.34038433 1.0230341 0.5138755
000160 ea 68 b5 3e 97 2e 52 3f 80 f0 9a bf 96 2c 35 bf
       0.35431606 0.8210234 -1.2104645 -0.7077116
000170 72 e8 74 be 11 58 cc 3d 49 86 c7 be 7a 82 21 be
       -0.23916796 0.09977735 -0.3896964 -0.15772429
000180 88 f6 0d bf 1b 3a 7d 3e 9e ed 1c 3f 26 73 16 3f
       -0.554543 0.24729197 0.61300075 0.5876945
000190 9f 59 69 bf 9a 65 0a 3f 0e 8d 0c bf ac 96 87 3f
       -0.91152376 0.5406128 -0.5490273 1.0592856
0001a0 ca 36 e4 be 10 2c 28 3f 3b 3a 59 3f f8 19 c3 3d
       -0.4457305 0.65692234 0.8485448 0.095264375
0001b0 75 f6 0b bf 68 81 36 3f ff 95 01 3f eb 66 05 3f
       -0.5467294 0.7129121 0.506195 0.52110165
0001c0 94 78 84 3f 80 0f 14 3f 0c 1a 52 3e 93 81 e4 be
       1.0349298 0.5783615 0.20517749 -0.44630107
0001d0 f9 1c 8e 3e 0f 1a 93 3c 7d f8 20 bf 87 dd 09 bf
       0.2775648 0.017956762 -0.62879163 -0.5385365
0001e0 a5 13 9e be e7 d7 46 be a2 87 00 bf ff 81 26 3f
       -0.30874363 -0.19418298 -0.5020696 0.6504211
0001f0 10 ba ee be 8b 76 d7 be 28 48 48 be 93 41 2c 3f
       -0.4662633 -0.4208263 -0.19558775 0.6728756
000200 3e 95 1a bf f0 ed 4f be 92 b5 fd 3e 7a eb fb be
       -0.60383976 -0.2030561 0.4955259 -0.49203092
000210 e6 ae 12 bf 8e 25 65 3e a1 04 ec be c7 0d 33 3f
       -0.57298124 0.22377607 -0.46097282 0.699429
000220 dd f7 cd be ef eb a7 be ad c4 1b 3f 29 27 80 3e
       -0.40228167 -0.3279719 0.6084698 0.25029877
000230 b8 fc 0e 3f 9c a1 14 bf f7 20 02 3f 0d 33 15 3f
       0.5585437 -0.58059096 0.5083155 0.5828102
000240 7a cb 2f be 82 e2 da be 5e a4 22 bf 81 9d 45 3f
       -0.17167464 -0.42750937 -0.63532054 0.77193457
000250 81 64 43 3f 38 19 27 bf
       0.7632523 -0.65272856

model.2.weight f4 [150, 150]
000000 22 a5 57 be 2c 68 43 bf e3 47 fe 3d 36 b0 bd be
       -0.21059087 -0.7633083 0.12416055 -0.370485
000010 93 5c cd bd c9 94 75 be ad c9 83 be e7 8c 77 be
       -0.10027423 -0.23982538 -0.25739804 -0.24174844
000020 3e 6f 4d 3d 0c 56 27 3e 12 e3 dd bd f7 16 5e 3e
       0.050154917 0.16341418 -0.10834326 0.21688448
000030 79 56 6e bd 02 cb 19 be 99 bc b0 3e dc 39 f8 3d
       -0.058187936 -0.15018848 0.3451889 0.12120411
000040 04 54 28 bd 68 36 98 bd 64 8c dd 3d e7 d7 01 bf
       -0.04109575 -0.07432252 0.10817793 -0.50720066
000050 f2 3d 7b be 5a 2c 03 3e da 81 58 be 8c 00 38 bf
       -0.24535349 0.12809888 -0.21143284 -0.71875834
000060 d8 86 c4 bd 58 97 0d bf 1a a3 b9 be 60 57 31 bb
       -0.09596032 -0.5530906 -0.3625725 -0.0027060136
000070 91 ff 0a be 12 3a 0f bf 5b db fd be f2 e3 74 3e
       -0.13574053 -0.55947983 -0.49581417 0.23915079
000080 27 74 39 3e 43 34 b2 3e 43 39 39 3e e0 27 34 be
       0.18110715 0.34805498 0.1808825 -0.17593336
000090 6b 4c 73 be 5d fb 96 bd e0 82 a2 3e 8c a1 ab 3e
       -0.2375962 -0.073721625 0.31740475 0.33521688
0000a0 f3 20 80 3d 3a 19 b3 3e e7 a9 32 be f6 2a 2c bd
       0.062562846 0.34980184 -0.17447625 -0.04203316
0000b0 5b 54 2e 3f 43 b1 69 bd 2a a7 70 3e c0 ca c0 bd
       0.68097466 -0.057053816 0.23501268 -0.094136715
0000c0 12 d4 d8 3e 6b 48 1b 3e 4b 2d 67 3e d8 3e 35 bc
       0.42349297 0.15164344 0.22575872 -0.011062346
0000d0 29 c2 cd 3d f5 01 05 3f 9f db 9b 3e f3 60 95 bc
       0.10046799 0.5195611 0.30440995 -0.018234706
0000e0 55 95 4e be 7c e5 ae 3e e2 06 21 be da bd a8 be
       -0.20174153 0.34159458 -0.15725282 -0.32957345
0000f0 8f ed 44 3f af da c8 3d a5 b4 03 bf 95 30 02 bd
       0.76924986 0.098073356 -0.51447517 -0.031784613
000100 91 12 91 3e b2 26 cb 3e ab 8d a8 3e 20 0e 76 3e
       0.28334478 0.3967796 0.32920584 0.24028826
000110 93 05 c2 bd 54 07 ca 3e 68 af 53 3d a9 9a 21 bd
       -0.094737194 0.39458716 0.051680952 -0.039454136
000120 e5 18 2d bd 29 bd ec 3c 1e 58 11 3f 41 70 5d 3e
       -0.04226007 0.028898792 0.5677508 0.21624853
000130 7e d2 35 3e cb 4d de bd a8 b6 ee be 95 bc ab 3e
       0.17756078 -0.108546816 -0.4662373 0.33542314
000140 42 cb ba bd 67 a1 f1 3e 57 54 25 3e 9e 0e 00 3f
       -0.091207996 0.47193453 0.16145454 0.50022304
000150 c5 ac 3d 3e bd ba 03 3e c7 cb 12 3f 6f 64 fa 3e
       0.18522938 0.12864204 0.5734219 0.4890475
000160 88 7c 14 be 48 44 c6 3e f2 0f 93 bf 57 08 04 3f
       -0.1450063 0.3872397 -1.1489241 0.51575226
000170 57 9e 2e be 0d f1 84 3e 69 81 0a bf ee fa 04 bf
       -0.1705259 0.25965157 -0.54103714 -0.5194539
000180 05 29 16 3e a1 1b 86 bd ec 66 a5 bd 39 bd e4 be
       0.14664085 -0.065482385 -0.080762714 -0.44675615
000190 f8 3c 46 3e e4 40 96 3d 4e 2d 50 3e 58 27 43 be
       0.19359195 0.07336596 0.20329782 -0.19057977
0001a0 79 0a 60 be b7 49 1a be 0e 56 3f 3f b7 67 b2 3e
       -0.21878995 -0.15067182 0.74740684 0.34844753
0001b0 9e b2 8b bd 9f 8a e9 bb e1 39 c5 bd e7 4f fb 3e
       -0.06821178 -0.0071271206 -0.0963018 0.49084398
0001c0 2d 06 6d 3e be 46 fd 3d f7 39 98 3d 3d fd 27 bf
       0.23146887 0.123670086 0.07432931 -0.65620786
0001d0 ca 73 6a 3e 53 9c 14 3f 95 c5 98 be 5c 61 6b bd
       0.22895733 0.5805103 -0.29838243 -0.057465896
0001e0 08 e9 5c 3e ee 88 58 3e 93 e3 c7 3e 64 da 2d bd
       0.2157327 0.21145985 0.39040813 -0.0424446
0001f0 11 b9 2f 3e 1a 9b 2a be 21 06 b8 3e 04 6d a5 bc
       0.17160441 -0.16660729 0.35942176 -0.020193584
000200 5c 75 59 be 7e 21 e9 be ff dc c9 3e 04 de 8f 3e
       -0.21236175 -0.45533365 0.3942642 0.28099072
000210 99 72 e8 be 9a 22 8f 3e 39 76 b6 3e 63 74 e5 bd
       -0.4539993 0.27956086 0.35637072 -0.1120384
000220 bc 25 29 be 1f 17 c3 be 7a 9c 1d be 6d db 86 3d
       -0.16518301 -0.38103577 -0.15391722 0.06584821
000230 d7 38 21 3e d4 33 de 3c d9 04 0e be 57 a7 64 3d
       0.15744339 0.027124323 -0.13869037 0.05582365
000240 12 90 ec be 3e 74 0a 3e bc 70 07 3e e2 ed ce 3e
       -0.46203667 0.13520905 0.13226599 0.40415865
000250 81 73 93 bd c2 85 2b 3e 73 0a 19 3f 21 4f 9b 3d
       -0.07199765 0.16750243 0.5978157 0.07583452
000260 04 1e 21 bf 9f 87 48 bf 5e 86 d7 bd 5e e9 d9 bd
       -0.62936425 -0.7833194 -0.105236754 -0.106402144
000270 58 16 0e be 6c f3 0e bf 3d c0 a0 3e ae 50 d6 3b
       -0.13875711 -0.5584018 0.31396666 0.0065403795
000280 27 7a 81 3e b2 70 fe bb 75 ba 8d be 61 a8 d5 3e
       0.25288507 -0.007764899 -0.27681318 0.41730025
000290 d5 88 e8 be 59 ed 23 3d f9 a3 05 3b f1 77 41 3d
       -0.45416895 0.040021274 0.0020391925 0.047233526
0002a0 30 57 01 bc ac bc 26 bf 69 02 8b be 07 f6 87 3d
       -0.007894322 -0.6513164 -0.27150276 0.06638723
0002b0 ab 3a f2 3e 1f d1 ab bf 1c de 40 bd 38 6b 58 bc
       0.47310385 -1.3423194 -0.04708682 -0.013209157
0002c0 ff 6a 21 bd f6 3a b4 3c 3f d5 12 bf 6e fd 3d bf
       -0.03940868 0.022000771 -0.5735664 -0.7421483
0002d0 83 9b db bf e9 49 31 bf 70 7b b1 bd 3a 8c 10 3f
       -1.7156833 -0.692534 -0.08666122 0.5646397
0002e0 da 55 eb bd a9 cc 39 3f be 55 4e 3f a2 3e c4 3d
       -0.11490984 0.7257791 0.8059958 0.09582259
0002f0 5c d7 9b bd 5d 3f bf 3e 7d d9 d1 3e 4b 15 f1 3e
       -0.07609436 0.3735303 0.40986243 0.47086558
000300 4a 6c d1 3c 28 c3 0e 3e d9 0d 9c 3e 76 df ed be
       0.025564332 0.13941634 0.30479315 -0.4645955
000310 ec 5f c5 be 34 c0 48 be 04 ff 1c 3d 06 7a 6b 3c
       -0.38549745 -0.1960457 0.03832914 0.014372354
000320 0b f9 dc 3e a4 6d 1b 3f b6 c1 86 be 43 23 18 3f
       0.43158755 0.60714173 -0.26319665 0.59428805
000330 d8 8b 1f 3c 30 a0 87 3d 2a 9e a0 3e b2 fd d5 3e
       0.009737931 0.0662235 0.3137067 0.41795117
000340 44 a8 92 3d b7 7e b0 3d 85 ca 11 3f df ea 17 3e
       0.07161 0.08617919 0.56949645 0.1483569
000350 d6 13 ac 3e ab 4b 6c bf a6 fd 96 3d c1 74 ac 3e
       0.33608884 -0.9230296 0.07372598 0.33682826
000360 1b a3 a4 bd bb 87 1f 3f ae 5d 91 3e a3 a6 25 3f
       -0.080389224 0.62316483 0.28391784 0.6470739
000370 2b 65 41 be 10 68 1d bd 82 02 f6 3d 0e c9 10 bf
       -0.18886249 -0.03842932 0.12012197 -0.56556785
000380 ed ba 66 3d ce 4c 0e be 72 fb 8b 3e 13 ac 71 3d
       0.05633061 -0.13896486 0.27340275 0.059001993
000390 ac 25 8a bf 7a 7e 9a bd cb de cd be 4f 14 83 be
       -1.0792747 -0.07543655 -0.4020904 -0.25601432
0003a0 bb c2 2a bf 04 60 5f be b8 5b d4 3d 9b 3f 00 bf
       -0.66703385 -0.21813971 0.103690565 -0.50097054
0003b0 64 ed 5c bd a3 86 f5 bd 94 c3 58 3f 95 ea d5 be
       -0.05393733 -0.119885705 0.8467343 -0.41780534
0003c0 98 9e 21 be 46 3d 12 3f a9 9f 6e bf 37 4e 09 3f
       -0.15783155 0.57124746 -0.9321237 0.5363497
0003d0 2e c3 dd bc a7 60 01 bf 05 36 35 3d 53 6f 7e be
       -0.027070608 -0.50538105 0.04424097 -0.24847154
0003e0 d7 c9 18 3d 73 ea 87 3e 3c 02 b2 3d a6 45 46 bd
       0.037301864 0.26546058 0.086918324 -0.048406266
0003f0 4c 95 91 3d ab c8 f8 3d 25 8f cc bb e5 09 3a bd
       0.07108554 0.121476494 -0.00624265 -0.045419592

model.2.bias f4 [150]
000000 6d 56 22 be 81 0f 60 bb 32 ae 0c 3f dc e5 51 3e
       -0.15853281 -0.0034188929 0.549533 0.2049784
000010 c8 95 8a be 46 e1 9f be 05 5e 1c be cc 30 58 3e
       -0.270674 -0.31226557 -0.1527024 0.21112365
000020 14 f2 c9 3e 44 a2 18 3f be df a9 be 7f 18 24 3d
       0.39442503 0.596226 -0.33178514 0.040062424
000030 29 2e be 3e 61 dd 8e 3e 26 a4 7c be 2d 59 22 bf
       0.37144592 0.27903274 -0.24671993 -0.6341732
000040 44 d7 e9 be 70 ff 48 3e d7 f8 79 be 29 d4 3d be
       -0.45672047 0.19628692 -0.24411331 -0.18537964
000050 f3 c1 78 be ca d9 f8 be 0d e4 87 be 7d 0e 84 3e
       -0.24292736 -0.4860366 -0.26541176 0.25792304
000060 51 99 fa 3e bd ee 9d 3e 72 0b aa 3c 61 ea 7c be
       0.48945096 0.30846205 0.02075741 -0.24698783
000070 9e 0e aa be f4 5f c3 bd a5 16 db be f5 79 53 be
       -0.33214277 -0.09539786 -0.42790714 -0.20651992
000080 09 5f 13 bf 55 ae 9c 3d a9 b8 ee be dd 34 bd 3e
       -0.5756689 0.07650439 -0.4662526 0.36954394
000090 a2 9c ca 3e fb 05 8b 3e f3 6c d1 be 8b ef ab be
       0.39572626 0.27153 -0.40903434 -0.33581194
0000a0 5b b4 71 be 8b e9 7a be 82 94 96 be 18 2b bc 3e
       -0.23603956 -0.24503152 -0.29410177 0.36751628
0000b0 26 22 14 3f b9 40 a9 be 08 f6 94 be 4d dd b9 3e
       0.57864606 -0.33057192 -0.29093957 0.36301652
0000c0 cc e2 1c be 1d 69 83 3e e9 c4 53 be 28 d3 c3 3d
       -0.15320891 0.25666133 -0.20680584 0.09561759
0000d0 c4 5b a7 3e fb 3b f9 bd 9e 05 1f bf e4 8f a7 be
       0.326872 -0.121696435 -0.62117946 -0.32726967
0000e0 19 5f d2 3d 2c 1a db be 3e 0c 04 3b 7d 5a c3 3e
       0.10272045 -0.42793405 0.0020148898 0.38154975
0000f0 06 ac c5 3e d4 ac bc be c8 91 1b 3f 12 ac ba 3e
       0.38607806 -0.36850607 0.6076932 0.36459404
000100 01 bd 94 3e 3e b6 b4 be 61 83 99 3e 3c 6f a2 3e
       0.2905045 -0.3529529 0.29983047 0.3172549
000110 e7 0e 75 be 96 a5 de 3e 18 9b aa 3e f7 17 9f be
       -0.23931466 0.43485707 0.33321452 -0.3107297
000120 46 ac c5 3e ef eb 82 3e cc b0 82 3e 38 d8 f8 3e
       0.38607997 0.25570628 0.2552551 0.48602462
000130 df d5 d1 3e 5a 33 ba 3c 05 27 26 3f f0 2f 87 be
       0.40983483 0.022729564 0.6490329 -0.2640376
000140 3c 20 82 be e0 46 b6 3e 5f d7 9f 3e d3 5b c0 3e
       -0.25415218 0.35600948 0.31219003 0.37570056
000150 f6 71 e6 3e eb 62 0c bf 0c bd 07 3f fc 32 90 3c
       0.4500882 -0.54838437 0.5302284 0.017602436
000160 a1 7d a2 3e c1 8d a9 be 37 de 8c be f1 ab a9 3e
       0.31736472 -0.33115962 -0.27513286 0.33138993
000170 15 8e 99 be a7 9f 93 3e 16 11 0f bf e2 c5 54 3e
       -0.29991212 0.28832743 -0.55885446 0.20778611
000180 94 76 93 be 25 58 81 3e dc 08 5c 3e 1c 45 86 3e
       -0.28801405 0.2526256 0.21487755 0.262246
000190 39 9d 2f bf 45 8a 26 be fd eb a6 be 0e f7 25 bf
       -0.6859928 -0.16263683 -0.3260192 -0.648301
0001a0 13 9d 18 3f 0f 03 ed be c7 38 06 3f 5b c4 ad 3e
       0.59614676 -0.46291396 0.52430385 0.3393887
0001b0 68 9e 16 bf f6 88 b9 be aa 04 c4 be 14 d5 af be
       -0.5883546 -0.36237305 -0.38284808 -0.34342253
0001c0 ba 86 a4 3e 01 59 bf be c4 7d ba 3e 90 6d 68 be
       0.32134038 -0.37372592 0.36424077 -0.22698045
0001d0 43 ce 04 3f eb 86 96 be 9c 36 b9 3d d9 43 83 bd
       0.5187723 -0.2939981 0.09043619 -0.06409425
0001e0 a1 9d b5 be d8 42 d7 be a2 65 2c 3d 2f 61 54 be
       -0.35471824 -0.42043185 0.042089112 -0.20740198
0001f0 6d 4f ad 3e 46 af ef 3c 87 eb a4 be 94 ea f6 3e
       0.3384966 0.029258382 -0.32210943 0.48225844
000200 db 0c 32 3f 89 f3 c0 3e 1f 59 1c 3f 3e 0f 09 3f
       0.69550866 0.37685803 0.6107349 0.5353888
000210 16 46 b5 3e 62 3d 8f 3e f2 79 bd 3e cb 20 ef bd
       0.35405034 0.2797652 0.370071 -0.11676177
000220 3c dd 5a bb 5b 45 cc 3e 78 ca d0 be d6 ef b8 3e
       -0.0033396026 0.39896664 -0.4077947 0.3612048
000230 7a c7 9b be c1 4d c4 3e e5 39 88 be 7b ef c8 bd
       -0.30425626 0.38340572 -0.2660667 -0.09811302
000240 9d bf 3e be a0 f7 87 be 2a c3 f4 be 9e c6 11 3f
       -0.18627782 -0.2655611 -0.47805148 0.5694369
000250 60 9a 18 3f 3d ea 74 be
       0.5961056 -0.2391748

model.4.weight f4 [1, 150]
000000 b8 e0 5c 40 4c 5f 6c 40 11 ab e5 bf f2 a1 6f c0
       3.4512157 3.6933165 -1.794283 -3.7442594
000010 06 57 26 40 f7 c4 c3 3f 6f 94 55 40 c1 91 9d 40
       2.5990615 1.5294484 3.3371847 4.924042
000020 6a 86 fc bf 48 80 39 bf 96 ad 21 40 dd b3 25 40
       -1.972852 -0.72461367 2.5262198 2.589103
000030 d8 00 d9 bf 84 a8 df bf b1 eb 9c 3f 02 1c 3f 3f
       -1.6953382 -1.7473302 1.2259427 0.7465211
000040 ba 94 01 40 f4 37 80 c0 ca 76 1f 40 3d 1b 24 40
       2.0247025 -4.00683 2.4916253 2.5641625
000050 50 74 c9 3f fe 37 a0 c0 21 59 33 40 e4 8b 0b c0
       1.5738621 -5.006835 2.802315 -2.1804132
000060 9a 6a c8 bf cc bc 05 c0 32 05 21 40 96 30 c5 c0
       -1.5657532 -2.0896482 2.515942 -6.162181
000070 53 6c bf 3f a0 f7 12 c0 95 d8 ca 3f 83 01 29 40
       1.4954933 -2.2963638 1.5847346 2.6407173
000080 26 5e 39 3f cc 75 5f c0 6e 7f d6 3f e9 c2 0a c0
       0.72409284 -3.4915648 1.6757638 -2.1681464
000090 e5 41 ef bf ac 8d be bf 5e 05 1a 40 bd 22 d6 3f
       -1.8691984 -1.4886985 2.4065776 1.6729351
0000a0 dd 96 19 40 e6 bd e2 3f 42 02 2b 40 64 90 e6 c0
       2.399833 1.7714202 2.6720128 -7.205126
0000b0 e1 c9 d1 bf fb 3f 34 40 cd 8d 01 40 3f ee 0a c0
       -1.6389734 2.816405 2.0242798 -2.1707914
0000c0 a0 45 63 40 42 3f 13 c0 d8 9b 2a 40 47 cd 1e c0
       3.5511246 -2.300736 2.665762 -2.4812791
0000d0 7a a4 05 c0 8a e7 36 40 cc 6f 43 3f 02 69 9c c0
       -2.0881639 2.857882 0.76342463 -4.8878183
0000e0 74 9e 59 c0 f2 93 00 40 b2 1e 43 c0 90 21 fe bf
       -3.4002962 2.0090299 -3.0487485 -1.9853992
0000f0 37 db 49 c0 6c ed 1f 40 ac b7 48 bf ee 34 16 c0
       -3.1540048 2.498866 -0.7840526 -2.3469806
000100 94 eb 48 c0 d5 04 c0 3f 13 35 c3 40 f9 58 e1 bf
       -3.1393785 1.5001475 6.100229 -1.7605277
000110 b6 d4 39 40 1c 8a a2 c0 7b a3 e7 bf 42 03 1f 40
       2.9036078 -5.079359 -1.8096765 2.4845738
000120 91 fa 4d c0 47 b0 c4 bf d2 d0 dd bf b4 d6 fd bf
       -3.2184184 -1.5366296 -1.7329352 -1.9831147
000130 f4 71 28 c0 99 52 4a c0 29 37 b2 bf fc c4 eb 3f
       -2.6319551 -3.1612914 -1.3923084 1.841949
000140 ee e4 b1 3f 38 00 9f 40 2f ba 14 c0 cf 65 0b c0
       1.3897989 4.9687767 -2.3238637 -2.178089
000150 45 d0 06 c0 d2 7e 3c 3f 7f 95 cf bf 33 86 3f c0
       -2.1064618 0.7363101 -1.6217498 -2.9925659
000160 7c b2 3f c0 e8 e1 0c 40 74 81 e3 c0 dc 17 1c c0
       -2.9952688 2.2012882 -7.1095524 -2.4389563
000170 d4 e6 0e 40 3e 15 fb bf b0 3e d4 3f ba 87 23 c0
       2.2328386 -1.9615858 1.6581631 -2.555159
000180 f2 bd f6 3f 41 64 b8 bf 7c 12 81 c0 b2 87 23 c0
       1.9276717 -1.4405595 -4.0335064 -2.5551572
000190 30 7a c0 3f 27 6e 21 40 57 b7 50 40 3f 65 cf 3f
       1.5037289 2.5223482 3.2611902 1.6202773
0001a0 4b 68 cd bf d8 a0 be 3f e0 d0 3d bf cb 24 fd bf
       -1.6047453 1.4892836 -0.7414684 -1.9776853
0001b0 e8 2d 42 3f ff 9f d7 3f 79 bb cd 3f 51 93 f8 3f
       0.758513 1.6845702 1.6072837 1.9419957
0001c0 66 e3 03 c0 17 bf d0 3f fe 03 db 40 93 b9 07 40
       -2.0607543 1.6308316 6.8442373 2.1207016
0001d0 38 84 38 bf 34 58 11 40 84 2c ad 40 f2 0b 42 40
       -0.7207675 2.2710085 5.411684 3.031979
0001e0 68 ce 4c 40 a4 5f e9 3f 2d 9e 32 c0 e0 ad 48 40
       3.200098 1.8232312 -2.7909043 3.1356125
0001f0 25 05 db c0 e5 84 94 40 b1 db d8 3f 1e 2f 24 c0
       -6.844378 4.6412225 1.6942044 -2.5653758
000200 73 f5 ac bf c4 4e c8 bf 25 9c fb bf 47 d8 dc bf
       -1.3512405 -1.5649037 -1.9657027 -1.7253503
000210 81 a2 f3 bf 46 0f a1 40 28 c8 15 c0 f8 a0 41 40
       -1.9033967 5.0331144 -2.3403416 3.0254498
000220 50 42 6b c0 11 53 9a 40 41 5d 0d 40 c5 6e a8 40
       -3.6759224 4.82264 2.2088168 5.2635217
000230 2c 23 c9 3f ac 9b 0f c0 e1 b3 af 3f 20 14 34 c0
       1.5713859 -2.2438765 1.372677 -2.8137283
000240 5a 76 75 40 29 8f eb 3f ae 99 c0 3f f1 f1 bf bf
       3.8353486 1.8403064 1.5046899 -1.499571
000250 7a fb 4c bf 87 d5 a8 3f
       -0.8007122 1.3190163
