src/RNA/rna_flag_model (2).pth (torch, 52244 bytes, 7 tensors)

model.0.weight f4 [75, 10]
-0.051342655 0.8220456 1.0067362 0.97957176 -1.6446279 0.15075682 -0.022739429 0.011438322
-0.4432484 0.5061869 0.07777705 -0.27922556 0.29006344 0.2979753 -0.06265464 -0.3631839
0.9171984 -0.1996503 1.2246319 -0.16463873 -0.006932774 0.741329 0.6064338 0.6656558
0.88476235 0.7526041 0.3536021 0.3410832 0.49554485 -3.4037278 0.37558416 0.27606463
0.4551694 -0.69152814 -1.7090704 -0.44557098 -0.2995472 0.27902988 -0.6587855 1.3912612
-0.014630702 -1.8540698 0.42217132 -1.7478902 0.93420637 -0.4390471 -0.35005346 -0.8790306
-1.0039295 1.1133248 -0.13291922 -0.7699705 1.2842989 1.0915123 -0.8669551 0.29390907
0.595953 0.32216746 -0.025879873 -0.7655192 -0.09791536 0.54829985 0.018047862 -0.7849892
-0.06432408 0.10323854 -1.3881812 -0.9323137 -0.26216522 -0.59133726 0.534911 -1.8683263
0.48443654 0.1319614 0.65032035 0.3857673 -0.105518736 0.5423887 -1.1406659 -0.4985901
-0.3947788 -1.4434992 -0.8826195 0.23679298 -0.9122841 0.32045883 0.0865713 0.4816549
1.0088052 0.75461966 0.07081489 -0.13302633 -0.574841 -2.049341 0.043985985 -0.1664068
-0.38984656 0.50203323 -0.19057567 0.8708927 -0.45910904 0.1613924 0.08931486 0.42036313
0.7754867 -0.93589014 0.65202916 -0.3135211 -0.6837184 -0.09147139 0.45890138 0.243147
-1.7426487 0.56927776 -0.047361523 -0.27816513 -0.9966519 -0.8288881 -0.5018417 2.4762084
-0.24250382 0.17929602 -0.52682227 0.49213302 -0.45035675 -0.93538105 0.8927332 0.75673854
-0.43593857 -0.2109601 -0.13122833 1.3242604 -2.752204 -0.8602118 0.9942542 0.7988231
-0.31264523 -1.0009879 0.74163145 -0.11628419 0.034138303 -0.01578094 -0.035432804 0.017627155
0.009334759 0.0041429964 -0.013851092 0.01644973 0.017114501 -0.0009059177 0.25580004 0.38287133
-1.5704232 -0.0571982 -2.4572105 -0.1196355 -0.28704396 -0.2748043 -0.10968573 0.201283
0.08791874 -0.01778051 0.04208765 0.0038303023 -0.0019364685 -0.054083027 -0.0031173113 0.056864798
0.011280825 0.0070214276 -0.07724201 -0.22609054 -0.45861477 2.6986737 -0.5226409 0.20386979
-0.014570887 1.1425643 0.34296077 -1.7723371 0.08989301 -0.009521356 -0.014806793 -0.011757447
-0.020190323 0.006830321 -0.043528263 0.03274435 0.012066731 0.005650415 -0.98180926 0.85477287
-0.08897099 -1.338345 -1.0879307 0.59374845 0.78068286 -0.7174001 -0.1668523 0.21288235
0.056357987 -0.020386599 -0.0039944584 -0.048325107 -0.013110178 -0.02322198 0.019354336 0.047424715
0.02846805 0.0082538 0.010834238 -0.032920636 -0.050013687 0.03539542 -0.010510133 0.044856846
-0.001005519 0.030555576 0.008149814 0.07390319 -0.004227948 -0.04731735 0.0044287844 0.015119537
1.2806879e-05 0.00887813 -0.04127137 0.029660156 -0.06479818 0.03964068 -0.012433879 -0.00018101861
-0.02483095 -0.0010487607 -0.0075525795 0.06166497 -0.049279086 0.033595398 -0.011661547 0.02202681
-0.009814618 0.016005421 -0.6301395 3.2358544 0.38603044 -0.11382638 -0.34445867 -0.27794614
1.0176828 -0.5229735 -0.10356753 -0.16627343 1.0662066 0.38603404 0.19227692 -0.81290245
00000000: ad4c 52bd 9571 523f bbdc 803f 37c5 7a3f
00000010: 2b83 d2bf ff5f 1a3e 0a48 babc cd67 3b3c
00000020: 74f1 e2be 7795 013f 9349 9f3d a7f6 8ebe
00000030: 3283 943e 3890 983e 1351 80bd 3df3 b9be
00000040: 84cd 6a3f 2171 4cbe bdc0 9c3f 0e97 28be
00000050: 532c e3bb bdc7 3d3f 3f3f 1b3f 6b68 2a3f
00000060: c97f 623f aaaa 403f 560b b53e 75a2 ae3e
00000070: 0eb8 fd3e add6 59c0 914c c03e 5858 8d3e
00000080: f70b e93e fd07 31bf d2c2 dabf e121 e4be
00000090: 405e 99be 01dd 8e3e 2ba6 28bf d914 b23f
000000a0: 9db5 6fbc 2952 edbf d726 d83e deba dfbf
000000b0: 2628 6f3f c8ca e0be 353a b3be 2608 61bf
000000c0: c380 80bf 6d81 8e3f fa1b 08be c91c 45bf
000000d0: e863 a43f adb6 8b3f c5f0 5dbf 407b 963e
000000e0: 6090 183f 22f3 a43e 0702 d4bc 11f9 43bf
000000f0: d987 c8bd 615d 0c3f 1cd9 933c 0df5 48bf
00000100: 58bc 83bd ba6e d33d ecaf b1bf 1cac 6ebf
00000110: 853a 86be e161 17bf edef 083f 5125 efbf
00000120: 1108 f83e e420 073e 657b 263f 4b83 c53e
00000130: 351a d8bd fcd9 0a3f 5701 92bf 3447 ffbe
00000140: 7220 cabe 95c4 b8bf 5af3 61bf dc79 723e
00000150: 738b 69bf 2e13 a43e 4b4c b13d 799b f63e
00000160: 8720 813f c12e 413f 6607 913d 0e38 08be
00000170: c828 13bf 6728 03c0 a62a 343d 8b66 2abe
00000180: f899 c7be 4085 003f 4526 43be d3f2 5e3f
00000190: 5710 ebbe 0d44 253e b6ea b63d d639 d73e
000001a0: 4c86 463f 7f96 6fbf 62eb 263f d685 a0be
000001b0: 2b08 2fbf 5a55 bbbd 1ff5 ea3e 87fb 783e
000001c0: 1d0f dfbf 30bc 113f 28fe 41bd a96b 8ebe
000001d0: 9424 7fbf 0332 54bf b378 00bf 337a 1e40
000001e0: ec52 78be 6099 373e d3dd 06bf dcf8 fb3e
000001f0: 2995 e6be 2275 6fbf 2a8a 643f 9eb9 413f
00000200: 5733 dfbe ed05 58be b860 06be 5d81 a93f
00000210: 1c24 30c0 d736 5cbf 7187 7e3f ac7f 4c3f
00000220: 0913 a0be 5f20 80bf 8fdb 3d3f 6826 eebd
00000230: 9bd4 0b3d 0847 81bc fd21 11bd d366 903c
00000240: d1f0 183c f9c1 873b b1ef 62bc 96c1 863c
00000250: b633 8c3c 1c7b 6dba 39f8 823e b607 c43e
00000260: a103 c9bf a948 6abd f042 1dc0 7503 f5bd
00000270: 6df7 92be 26b3 8cbe e9a2 e0bd 211d 4e3e
00000280: be0e b43d 6fa8 91bc 1a64 2c3d cf05 7b3b
00000290: 1ad1 fdba 2a86 5dbd ce4b 4cbb 10eb 683d
000002a0: 36d3 383c 0114 e63b 0f31 9ebd 4784 67be
000002b0: 8ecf eabe 12b7 2c40 cbcb 05bf 3ec3 503e
000002c0: bbba 6ebc 8c3f 923f 8e98 af3e f1db e2bf
000002d0: d419 b83d 76ff 1bbc 3198 72bc 4fa2 40bc
000002e0: 2d66 a5bc e3d0 df3b b14a 32bd f11e 063d
000002f0: 8ab3 453c 1e27 b93b da57 7bbf 65d2 5a3f
00000300: 6c36 b6bd e44e abbf 5041 8bbf e6ff 173f
00000310: d5da 473f 88a7 37bf 54db 2abe d5fd 593e
00000320: a2d7 663d cc01 a7bc f2e3 82bb 8cf0 45bd
00000330: 12cc 56bc 063c bebc fc8c 9e3c 6b40 423d
00000340: d435 e93c f23a 073c 1682 313c cad7 06bd
00000350: 27db 4cbd cafa 103d b132 2cbc d0bb 373d
00000360: 9ecb 83ba b04f fa3c cc86 053c 8e5a 973d
00000370: 998a 8abb d6cf 41bd 561f 913b efb7 773c
00000380: 20dd 5637 9375 113c 2b0c 29bd dbf9 f23c
00000390: e8b4 84bd 445e 223d 78b7 4bbc d0cf 3db9
000003a0: 476a cbbc 9276 89ba a17b f7bb 6894 7c3d
000003b0: ded8 49bd 549b 093d 1310 3fbc 9271 b43c
000003c0: 7ecd 20bc cd1d 833c d350 21bf 3d18 4f40
000003d0: c8a5 c53e ce1d e9bd e35c b0be f54e 8ebe
000003e0: 6e43 823f 97e1 05bf 371b d4bd 9543 2abe
000003f0: 7579 883f 41a6 c53e 3ee4 443e 601a 50bf

model.0.bias f4 [75]
-1.0847915 0.11123038 1.0842183 0.75881803 -0.7437872 -0.9075792 7.17862e-06 -1.3549204
0.69061166 -0.5897064 -0.22822824 -0.5655048 -0.3198759 -1.382754 0.02813947 -0.36164644
0.035758987 0.39871377 0.039559934 0.8743908 0.039866403 0.021663977 0.0076140235 0.008101639
1.5319092 -0.08167616 0.0056518973 0.1824108 0.0007502384 -0.9429485 2.4823914 -0.0757863
0.14781809 1.0646567 1.0058678 -0.22370857 0.18502286 -0.56976646 0.007919233 -0.9466054
-0.23531778 1.2049645 -0.60905325 -0.8103297 -0.01483758 0.006076587 0.020404534 -0.37311274
1.1883881 -0.0097950455 -0.9577592 -0.6630298 1.002214 -0.037217595 0.8673816 -0.21582353
0.41785997 -0.12726292 1.0054364 0.023515496 -0.012933558 -1.1493528 0.8972335 -0.67127836
-0.45653462 0.41675094 0.55734897 0.021272311 0.0054768985 -0.47508445 -0.86167884 -1.0321922
-1.331126 0.8870925 0.008926572
00000000: 73da 8abf c1cc e33d aac7 8a3f e641 423f
00000010: d768 3ebf 1c57 68bf e0df f036 086e adbf
00000020: edcb 303f 00f7 16bf aab4 69be ecc4 10bf
00000030: c6c6 a3be 15fe b0bf bf84 e63c b929 b9be
00000040: 0478 123d 3624 cc3e 9909 223d 13d8 5f3f
00000050: f44a 233d a778 b13c 0f7f f93b bdbc 043c
00000060: 9a15 c43f d545 a7bd 8d33 b93b e6c9 3a3e
00000070: a6ab 443a 1365 71bf 80df 1e40 d935 9bbd
00000080: a05d 173e ac46 883f 47c0 803f dc13 65be
00000090: a276 3d3e 37dc 11bf acbf 013c bb54 72bf
000000a0: 25f7 70be 473c 9a3f eaea 1bbf c471 4fbf
000000b0: 5219 73bc 1b1e c73b 6927 a73c a208 bfbe
000000c0: 1a1d 983f 667b 20bc b52f 75bf 52bc 29bf
000000d0: 8c48 803f 7a71 18bd b80c 5e3f d800 5dbe
000000e0: bef1 d53e 3651 02be 24b2 803f 92a3 c03c
000000f0: 46e7 53bc fe1d 93bf 18b1 653f e6d8 2bbf
00000100: e8be e9be 6160 d53e 6cae 0e3f 4543 ae3c
00000110: 8e77 b33b 453e f3be fc96 5cbf e01e 84bf
00000120: 5662 aabf 7e18 633f c240 123c

model.2.weight f4 [75, 75]
0.33602476 0.41890472 -0.6927532 0.24304068 0.478575 -0.15119089 -0.7885514 -0.25920874
2.2037427 0.9089974 -1.9651136 1.099841 -0.83634955 -0.74970156 0.03476243 -0.5645023
-0.045463596 0.0013890446 0.09129428 -0.07103566 0.029865457 0.14432797 0.030735921 0.04230154
1.1491901 0.24641374 -0.07309267 -0.81951046 -0.030223398 -2.748763 0.38453424 -1.5175787
-0.43794417 -0.6496191 -0.28127104 -0.84074134 0.33005086 -1.5058432 0.02837295 -0.65362155
-1.0068731 0.7303145 0.7495636 1.3021277 0.110976174 -0.1456664 -0.08932908 0.35386467
-0.78958833 -0.11809918 -0.88963515 -1.525391 -0.25058877 0.0061189844 0.12012919 -0.07413848
0.2934464 -1.410006 -0.07704437 -0.012558432 0.1753794 -0.48351026 1.5342928 -0.66104233
-1.4907838 -0.32567206 0.38564822 0.019762136 -0.1145849 0.21204199 0.2321786 0.38670033
-0.3671019 1.1778264 -0.089095145 -0.3512027 -0.6361628 0.07863135 0.7373389 -1.8103212
-0.7641317 1.2948298 -1.1092603 -1.5327181 -0.08250538 0.47654775 -0.6187054 -0.6786411
-1.4494337 0.013631509 0.17896484 -0.15531829 -0.12973225 -0.08043893 -1.7122214 -0.0949552
-0.110554084 -0.08515786 -0.031845327 -0.5682362 0.98971194 -0.01229148 -1.2563136 -0.01911267
0.3170951 1.6837857 0.34403837 -0.96021205 0.64808077 -0.2570855 -0.34158325 -0.1518848
-1.7310499 -0.023165185 0.005439927 0.84084684 0.2828174 0.08470203 -0.22366552 0.03954628
0.024299484 -0.016357796 1.490638 1.3121539 -0.11496185 0.24387573 0.99245536 1.0466056
0.07483777 -0.893499 -0.6712427 0.026415896 0.11262974 -0.32663822 -0.10675141 0.10272816
0.06272721 -0.72937 0.84507686 -0.4626124 -1.5283211 0.059714355 -0.014666542 0.07603773
0.5580347 -1.3211323 -0.31571472 -0.073557645 0.23612876 -0.094106555 -0.25741178 0.5302888
-1.0233824 -0.4696577 -0.6900175 0.884871 -0.4271573 0.19274269 0.7490931 -0.44870037
0.076972015 -0.6901567 -0.45623347 1.1915835 0.0019337055 0.40052313 -0.034727693 -1.3540488
0.06618578 -0.5152344 0.14550227 -0.058385227 0.021505129 0.096039176 -0.81332636 -0.08669424
0.22317742 0.28216907 -0.06302986 1.4267156 -1.3191075 0.079664074 -0.1665172 -0.09875505
0.22527713 -1.6213621 0.044036392 -2.0130558 0.23780115 -0.291395 -0.49393395 0.6697245
0.5556362 -1.1214724 0.06825044 -0.011411825 -0.112390324 0.16312926 -1.3435682 -0.0447107
-0.11519614 0.09863515 0.63917404 -0.095031165 0.27344248 -0.09230993 1.1473461 0.663536
0.8565041 0.059816714 0.14240812 -0.6874393 -0.07652391 -0.00068918295 -3.3453872 -0.83244216
0.25926688 4.503119e-05 -0.09566581 -0.055517334 -1.3209633 -1.5278116 -1.3218142 -0.25693026
-0.18210946 -0.6859429 0.18621123 -0.48416805 -0.9186243 0.046649072 0.04139262 -0.1350626
0.90233344 0.036199536 0.7125224 0.43676797 0.017330898 0.010470429 0.4099829 0.03365966
-0.87043273 -0.021405708 -0.80425775 -0.0037126022 -0.110698745 -0.026578449 0.043512903 0.05576728
0.02033752 -1.116482 0.15953793 0.024542455 0.094912715 0.03681845 0.9435342 0.7444432
00000000: 700b ac3e ae7a d63e 4658 31bf a8df 783e
00000010: c807 f53e c9d1 1abe 81de 49bf 02b7 84be
00000020: 1f0a 0d40 0eb4 683f d888 fbbf 97c7 8c3f
00000030: 011b 56bf 71ec 3fbf 0d63 0e3d 3983 10bf
00000040: 0938 3abd 9a10 b63a 7ff8 ba3d 257b 91bd
00000050: 67a8 f43c b6ca 133e e6c9 fb3c 6144 2d3d
00000060: a918 933f e253 7c3e 9cb1 95bd 70cb 51bf
00000070: 0f97 f7bc bceb 2fc0 ace1 c43e 0540 c2bf
00000080: 383a e0be 704d 26bf c202 90be d33a 57bf
00000090: 6dfc a83e 78bf c0bf 646e e83c be53 27bf
000000a0: 38e1 80bf e4f5 3a3f 66e3 3f3f 1fac a63f
000000b0: 7a47 e33d 9329 15be 2af2 b6bd c02d b53e
000000c0: 7622 4abf fcdd f1bd 21bf 63bf 0340 c3bf
000000d0: 2c4d 80be c381 c83b 4b06 f63d ead5 97bd
000000e0: 9b3e 963e 147b b4bf 70c9 9dbd e2c1 4dbc
000000f0: a896 333e a88e f7be b563 c43f 123a 29bf
00000100: 01d2 bebf 7dbe a6be af73 c53e 34e4 a13c
00000110: 7dab eabd 8921 593e 3ac0 6d3e 96fd c53e
00000120: c8f4 bbbe 04c3 963f 8477 b6bd d7d0 b3be
00000130: 91db 22bf 7909 a13d 3ec2 3c3f 9bb8 e7bf
00000140: 239e 43bf fcbc a53f 3efc 8dbf 1b30 c4bf
00000150: 95f8 a8bd 11fe f33e 7a63 1ebf 6cbb 2dbf
00000160: 0b87 b9bf b156 5f3c 8f42 373e c20b 1fbe
00000170: 88d8 04be 2abd a4bd 122a dbbf df77 c2bd
00000180: 2e6a e2bd 3e67 aebd 3f70 02bd ed77 11bf
00000190: c35d 7d3f 3462 49bc e2ce a0bf 2d92 9cbc
000001a0: 4a5a a23e 4a86 d73f cc25 b03e 75d0 75bf
000001b0: 9fe8 253f b6a0 83be 00e4 aebe b087 1bbe
000001c0: 0b93 ddbf eac4 bdbc 6a41 b23b bd41 573f
000001d0: 71cd 903e 4278 ad3d 9308 65be 48fb 213d
000001e0: b60f c73c c900 86bc 3acd be3f a9f4 a73f
000001f0: 1e71 ebbd 8fba 793e 8e11 7e3f 2cf7 853f
00000200: 8b44 993d 5abc 64bf 90d6 2bbf 2666 d83c
00000210: 6caa e63d 203d a7be 7ca0 dabd 2463 d23d
00000220: 2077 803d feb7 3abf f556 583f 88db ecbe
00000230: 07a0 c3bf 0a97 743d f04b 70bc abb9 9b3d
00000240: 5ddb 0e3f dd1a a9bf 5ca5 a1be 64a5 96bd
00000250: bdcb 713e f0ba c0bd 7acb 83be 02c1 073f
00000260: 32fe 82bf f976 f0be fda4 30bf e886 623f
00000270: 5db4 dabe 575e 453e 91c4 3f3f 0ebc e5be
00000280: 81a3 9d3d 1cae 30bf 6f97 e9be cf85 983f
00000290: 6474 fd3a 5e11 cd3e a03e 0ebd 7951 adbf
000002a0: 698c 873d 67e6 03bf 8cfe 143e 5925 6fbd
000002b0: 862b b03c 30b0 c43d 2836 50bf c08c b1bd
000002c0: 9f88 643e 7778 903e cd15 81bd 9e9e b63f
000002d0: 84d8 a8bf eb26 a33d 7c83 2abe 1640 cabd
000002e0: 0caf 663e cb88 cfbf 815f 343d e8d5 00c0
000002f0: 2582 733e ba31 95be e9e4 fcbe 1173 2b3f
00000300: 2d3e 0e3f 688c 8fbf e3c6 8b3d aaf8 3abc
00000310: e62c e6bd 5b0b 273e 0bfa abbf 9122 37bd
00000320: f4eb ebbd 3a01 ca3d e9a0 233f b39f c2bd
00000330: a700 8c3e fd0c bdbd 3ddc 923f 7fdd 293f
00000340: da43 5b3f 5f02 753d 6fd3 113e 06fc 2fbf
00000350: 91b8 9cbd 49aa 34ba d31a 56c0 ee1a 55bf
00000360: a1be 843e dfdf 3c38 70ec c3bd 2566 63bd
00000370: 5315 a9bf 558f c3bf 3531 a9bf 5d8c 83be
00000380: e77a 3abe f499 2fbf 28ae 3e3e e0e4 f7be
00000390: f62a 6bbf 1913 3f3d 4f8b 293d da4d 0abe
000003a0: 53ff 663f f745 143d de67 363f 0da0 df3e
000003b0: 87f9 8d3c 2a8c 2b3c 47e9 d13e b6de 093d
000003c0: aed4 5ebf 065b afbc d6e3 4dbf 214f 73bb
000003d0: 06b6 e2bd 0cbb d9bc 963a 323d 3b6c 643d
000003e0: df9a a63c e2e8 8ebf e95d 233e 420d c93c
000003f0: 9961 c23d f1ce 163d 758b 713f d493 3e3f

model.2.bias f4 [75]
-1.3661237 -1.7530681 -1.2144336 1.6023036 -1.7285755 -0.88608843 1.5906982 -2.5268984
1.1227765 -1.6724982 0.3682429 1.1613264 0.73520076 -0.90325165 2.5155127 1.0508057
-1.38013 1.6156181 -0.6957833 -0.19866297 0.22917557 0.3854256 1.8149794 0.16919482
1.147381 -0.90861154 1.3815084 -0.35383648 0.15358533 -2.386726 -0.9468209 0.2364471
1.5814018 1.3267918 1.043565 -1.2617364 -1.6903142 2.247101 -0.56262225 2.02254
-0.00898168 -0.7363116 1.4822836 -2.7229056 1.044574 0.68740267 -1.728864 2.562886
2.5358365 1.2497321 2.1381686 -1.1696316 1.1930609 -1.8471944 0.22607018 -1.0263526
1.9614053 0.43007067 0.56691223 -1.9044029 0.96383977 -1.2058159 1.9732165 -2.4361198
0.0076081767 2.1766603 0.725209 -1.3214922 -0.4556592 -0.95847625 -0.4163765 0.06857943
1.0841472 0.7387365 -1.9849017
00000000: 24dd aebf 8964 e0bf 8f72 9bbf 4918 cd3f
00000010: f641 ddbf b1d6 62bf 009c cb3f b4b8 21c0
00000020: 24b7 8f3f 6c14 d6bf 558a bc3e 58a6 943f
00000030: 1e36 3c3f 803b 67bf 29fe 2040 cd80 863f
00000040: 1aa8 b0bf 93cc ce3f db1e 32bf 4e6e 4bbe
00000050: 00ad 6a3e 8156 c53e 3f51 e83f 6841 2d3e
00000060: 61dd 923f c49a 68bf 44d5 b03f 0e2a b5be
00000070: 7945 1d3e 1ec0 18c0 db62 72bf 301f 723e
00000080: 606b ca3f 50d4 a93f 8a93 853f 9480 a1bf
00000090: 375c d8bf 81d0 0f40 0308 10bf 4c71 0140
000000a0: e527 13bc eb7e 3cbf 78bb bd3f 1644 2ec0
000000b0: 9ab4 853f 9ff9 2f3f 6a4b ddbf 5306 2440
000000c0: 254b 2240 39f7 9f3f c1d7 0840 7db6 95bf
000000d0: 38b6 983f de70 ecbf f17e 673e 865f 83bf
000000e0: 540f fb3f 3932 dc3e 2921 113f 79c3 f3bf
000000f0: 34be 763f 2d58 9abf 5c92 fc3f 63e9 1bc0
00000100: 034e f93b 674e 0b40 4ca7 393f a826 a9bf
00000110: 2a4c e9be b35e 75bf 4d2f d5be 5f73 8c3d
00000120: 56c5 8a3f d61d 3d3f 4211 febf

model.4.weight f4 [75, 75]
0.55951995 -0.6200685 0.13109326 -1.5556464 -0.49106506 0.6685967 0.34751692 1.3017585
-1.6497707 1.1712788 -0.6149748 -0.3766181 -0.0046743364 -1.5631871 -1.3149861 -0.21393603
0.76609945 -0.0031693594 0.7175808 0.42742965 1.0245178 -0.16527042 -0.8630646 -0.8190935
1.0020082 -1.7615645 1.0417191 -0.028125176 0.56397927 0.67871815 0.6938355 -0.16543323
0.6767478 -0.121501245 -1.5203391 -0.4567644 1.737734 -0.25423235 -0.1162042 1.975328
-1.5737262 -0.7423894 0.5459494 1.369423 -0.2983191 0.58660275 1.0573603 -1.6949496
-1.3655102 0.13743556 0.84526235 0.02537837 -1.1082134 0.21942511 -1.8514156 0.34473884
0.19919582 2.4623463 -0.56057495 0.09017563 1.5560281 0.5355845 -0.38437265 1.2643981
-0.2631119 0.4139156 -0.6873199 -0.7148007 0.7621629 0.67648923 -1.2380095 -0.34885553
1.0746906 0.7788086 1.9109436 0.15691982 2.1943913 0.05201987 -1.0456474 -0.59465396
0.29688013 -0.14917429 1.494476 -1.3540846 1.3466079 0.9779401 -0.98126554 -1.7197428
-0.44930804 -0.76140386 0.6551658 0.10513204 -0.029506028 -0.095654175 -0.9707824 -0.06438567
-0.011541996 -0.44669703 1.4451338 -0.26043403 -1.5251539 1.2494643 -0.056300502 -0.09514087
-0.61251277 -1.4477333 1.0097651 -0.14052092 -0.2310632 -0.48728883 -1.6942561 1.1722014
1.2430397 -0.034572292 -1.6753645 0.33240625 0.8125957 0.44209042 1.3812401 0.65010065
0.4454274 -1.710951 0.8409403 -1.4827648 0.5395615 0.5134735 -1.4201701 0.6637249
-0.50736874 -2.4740083 -0.1473261 -0.7575126 -0.45640936 -2.1148338 -1.1637582 -1.1242841
0.8162823 -0.15732576 1.44902 -0.68417084 0.32390782 -1.2635503 0.29188713 -0.76054776
0.51907533 -0.12701406 1.0723857 1.9304539 -1.351214 -0.64492005 0.87587196 0.5485672
-0.4271453 -1.1178417 1.6075898 2.0507748 -1.0366441 0.55824894 -0.7094526 0.53403246
-0.05300727 -1.526704 1.3795286 0.45731136 -0.42004502 0.13809346 0.50093085 0.17429465
-0.42415753 2.1999857 -0.6623652 -1.6761504 1.0251262 -1.1525369 -1.0507196 -1.2687012
-0.6811436 -0.9208326 -1.9366883 1.3991619 -1.0562049 0.22517285 0.013597211 -2.3192194
-0.23363392 0.7274407 -0.0860764 -0.37206432 -0.5578205 -0.95777494 0.7590429 -0.46207586
0.12969021 0.45165592 -0.85720855 -1.9782228 0.9778142 0.38300645 -0.47466853 -0.063278265
1.4759746 0.16936624 -0.18527962 -0.52771837 1.8737682 0.07915377 -0.18576074 -1.2027069
-0.4129623 -0.15589622 0.9472016 -0.7216144 0.64493424 0.33601663 -0.27837327 0.98506033
-0.7884706 0.07120559 -0.6684898 -0.10078526 -0.49659914 -0.4694532 -0.38239366 0.73475534
2.4991198 -0.87522143 0.80328035 0.8140971 0.45016015 0.8552779 -1.4697635 -0.81295365
1.2756065 -0.020480407 0.8954924 0.4871187 -0.29223034 0.43469155 1.0585638 -1.2161542
1.426835 0.5017244 -0.9148125 1.2624404 0.5163563 -0.96358854 0.7080157 -1.0868735
-0.52725446 0.18996152 0.15233731 -2.0674248 0.47330898 0.5702683 0.23302093 1.5103747
00000000: b33c 0f3f cfbc 1ebf 503d 063e 6c1f c7bf
00000010: e16c fbbe 2729 2b3f bded b13e 06a0 a63f
00000020: b02b d3bf 77ec 953f fd6e 1dbf 16d4 c0be
00000030: 2d2b 99bb 8416 c8bf 7751 a8bf 0c12 5bbe
00000040: 181f 443f 07b5 4fbb 60b3 373f 0fd8 da3e
00000050: 6623 833f a63c 29be cdf1 5cbf 1db0 51bf
00000060: ce41 803f f27a e1bf 0d57 853f c566 e6bc
00000070: f260 103f 79c0 2d3f 349f 313f 5467 29be
00000080: 583f 2d3f a5d5 f8bd 799a c2bf 06dd e9be
00000090: 116e de3f be2a 82be 78fc edbd 8cd7 fc3f
000000a0: dc6f c9bf 3b0d 3ebf 57c3 0b3f 4149 af3f
000000b0: 48bd 98be 992b 163f 9557 873f 1cf4 d8bf
000000c0: 0ac9 aebf e8bb 0c3e 1d63 583f 4de6 cf3c
000000d0: f0d9 8dbf fab0 603e 30fb ecbf 9c81 b03e
000000e0: fdf9 4b3e 1597 1d40 d781 0fbf 00ae b83d
000000f0: ee2b c73f 111c 093f 7ecc c4be ccd7 a13f
00000100: 9ab6 86be bfec d33e 32f4 2fbf 2efd 36bf
00000110: 1c1d 433f 662e 2d3f 1877 9ebf 319d b2be
00000120: 768f 893f 0060 473f cd99 f43f 97af 203e
00000130: e870 0c40 ca12 553d c6d7 85bf 3e3b 18bf
00000140: ac00 983e 25c1 18be fd4a bf3f a552 adbf
00000150: a65d ac3f 485a 7a3f 3834 7bbf 8820 dcbf
00000160: b40b e6be 5deb 42bf f2b8 273f 784f d73d
00000170: a0b6 f1bc 56e6 c3bd 3285 78bf a2dc 83bd
00000180: a41a 3dbc 79b5 e4be 25fa b83f 9c57 85be
00000190: 3e38 c3bf 72ee 9f3f 5b9b 66bd 37d9 c2bd
000001a0: a3cd 1cbf 534f b9bf fc3f 813f b7e4 0fbe
000001b0: d59b 6cbe ec7d f9be 62dd d8bf b20a 963f
000001c0: ed1b 9f3f ad9b 0dbd 5872 d6bf 2731 aa3e
000001d0: 4606 503f ad59 e23e 7acc b03f ff6c 263f
000001e0: 0f0f e43e 7100 dbbf dd47 573f 3dcb bdbf
000001f0: b420 0a3f 0073 033f 22c8 b5bf e0e9 293f
00000200: ebe2 01bf 2756 1ec0 a7dc 16be 59ec 41bf
00000210: 7dae e9be 7059 07c0 07f6 94bf 8be8 8fbf
00000220: e0f7 503f 011a 21be 7d79 b93f d225 2fbf
00000230: 3fd7 a53e 04bc a1bf 3b72 953e 42b3 42bf
00000240: 1fe2 043f f90f 02be ef43 893f 1d19 f73f
00000250: 95f4 acbf 7b19 25bf 2539 603f e66e 0c3f
00000260: cab2 dabe 7015 8fbf 81c5 cd3f e53f 0340
00000270: c1b0 84bf 67e9 0e3f b09e 35bf 5ab6 083f
00000280: 271e 59bd 096b c3bf 6594 b03f b724 ea3e
00000290: 2410 d7be 5f68 0d3e 013d 003f 4c7a 323e
000002a0: 2d2b d9be 91cc 0c40 c490 29bf 198c d6bf
000002b0: 5637 833f 5486 93bf fb7d 86bf cd64 a2bf
000002c0: 6d5f 2ebf afbb 6bbf 67e5 f7bf bd17 b33f
000002d0: b931 87bf b693 663e d6c6 5e3c 176e 14c0
000002e0: bb3d 6fbe 8e39 3a3f d348 b0bd 377f bebe
000002f0: 53cd 0ebf bd30 75bf a350 423f 3595 ecbe
00000300: 83cd 043e 723f e73e 0572 5bbf 6836 fdbf
00000310: 0852 7a3f 6c19 c43e c107 f3be 0998 81bd
00000320: bcec bc3f 586e 2d3e f1b9 3dbe 8d18 07bf
00000330: a3d7 ef3f 5f1b a23d 1038 3ebe 4df2 99bf
00000340: cb6f d3be 42a3 1fbe ce7b 723f b9bb 38bf
00000350: 691a 253f 5f0a ac3e f186 8ebe ea2c 7c3f
00000360: 36d9 49bf 3dd4 913d 2622 2bbf 8168 cebd
00000370: 3e42 febe 2b5c f0be 1ac9 c3be ed18 3c3f
00000380: 94f1 1f40 830e 60bf c8a3 4d3f ab68 503f
00000390: 647b e63e 7ef3 5a3f 3621 bcbf bb1d 50bf
000003a0: 1347 a33f 87c6 a7bc fd3e 653f 9f67 f93e
000003b0: 379f 95be e48f de3e 057f 873f f1aa 9bbf
000003c0: 87a2 b63f 0371 003f 2731 6abf a697 a13f
000003d0: ed2f 043f bdad 76bf 8440 353f ac1e 8bbf
000003e0: 26fa 06bf 4685 423e 50fe 1b3e b050 04c0
000003f0: 8e55 f23e 1afd 113f 0a9d 6e3e f553 c13f

model.4.bias f4 [75]
-1.5951605 -1.5970329 -0.61018246 -1.2165554 -1.8036685 -0.6956587 -0.49893278 0.29734534
-0.14556299 -1.9403372 -1.2032367 1.1028144 -0.20870826 0.83878624 -0.38935915 -0.37527213
-1.1125509 -0.7650678 2.1088593 0.18422045 1.0564657 0.1747732 0.8446209 -0.96987134
1.2498584 1.1279848 -2.1314485 1.4954236 -1.4853512 -0.36755577 -0.29870284 -0.14413646
0.5948015 1.0406317 -0.62581563 0.9414343 -1.6401708 -0.44097537 -1.5788474 2.0454793
-0.82140154 -1.8241509 1.6554569 -0.562156 -0.86037683 0.52955455 -0.5510407 0.88996917
-1.8539095 -1.2003465 0.7041883 -0.3356729 2.0203998 1.1544387 -0.45588613 -0.45027697
-1.8538995 0.43068525 0.8695763 0.18499509 -0.42615348 0.5014444 -1.2720965 -1.183616
1.7400589 0.33251798 0.7261179 -0.9646954 1.2848723 -0.9592172 -1.2032018 -1.7418411
-1.9848363 -1.4594451 1.9046407
00000000: 382e ccbf 936b ccbf eb34 1cbf 16b8 9bbf
00000010: 9cde e6bf b016 32bf 1e74 ffbe a63d 983e
00000020: 770e 15be f85c f8bf a903 9abf 0629 8d3f
00000030: 9eb7 55be b2ba 563f 155a c7be ab23 c0be
00000040: 1168 8ebf 7cdb 43bf 8df7 0640 49a4 3c3e
00000050: 453a 873f bff7 323e 1339 583f 7d49 78bf
00000060: 5cfb 9f3f ce61 903f a769 08c0 0a6a bf3f
00000070: fd1f bebf 4530 bcbe 94ef 98be 8298 13be
00000080: e944 183f 6b33 853f 7435 20bf d701 713f
00000090: 1ef1 d1bf 86c7 e1be ac17 cabf 22e9 0240
000000a0: 5f47 52bf c77d e9bf 03e6 d33f 75e9 0fbf
000000b0: a841 5cbf e390 073f 0111 0dbf 05d5 633f
000000c0: e84c edbf f4a4 99bf af45 343f 51dd abbe
000000d0: 3b4e 0140 a6c4 933f e869 e9be b48a e6be
000000e0: 944c edbf c782 dc3e 8d9c 5e3f 5a6f 3d3e
000000f0: ca30 dabe a95e 003f 0fd4 a2bf bb80 97bf
00000100: 40ba de3f cc3f aa3e dde2 393f 47f6 76bf
00000110: b276 a43f 428f 75bf 8402 9abf a6f4 debf
00000120: 1e0f febf 19cf babf 44cb f33f

model.6.weight f4 [1, 75]
1.7823405 1.4064777 1.729258 1.4661295 1.8228426 1.577425 1.9495176 -1.9885781
-1.7450426 1.7000076 1.4214696 -1.441127 1.725653 -1.4267138 2.185571 -1.5085565
1.8866051 1.3701252 -1.3935405 -1.8387271 -2.3433912 1.488931 -1.5957032 1.5721021
-1.7382005 -1.2990735 1.5949303 -1.723977 1.5958277 1.5275816 1.3391656 -1.7377902
-1.5873792 -1.8477215 2.277451 -1.6579815 1.8413367 1.5550305 1.6172456 -0.86952883
1.7492547 1.3089793 -1.4357463 1.199168 1.5820624 -1.6651976 2.0815 -0.79043585
1.8617579 0.96548903 -1.530975 1.8347672 -1.2636433 -1.3365685 2.4211283 1.7319239
1.3150324 -1.7176701 -1.8086336 -1.6233342 1.6945392 -1.3983229 1.82202 1.5045354
-0.9001372 -1.9130393 -1.4038999 1.3274319 -0.99760383 1.3007619 1.9188287 1.5481424
1.3867894 2.123211 -1.2522779
00000000: bc23 e43f 7607 b43f 5358 dd3f 22aa bb3f
00000010: e852 e93f 10e9 c93f cb89 f93f ba89 febf
00000020: 8e5d dfbf d999 d93f b7f2 b53f d976 b8bf
00000030: 33e2 dc3f 8f9e b6bf 65e0 0b40 6118 c1bf
00000040: 477c f13f 4360 af3f 895f b2bf 695b ebbf
00000050: 1ffa 15c0 4a95 be3f 0140 ccbf a43a c93f
00000060: 5b7d debf 0a48 a6bf ad26 cc3f 47ab dcbf
00000070: 1544 cc3f cb87 c33f c769 ab3f e96f debf
00000080: 3e2f cbbf 2382 ecbf c2c1 1140 bd38 d4bf
00000090: ecb0 eb3f 3d0b c73f e701 cf3f 7199 5ebf
000000a0: 94e7 df3f a28c a73f 89c6 b7bf 567e 993f
000000b0: 0581 ca3f 3225 d5bf 4c37 0540 015a 4abf
000000c0: 154e ee3f 4a2a 773f fdf6 c3bf a7d9 ea3f
000000d0: 10bf a1bf ad14 abbf c4f3 1a40 afaf dd3f
000000e0: fb52 a83f 9ddc dbbf 4e81 e7bf 6ac9 cfbf
000000f0: a9e6 d83f 3ffc b2bf f437 e93f 9e94 c03f
00000100: 646f 66bf 79de f4bf feb2 b3bf 4ae9 a93f
00000110: f762 7fbf 5e7f a63f 2e9c f53f 8829 c63f
00000120: 5182 b13f b0e2 0740 a44a a0bf
