src/RNA/rna_global_model_sbai.pth (torch, 204328 bytes, 8 tensors)

model.0.weight f4 [150, 10]
00000000: 3e8e dbb9 f98f 3238 26e4 1aba 2154 043a
00000010: 880f 7d3a bc8b 20ba db4b a6b9 6435 b139
00000020: cd00 8c3a d15c 00ba e152 34bb 9908 8bbe
00000030: 454d afbd 992a c63c df2e 27be f2c2 67bd
00000040: 2590 ecbc f08b 203e 8b9c 073d e004 29be
00000050: ef40 d8bb b4e4 d3be e11e 54be 5d64 843e
00000060: b529 d9bd 610e 093e efb1 393d 6364 5abe
00000070: 6699 2c3d 59bd 69bc 58b2 22bb ee62 5ebe
00000080: e823 7b3e aba9 b63e efc8 a03e caab 2abd
00000090: 5d9d 8dbc d18f 5e3d f2e1 213d da5d 1a3e
000000a0: f6b3 e1bb 8e04 053e ce90 e93c efa9 98be
000000b0: a865 ddbc 86d2 293e bf59 833d 25e6 003e
000000c0: 8d14 ccbc bcb0 29bd b6d7 b33a dc2c cd3d
000000d0: 91d4 02be d35e 293e c0f4 743d 0501 493e
000000e0: 65dc 44be ac35 a03c b257 efbd 6eb1 17bd
000000f0: b87d 26ba ce67 b2bd a57e c63e d1e2 41be
00000100: 602b 92bd a0cc 08be 2a51 273d 319f 44bd
00000110: bfab a13d b293 703e 01d0 aeba d776 e33c
00000120: bbb5 4f3d ebf2 07bf 25dd e13d 8127 2fbc
00000130: 7741 13bd c03d 91be faf8 963d cfd8 20be
00000140: 6ef2 2a3b 1122 5c3e 2e48 24bd 6ad1 90bd
00000150: a55a c9be 3202 d5bd 6ecd 853d b7cf 063e
00000160: 2625 9f3c b8ed 0ebc f977 053a 3ddf bc3e
00000170: 7075 3abd 3ad3 c73c 8bc5 8a3e b762 e4bc
00000180: 9c5e 833c 85b2 fd3c 364e f43d 06f8 19bd
00000190: 7051 a23b 10f7 863d bc70 343e 585f dfbd
000001a0: 1ba7 1b3e 1394 bc3d 2550 b33b b5ed 96bd
000001b0: ab1a ddbd 3e7c e93c 123e d4ba 2feb 36be
000001c0: f208 5e3e f160 30be 1fc4 edbd 6126 be3d
000001d0: 3bcc c63d 90f3 20bd efa6 c63d 48a9 8fbd
000001e0: cfce 833b 918f f1bd 6378 bdbd e7e1 53be
000001f0: dc08 fabc 129f 15be 2373 f3bd ebb5 85be
00000200: da2d 4ebd 3c5d 44be 0b32 c1bb 78e1 403e
00000210: ff47 853a 759e 8dbd 0a2f 9d3e 5971 34bd
00000220: 57a0 3fbd 1097 26bc d013 10be ca2c b9bc
00000230: 7724 83b9 79d7 70be 5e5c 5b3e 2e23 183e
00000240: a56a a3be 49f3 76be c5d3 75bc 7a7d 8fbb
00000250: 79ba d93d 7332 fa3b 3368 883b aaae fcbd
00000260: 4f53 d33e c34e f33d e887 9a3d 86b7 06be
00000270: 7df6 463e 42d3 febc 8f86 03be b03e 45bd
00000280: 018a 65bb 423f b33d 3275 c1be 9f91 143e
00000290: bc89 903e 9ea0 d83d 7282 00be e8eb ec3d
000002a0: a449 693d c5fa 5b3d a072 e439 21b0 043e
000002b0: 1f9c 1e3e 1a2a b13d 5f07 2fbd af45 573d
000002c0: d0be 82bd 56e8 ffbd 56bf a5bd daba 2e3d
000002d0: a6ff 44bb 9a63 6bb9 088b e23a a72a b7b9
000002e0: 4d39 14ba 72c6 c03a 508c cbb8 2697 1bba
000002f0: 30e4 1eba 3b71 39bb 140c 00b9 c6d6 253a
00000300: 9e3b ddba ff89 5dba 2103 9238 0273 3db9
00000310: 3e5e 293a 8c7f 8bb8 0877 a43a b0ae 3e39
00000320: 08ac 1e38 3db3 9cbd dccc 69be e0cd c8bd
00000330: 4b47 25be 5ec8 91bd 05bb 963d d98d cd3a
00000340: 2815 8fbd 4ca3 873e f011 47bb de0a b0bd
00000350: 5705 0fbe b865 353e 2259 023f d2f0 a93d
00000360: 0668 d13d b6a4 38bd 6fe0 04be 994c 4fbe
00000370: ec9e 333b c97d d8be ebda 083e d32b 5a3e
00000380: afe2 ab3d b96a 86bd 072a 983d 5d68 7abd
00000390: 2642 9dbd 483f 5ebe 935e 8eba 2ac6 0739
000003a0: ca4c f03a c4da 9739 aa0e 69ba fab1 a03a
000003b0: ac0d abb8 bf6c c739 9e8a 72ba a230 46b8
000003c0: 94ff 35bb 32e6 0d3e 2e8c dabe 8afc 81bd
000003d0: 4cc3 ab3d 854b d83d c5cc 8cbe d46d 8d3d
000003e0: 54f2 893d f48f dbbd 0174 b33b 617b 0dbe
000003f0: 209e b63e 075e 093e a8d6 45bd 6935 0dbe
-0.00041876914 4.2572592e-05 -0.00059086306 0.00050479366 0.00096534984 -0.00061243377 -0.00031718504 0.0003379985
0.0010681391 -0.0004896643 -0.002751522 -0.27154997 -0.0855966 0.024190234 -0.16326474 -0.0565824
-0.028877327 0.15678382 0.033108275 -0.16505766 -0.0065995376 -0.41385424 -0.20714904 0.2585782
-0.10603658 0.13384391 0.045335706 -0.21327357 0.04213848 -0.014266335 -0.002482554 -0.21717426
0.24525416 0.3567632 0.314033 -0.041667737 -0.01728695 0.054336373 0.03952212 0.15074864
-0.006887908 0.12990019 0.028511431 -0.2981715 -0.027026013 0.16584215 0.06413602 0.12587793
-0.024912143 -0.041428313 0.0013720903 0.10018322 -0.127764 0.16540079 0.059803724 0.19629295
-0.19224699 0.019556843 -0.116866484 -0.037034445 -0.0006351131 -0.087112054 0.38768497 -0.1893418
-0.071371794 -0.13359308 0.04084889 -0.04800338 0.07894086 0.23493841 -0.0013337136 0.027766628
0.05071042 -0.5310504 0.11028508 -0.010690571 -0.035951104 -0.28367424 0.07371707 -0.15707706
0.002608444 0.2149737 -0.0401079 -0.070711926 -0.3932697 -0.10400809 0.06533323 0.13165174
0.019426893 -0.008723669 0.00050914247 0.36889067 -0.045522153 0.024392713 0.27103838 -0.027879102
0.016036324 0.030968914 0.1192898 -0.03759005 0.0049535558 0.06590092 0.1762113 -0.10906857
0.15200464 0.092079304 0.0054722005 -0.07369558 -0.10796102 0.028501626 -0.0016192815 -0.17863153
0.216831 -0.1722448 -0.11609673 0.09284664 0.097069226 -0.03929478 0.09699809 -0.0701471
0.0040224562 -0.11794961 -0.092514776 -0.20691644 -0.030521803 -0.14611462 -0.11887195 -0.26115355
-0.050336696 -0.19176191 -0.005895858 0.1883601 0.0010168551 -0.06914989 0.3069995 -0.04405341
-0.04678377 -0.010167852 -0.14070058 -0.022604365 -0.00025013436 -0.23519696 0.21421954 0.1485717
-0.319173 -0.24116243 -0.015004103 -0.0043789716 0.1063127 0.0076354085 0.004162812 -0.12338002
0.41274497 0.11880257 0.07545453 -0.13155946 0.19429965 -0.031106595 -0.12844299 -0.048155487
-0.0035024884 0.087523 -0.37784725 0.14508675 0.28230083 0.1057751 -0.12549761 0.11568433
0.056954995 0.05370595 0.0004357295 0.12957813 0.15489243 0.08650608 -0.04273164 0.05255669
-0.06384051 -0.124954864 -0.08093135 0.042658664 -0.0030059605 -0.00022448451 0.0017283866 -0.00034936258
-0.00056542904 0.0014707579 -9.7059296e-05 -0.00059353036 -0.0006061224 -0.002829625 -0.0001221153 0.0006326254
-0.0016878729 -0.0008451044 6.962405e-05 -0.00018067288 0.00064608816 -6.651794e-05 0.0012547681 0.00018184888
3.7830352e-05 -0.076513745 -0.22832054 -0.098048925 -0.16140477 -0.07118295 0.0735989 0.0015682533
-0.06986457 0.26491773 -0.0030375682 -0.08595823 -0.1396688 0.17714584 0.50917256 0.08297886
0.10224919 -0.045078956 -0.1297624 -0.20244063 0.0027407957 -0.42283466 0.1336476 0.2130578
0.08392846 -0.065633245 0.07429891 -0.061134685 -0.076786324 -0.21703827 -0.0010861926 0.00012948425
0.0018333432 0.00028963957 -0.000889043 0.0012260072 -8.156462e-05 0.0003803726 -0.0009252223 -4.725217e-05
-0.0027770745 0.13857344 -0.42685074 -0.06346996 0.08386859 0.10561279 -0.27499977 0.06905714
0.067356735 -0.10720816 0.005476475 -0.13816597 0.35667515 0.13414775 -0.048300415 -0.13789906

model.0.bias f4 [150]
00000000: 6efd 9e39 aa06 3dbe b898 b1be 0c40 d73d
00000010: 64d0 8fbe bc1b 8abe 0db1 fa3d 499f 2b3e
00000020: f7ce ffbd 7f5e 403e ad1b 083d 826d a33c
00000030: 161b ddbe 4170 1f3e 15e1 71be 5de6 c13e
00000040: 7a2b b0bd f50a 413d 43bb 89ba f09c fdb8
00000050: 85d5 87be ac18 e63e 411f 2dbd 9193 60b9
00000060: 794b e83d f1d2 533e 08ad b23e 145d e0bd
00000070: deac 0abd 61ba 553e 8fb5 993e 2353 64be
00000080: 961c 5abe 580c 643e c6bb 993e fdd2 d0bd
00000090: d999 3cbe d4af 0dbd 5c15 c7be 4c37 17be
000000a0: 3cbe de3d 5f92 663e a12b 173e f485 84bc
000000b0: 4a65 d7bd f665 d6bd 14c8 95be ce91 4b3e
000000c0: 8fb3 b5be 9435 5a3e 09bf e7bd cbad 99be
000000d0: 2c6c 48be e6ec 5eba ed8b 2e3e 1d66 f3bc
000000e0: 5e9f 0ebe 90d3 1d3e c56f 5abe e5b9 403e
000000f0: e0f1 0a3e babc ac3e 9afb 0e3e 1b06 9a3d
00000100: 5ab1 123e 0c6a 99be af5e 90be 8946 1bbd
00000110: a695 13be f7dc 9fbe 3b71 5d3d 8051 f2bd
00000120: 443d c63e edcc 24b8 f2f2 04be 98c8 e3bd
00000130: 2b10 aa3e baa1 5abe ad25 be3e 1e19 08be
00000140: 0db6 973d b763 e3bc 876d 40be 0032 8e3e
00000150: e49e 68be ad36 6dbd db0d 95be e163 c63e
00000160: 2cf4 22bd eaff 4dbe 455b 83be 2412 d13d
00000170: 198c 37bd 7d3d 56bd 1564 453e aabf 50be
00000180: 961f 1bbd e64f a63c 197a 8dbe 999a 9b3e
00000190: bfd2 28be a4f9 36be 70e2 09be 262c 653e
000001a0: c2e2 6d3d 8662 673d ae5d 803e 27ec 4b3e
000001b0: d6b5 2b3e f7fc ce3d d1f1 33be f150 ca3c
000001c0: d1e9 083e c494 663d 4e33 8cbc bdf6 aebd
000001d0: e30c a7bd 4666 5e3d 247c 153e be83 7fbe
000001e0: 414f 913a 6f82 9f3c 680a 863e bcaa 913e
000001f0: 49b0 3ebe f754 88bd 16f6 c03e d8f2 e6bb
00000200: 506e 913d 0d20 f5bd 2f02 72bd 5b19 cc3e
00000210: a85f 89bd 3c29 483e b03e d43c 09c9 b8bd
00000220: e6a7 de3d 48a6 183e d413 55be 40c3 94bd
00000230: 7c15 533d ca2c 3f3e 1bef b038 fe65 7c3e
00000240: 065c fd3d eea8 3f3e 107e 5a3d 8961 c8be
00000250: ae44 debd 0c7d 123e
0.00030324928 -0.18459573 -0.34686828 0.10510263 -0.28088677 -0.26974285 0.12240801 0.16759981
-0.12490647 0.18786047 0.03322952 0.019949678 -0.43184727 0.15570165 -0.23621018 0.37871066
-0.086020425 0.04712959 -0.0010508079 -0.00012093212 -0.2653009 0.44940698 -0.042266134 -0.00021417277
0.1134252 0.20685937 0.34897637 -0.10955253 -0.033856265 0.20871879 0.3002133 -0.22297339
-0.21299967 0.22270334 0.30026072 -0.10196493 -0.18418063 -0.03459151 -0.38883483 -0.14767188
0.10876128 0.22516774 0.14762737 -0.016177155 -0.10517366 -0.10468666 -0.2925421 0.19879839
-0.35488555 0.21309501 -0.11315734 -0.30015406 -0.19572514 -0.00085039285 0.17045565 -0.029711777
-0.13927981 0.15412736 -0.21331699 0.18820913 0.1356883 0.33737737 0.13963166 0.07520696
0.14325467 -0.2996372 -0.28197238 -0.037909064 -0.14412555 -0.3122327 0.054063063 -0.11831951
0.38718617 -3.92915e-05 -0.12983301 -0.111222446 0.3321546 -0.21350756 0.3713812 -0.13290831
0.0740777 -0.027757509 -0.18791781 0.27772522 -0.22716862 -0.05791347 -0.29112133 0.38748077
-0.03978364 -0.20117155 -0.2565557 0.10208538 -0.044811342 -0.052304734 0.1927646 -0.20385614
-0.03787192 0.02030177 -0.27632216 0.30391386 -0.16486643 -0.17868668 -0.13465285 0.22380123
0.05807758 0.056490444 0.25071472 0.19914304 0.16768584 0.10106843 -0.17572714 0.024696799
0.13370444 0.056294218 -0.017114308 -0.08543155 -0.08156755 0.054296754 0.14598137 -0.249526
0.0011086242 0.019471375 0.26179814 0.28450572 -0.18621935 -0.06656831 0.3768775 -0.007047992
0.071011186 -0.11969004 -0.059084114 0.39863095 -0.06707698 0.1954698 0.025908798 -0.090227194
0.10871868 0.14907181 -0.20808345 -0.072638035 0.05153416 0.1866943 8.436871e-05 0.24648282
0.12371068 0.18716785 0.05334288 -0.39136913 -0.10852943 0.14305514

model.2.weight f4 [150, 150]
00000000: e1e2 953b b5d8 f7bc be21 923c 030f bd3d
00000010: ee71 04bd becc fb3b 0abc c33d 88c2 6bbe
00000020: 4c9a df3d b6a0 fdbd 081d 7e3e 410d 733e
00000030: eda2 1c3e 478e 233e a892 333c f0db 803c
00000040: 1563 ce3d ed1f 063e 350e 0b3c afa8 9dbc
00000050: 511a e0bc 9a17 0d3e 284b 39be a232 48bb
00000060: bd16 ac3d 7a5a 77bd f22a 92be 1fe2 f63c
00000070: cecd 473e 4d40 723d a3c7 ccbe 6ea2 44bc
00000080: b907 bb3c 17f7 1bbe b515 c23d 6d18 a7bd
00000090: af37 87bd 259f 20bd 079c 9f3d e5da 123d
000000a0: 94ea b6bd a7f3 273e 0b67 bd3d b94e 5c3d
000000b0: c544 72be d17f ebbc 7919 5e3d 0e1f 8d3d
000000c0: 93d1 133e c3ed 9a3c 4ee3 f03c 7d54 19be
000000d0: f8ca aabb 2e7e 7abc e82b b0bd 62f3 b7bd
000000e0: c083 423e 433e 483d df4b dcbb 0934 853d
000000f0: 3991 a0bc e01f 863d 127a 2b3e c014 27bd
00000100: 56d8 0c3c 42c0 273c ed42 8a3e 6387 f13c
00000110: da45 1c3e 971e 183d fcd1 febc 82a9 9dbc
00000120: 2b98 b2bc 1de2 45bd 7e81 753e 867e 8bbd
00000130: 162a 603d 7f76 833d 42a5 ee3d f592 5abd
00000140: 530e 233e efc8 fbbc a7a8 d93d 945d 473d
00000150: 3b44 3d3d 2d0d 183e 74b3 3ebc 9b16 9ebc
00000160: cccf babd c16e 5f3c ab1b 303e eabf a03d
00000170: b5b1 bf3c ff62 863e 8e99 eebc 2dc1 6c3e
00000180: f5fc 9bbd 8907 a6bd cc90 6cbe 398d 453d
00000190: f66d c0bd a5ed 34bd 7f49 05bc 4856 14bd
000001a0: e1a6 c53d fe95 cabd 3ff1 503e 7059 e63e
000001b0: 2f68 2d3e 54fb 3dbc 5e5e 9dbd de11 9f3c
000001c0: 7051 f8bc ef51 253d 7eb6 50bc 3eda 08be
000001d0: b1c2 e7bd 76c1 cd3d bc2f 1ebc 3696 67be
000001e0: ecd3 673d e156 253d 0183 363e e422 2c3d
000001f0: 6db8 8c3d 64d3 803e 3695 09be 459a 6abd
00000200: d1fc 833e 1069 173e 9272 7f3d f515 403d
00000210: 7f4a 173d 3c89 e53d 2d26 d7bc b186 36be
00000220: 7df5 3e3d f37c 18bd 3f2a ff3d 2d9e 6dbe
00000230: 502b e0be aee7 f23d 422f 5bbc 768d 24be
00000240: b296 3e3c f2a6 223d e6b4 7dbe 9a92 f73d
00000250: 296c dbbb a8be 643c a145 df3a fffb 3c3e
00000260: 59d2 093e b882 cb3d 14e1 193d 00ee 4f3c
00000270: eb2b 91bd 67fe 963d d4b0 8dbd db94 81be
00000280: 2715 023d 0778 023e 5c6c fd3c 13f9 50be
00000290: 64cc e33d e5ba d43c 118d 013c 7df1 e6bd
000002a0: 7580 1abb e7ee 073a d210 e73d 6cd8 4ebd
000002b0: b106 813e 40c1 b1bb a577 5e3c 25c1 8e3d
000002c0: 65be 4e3d 59fb a33d fe8a 10bd 46c2 03be
000002d0: 6ca4 b73d 0aa8 7dbc 6ee0 703e 4655 b53d
000002e0: 4f9c cdbd 1ab6 2ebe f160 1c3e 2221 0fbe
000002f0: b0ed 0c3e 3e82 ac39 1abb c7bd 73cc 543e
00000300: ec00 1dbc 92dd 1c3e b9d7 7c3e 3f9d 94bd
00000310: d56a abbd 9cba d5bc 4815 763d 162c 50bd
00000320: d53d 733c c0af ea3d 870d 833c c762 dc3a
00000330: 3cd0 0cbe af5a d33d 4a19 74bd 8bde 963d
00000340: f05b c13d ec91 cbbd ec78 bdbc d51c a1bd
00000350: c934 833d 2674 65bd d1c3 adbd 3f2d 453d
00000360: d168 883d 2233 73b8 a696 0d3d baae 823e
00000370: 640e 2e3d c399 843d 711f 2bbe a488 ad3d
00000380: 538c d8bd 71eb ef3d 0a53 a53c 4f3e 86bd
00000390: add5 cfbd b9ad aebd 67f0 f93c 4ad6 00be
000003a0: 5fec c53d 281e c9bd 2eef 0d3c 9c5e 743e
000003b0: 95d8 1e3e 807f 16be d6a8 9e3d 8bfe e83d
000003c0: 7fe0 64be 0162 1abd 01d8 23bd d1dc 363e
000003d0: 4d69 39be 932d 3fbd 3446 293e 6422 5cbe
000003e0: 0fdb 013e a2a3 b9bd 5b64 75bc cdf3 b73d
000003f0: 9a5b b1bc 877c e4bc b41a 193e 1250 c93d
0.004574165 -0.030254701 0.017838355 0.09231379 -0.032335214 0.0076843193 0.0955735 -0.23023427
0.10918102 -0.12384169 0.24815762 0.23735525 0.15296526 0.15972243 0.010960259 0.015729874
0.10077492 0.13098116 0.008487274 -0.019245474 -0.027356299 0.13778535 -0.18095076 -0.0030547758
0.084027745 -0.06038902 -0.2854839 0.03013712 0.19512102 0.059143353 -0.3999606 -0.012001617
0.02283083 -0.15230976 0.094767965 -0.08158956 -0.06602418 -0.039214272 0.07793432 0.035853285
-0.08931461 0.1640154 0.092481695 0.053786013 -0.23659046 -0.028747471 0.05422351 0.06890689
0.14435415 0.018912202 0.029405262 -0.14973636 -0.005212184 -0.015288873 -0.086021245 -0.089819685
0.18995571 0.048887502 -0.0067229117 0.065040655 -0.019600498 0.065490484 0.16745785 -0.040791273
0.0085965 0.010238709 0.27004185 0.029483503 0.15261021 0.037138548 -0.031105988 -0.019245867
-0.021801075 -0.04831134 0.23975179 -0.06811242 0.054727636 0.06419086 0.11652614 -0.053362805
0.15923433 -0.030735461 0.10627871 0.048673227 0.046207648 0.14848776 -0.011639465 -0.019297889
-0.09121665 0.013637246 0.17198054 0.07849105 0.023400167 0.26247403 -0.029125955 0.23120566
-0.07616607 -0.08106906 -0.2310211 0.048230384 -0.093959734 -0.044171948 -0.008135199 -0.036215097
0.0965097 -0.0989189 0.20404528 0.4499011 0.16934274 -0.011595566 -0.07684015 0.0194177
-0.03031227 0.04036134 -0.012738822 -0.13364503 -0.11316431 0.10046665 -0.009654935 -0.22615895
0.05659859 0.040366057 0.17823412 0.04202546 0.06871114 0.25161278 -0.13435826 -0.05727603
0.2577882 0.14786172 0.062365122 0.04689594 0.03693628 0.11207816 -0.02626332 -0.17824818
0.046620835 -0.037228536 0.1245923 -0.2320487 -0.43783045 0.11860596 -0.013377966 -0.16069588
0.011632608 0.039709993 -0.24776039 0.12088509 -0.0066962433 0.013961472 0.0017034301 0.18455504
0.13459148 0.09937042 0.037568167 0.012691021 -0.07088455 0.07372742 -0.06918493 -0.2530888
0.031758454 0.127411 0.030935459 -0.20407514 0.11122969 0.025968025 0.007907168 -0.11276529
-0.0023575102 0.00051854405 0.11282505 -0.050499365 0.25200418 -0.0054246485 0.01357833 0.06970433
0.050474543 0.08006925 -0.035288803 -0.12867078 0.08966908 -0.015481958 0.23523113 0.08854155
-0.10039579 -0.17061654 0.15271355 -0.13977483 0.13762546 0.00032903434 -0.09752484 0.20781116
-0.009582739 0.15318897 0.24691667 -0.07256555 -0.08369986 -0.026089959 0.06007889 -0.050823294
0.014846285 0.11459303 0.015997661 0.0016814106 -0.1375131 0.10320031 -0.05959443 0.073666655
0.09441364 -0.09939942 -0.02312895 -0.078668274 0.06406552 -0.05601897 -0.08484615 0.048138853
0.06660617 -5.7983336e-05 0.034567498 0.2552393 0.042494193 0.0647464 -0.16711213 0.08473328
-0.1057364 0.11714829 0.020181198 -0.06554853 -0.10148177 -0.08529229 0.03051014 -0.12581745
0.09664225 -0.09820205 0.008662982 0.23864216 0.15512307 -0.14697075 0.07747047 0.11376675
-0.22351263 -0.03769112 -0.04000092 0.17857672 -0.18106575 -0.046674322 0.16530687 -0.21497494
0.1268122 -0.090644136 -0.01497754 0.08982048 -0.021650124 -0.02789141 0.14951593 0.09829725

model.2.bias f4 [150]
00000000: d4e0 593d 6ad7 7e3d 92fa 433c b364 afba
00000010: 2247 c1be a3a1 323e 4422 123e c86f 0cbe
00000020: 3c2a 03bd 5132 03be 53cc 92be 1b1a 9dbe
00000030: 3d02 09be 1245 54bd ca63 23bd 886c 42bd
00000040: 0988 f2bd a2e6 353e d878 a0bc 787c 64be
00000050: 54c6 a3bc c989 45be 48fd 2f3e b62e 983e
00000060: e2fb 89be 67cc 86bd b3fa 86bd abf3 d33d
00000070: 595c 443d 5db4 5d3e 7afb a73c 61e4 263e
00000080: 806e b93d 9ebc e4bd 7aa9 533e 615e e7bd
00000090: cf40 143d 5d45 013e 707f 143e 5985 c8be
000000a0: 9779 b6bd 9e43 bfbb ffdc 923e 794d b8bd
000000b0: 5cba 373d caa2 143e 44ed 42bc 6f3d 9b3e
000000c0: af26 adbc 74ec eb3d 01da aabd 957a 303d
000000d0: f185 98be a88e 383e cc57 423e 4176 013d
000000e0: 192b 24be ebce dc3d 9a99 103e 4ed4 5f3d
000000f0: c971 da3d 0acd 44bc a409 5c3c 73c2 51be
00000100: 1241 06bc 16e9 a0bd 0e7c 143c 5455 a2be
00000110: 44e1 763d ac08 1d3d cc8b 943e 31d1 ecbd
00000120: c273 e83d 1b78 a2bd d40b 083c f0c3 9e3d
00000130: 20c6 143d a771 4e3e 7695 5cbd 33aa 703e
00000140: 00da 523c e08d d5bd 10ac 44bd d9c0 3bbe
00000150: d72a 27bd 8df5 e5bd ad91 063e 547b 803d
00000160: 241e 463e c87d a93d d5f4 963e 5118 70be
00000170: a313 3c3d e638 de3d 0866 843d 89ee e13d
00000180: 82b4 4f3e 5172 35bc ba41 0fbd 0f18 aa3d
00000190: f159 a73d cc5a 8bbe da86 49be d369 5cbd
000001a0: ea66 8a3d 2415 b9bc 3dd9 b63c 05b5 55bd
000001b0: 38d8 13bd 60ee cfbc 6dec 9b3c be18 563e
000001c0: fdc3 27bd 4658 85be bf6c fdbd b1a5 103e
000001d0: 24f6 5bbe 7678 893c 7764 afbd 622d 0abe
000001e0: dbed ea3b d050 6d3c 3166 ad3c 723e 4a3e
000001f0: d74b b73d 1040 7fbc b50f dfbe 8e9e f1bd
00000200: e11b 15be 88d3 443e 02c5 aa3d fe30 92bd
00000210: c8e4 28be 26d6 72be 465a 903e 621b 503e
00000220: 3f28 5ebe 0582 0f3e 3619 e43d 7a6f eb3d
00000230: daf2 b53d dabd 02be 8a10 e53d bafe a63c
00000240: 811f 6fbd 8db7 3c3d ec43 19b9 3bee 78bd
00000250: 6b59 483e cbe5 85bd
0.05319293 0.062217154 0.011961596 -0.0013381451 -0.37749583 0.17444472 0.14270884 -0.13714516
-0.0320227 -0.12812163 -0.28671512 -0.3068398 -0.1337976 -0.051823683 -0.03989009 -0.047466785
-0.11842353 0.1776376 -0.019588873 -0.22313106 -0.019992031 -0.19290842 0.17186463 0.29723138
-0.26949984 -0.065819554 -0.06590786 0.1034921 0.047939632 0.21650834 0.020505656 0.16298057
0.09054279 -0.111687884 0.20670119 -0.11297298 0.03619462 0.12624116 0.14501739 -0.39164236
-0.0890991 -0.005836918 0.28684232 -0.08999152 0.04485546 0.14515224 -0.011897389 0.30320308
-0.02113661 0.11519709 -0.08342362 0.043085653 -0.2978969 0.18023169 0.18978804 0.031606916
-0.16032065 0.10781654 0.14121094 0.05464583 0.10666234 -0.012011776 0.013430033 -0.20484333
-0.008194225 -0.078569576 0.00906278 -0.31705725 0.060273424 0.03833835 0.29012907 -0.115633376
0.11350204 -0.079330646 0.008303601 0.07752216 0.03632176 0.20160542 -0.053853475 0.23502426
0.012869358 -0.10427451 -0.048015654 -0.18335284 -0.04081234 -0.11228476 0.13141508 0.06273523
0.19347435 0.08275944 0.29483667 -0.23446776 0.045917165 0.10850696 0.064647734 0.11031825
0.20283702 -0.011074618 -0.03497479 0.0830537 0.08171452 -0.2721771 -0.19680348 -0.05381186
0.067579105 -0.022593088 0.022320384 -0.052174587 -0.036094874 -0.02538222 0.019033635 0.20907876
-0.040958393 -0.2604391 -0.12374257 0.14125706 -0.21480614 0.016781073 -0.08564084 -0.13493875
0.007169468 0.014484599 0.021166893 0.19750383 0.08950012 -0.0155792385 -0.4356667 -0.1179782
-0.14561416 0.19221318 0.083383575 -0.07138251 -0.16493523 -0.23714504 0.28193873 0.20322946
-0.2169504 0.14014442 0.11137621 0.11495872 0.08884211 -0.12767735 0.11184795 0.020385135
-0.058379654 0.046073485 -0.0001461652 -0.06077407 0.1956536 -0.0653797

model.4.weight f4 [150, 150]
00000000: 3e20 a53c db4f b2bb 5448 a0bc f991 ddbc
00000010: 6512 063e ea76 9bbd 5298 3d3a cac9 433c
00000020: 481a 623c 81c3 cf3b 6509 f83d 31f9 c93d
00000030: 2fc2 a73b c977 11bd 7c48 0dbe d495 73bc
00000040: 1c89 5dbe e21a 4bbd d18e aa3e eb11 123e
00000050: 1b4d 873c ca0a 5e3d 8d1d f4bb a0eb 12be
00000060: 8801 0d3d 6206 5fbe fd19 c3be 2f4c 273d
00000070: 831d 32bd 1f50 84bc 824f 393e 51ee ccb9
00000080: 7673 493c 790b 0e3d 0cad 863d 11e5 cdbb
00000090: 1b1c d73c 1904 8a3d 970b 1cbe d77c 583e
000000a0: 2069 9939 f5f2 d93c 18ca ddbd e65f b33c
000000b0: fbf5 9abd 5eeb 96bb 8c88 eb3c aba1 ae3d
000000c0: 6108 9a3c 26e8 52be 07c0 5cbb 52d1 753b
000000d0: 4e74 383c c9eb 253d abf1 8a3b 308c 023d
000000e0: 11c1 f0bc 034b 593c 475f 54bc 3352 76bc
000000f0: bbd2 28bb f8f8 4c3b d154 873d 779b bc3c
00000100: b07c 273c ed43 bbbd e007 91bd 5a95 003e
00000110: 2e7b b13e 0675 cc3d 50e7 65bd f992 80bc
00000120: 19a9 bbbb 25eb df3d 56a1 12bd 619d f43c
00000130: f1d9 9a3b 1f2c de3c 961b 9ebd b654 5fbd
00000140: a0a4 40bc a157 8d3a d205 1dbd 94f3 233b
00000150: 3e20 a03d ca6c 293d 850b e8bc 9768 4f3d
00000160: 2935 5dbf 0dae c2be c42a 383d 564b 223e
00000170: 66ac dc3d c6ef 0f3d a754 7c3c 1fda 80be
00000180: b544 fe3b 7093 6abc 744c 0abd ecdf b6bb
00000190: 0bc3 bbbc 2c69 8a3d 6479 553b 67df 503d
000001a0: 230e 7abd cb00 57be fd2d b8bc b1fb 833d
000001b0: 8a85 183d 3740 1d3d a6b7 0c3d b713 a93c
000001c0: ff48 003e 9ab1 3d3e 9762 ac3d e3e0 543d
000001d0: fa63 a93d d605 373d e07a 5f3b 4ada 67bd
000001e0: 0b47 a3ba d8bd 3dbb c82c 253d 2583 373d
000001f0: 71f2 ffbc e42f 64bb 323b 513e dc0d 073b
00000200: a71c e23d f639 b3bd bcdc aa3c 113d 41bc
00000210: 8376 e03c 1926 873d 7a55 a53b 75c9 50be
00000220: 1002 5e3d 07b3 1fbc b3b7 1dbd a96b 053d
00000230: 8761 893c 057e 173f a12c 77bd 3822 163d
00000240: dc04 eabc c8cb 27bd ec30 b73d 25b4 963d
00000250: e262 973b ddf0 893c 6d64 6cbc 889a 313d
00000260: 7722 66bc 621e 793c 7fd4 8bbd 83d5 ae3c
00000270: 6ed6 9dbd 59fc 50bc 7adb 24bc 27ab 62bc
00000280: 9b7d e5bc 35e6 d9bb 4308 ccbc bc83 333d
00000290: c835 0a3d 9806 a83c 0979 65bb 8e73 043b
000002a0: 6a84 a7bd cf73 0bbd e1af 923b dbf3 463d
000002b0: 6f9f 02bd 0ae8 2bbb 241f 463c c34d 30bd
000002c0: 3981 37be 8af9 f5bc 380b b93b 1e6c 09bb
000002d0: 6e8f d63b ead0 ab3d 4c78 53bb bf58 0ebb
000002e0: 9bbd 923d 7152 2b3d fff4 ed3c 1d9e 61bd
000002f0: 7b73 8bbb 9a2e 343b 2a55 b73c 5c78 adbc
00000300: cc70 883c 4724 31bc 87b7 19bc b7b0 a93c
00000310: bf4a 0abd 604c 293c a349 533c 7fe8 0abd
00000320: 022b 9cbb 58c6 913c 0aea 3cbd dd96 4abd
00000330: 27d9 52bb 7df8 afbc 1683 efbc 9c3c e4bb
00000340: cbee 10bd ed1e 643d 3f71 afbc a2f1 1dbc
00000350: d362 33be 7249 363a b70d 37bd 9e2d bfbd
00000360: 5154 b03c ada6 bc3d 46a2 dbbd 5c65 c53d
00000370: 6aad 84bc 3aae 19bc 9fb2 3fbc 21f4 85bd
00000380: 2d67 c83c 9c07 f53d fbdb 35bd 1f45 8a3c
00000390: 0811 b5bd e7e7 943b aebb c4bc e483 953c
000003a0: 1ee4 0c3d 2069 52bc 72b5 07bd 585a f6bb
000003b0: cfcf b33c 789c 1b3c a271 bbbc 8ae9 a63c
000003c0: a74c 02bd d868 533d ef11 cc3d d229 45bc
000003d0: c2a4 983b 24b0 eabb d4f9 913c 498f b83a
000003e0: ef00 c53d 2436 b0bc da68 e53c cd74 2fbd
000003f0: e6cf 0b3c 99b8 9d3c 563a 863d 7fc6 833c
0.020156976 -0.0054416484 -0.019565739 -0.027047144 0.13092954 -0.075910404 0.00072324753 0.011949966
0.013800211 0.0063404446 0.12111167 0.098619826 0.005119584 -0.035514627 -0.13797182 -0.014867265
-0.21634334 -0.049586184 0.33312085 0.14264648 0.016516259 0.054209508 -0.007449812 -0.14347696
0.03442529 -0.21779779 -0.38105765 0.04084414 -0.043485176 -0.016151486 0.18096736 -0.00039087472
0.012295594 0.03467891 0.06575975 -0.0062834104 0.026258519 0.06739063 -0.15238796 0.21141373
0.00029260758 0.026605109 -0.10829562 0.021896314 -0.07566448 -0.0046056947 0.028751634 0.085269295
0.018802823 -0.2059637 -0.0033683793 0.0037508798 0.011258198 0.040508065 0.004240235 0.031871974
-0.029388936 0.013262513 -0.012962169 -0.015034246 -0.002576037 0.0031276327 0.06607974 0.02302335
0.010222599 -0.09143815 -0.0708158 0.12556973 0.3466429 0.09983258 -0.0561288 -0.015695082
-0.005726945 0.10933522 -0.035798393 0.0298602 0.0047256877 0.027120648 -0.07720105 -0.054524146
-0.011758 0.0010783562 -0.03833563 0.002501701 0.0781865 0.041363515 -0.028325805 0.050636854
-0.8640924 -0.38023415 0.04496266 0.15849051 0.1077507 0.035140775 0.015401042 -0.25166413
0.0077596554 -0.014317378 -0.033764318 -0.005580893 -0.022920152 0.06758341 0.0032573575 0.050994303
-0.061048638 -0.20996396 -0.022482866 0.06444491 0.037236728 0.03839132 0.03435483 0.020639284
0.12527846 0.18524781 0.08417242 0.05197228 0.08271022 0.0446833 0.0034100339 -0.05660466
-0.0012457086 -0.0028952267 0.04032591 0.044802804 -0.031243535 -0.0034818584 0.20432737 0.0020607626
0.11040621 -0.087512895 0.020857207 -0.0117943445 0.02740026 0.065990634 0.00504559 -0.2038935
0.054201186 -0.009747273 -0.038505267 0.032573376 0.016770137 0.59176666 -0.060345296 0.036653727
-0.02856677 -0.040965825 0.08944878 0.073585786 0.004619942 0.016838485 -0.01442824 0.043360263
-0.014046303 0.015204998 -0.0682764 0.021342045 -0.07706915 -0.012755477 -0.010062093 -0.013834751
-0.028013995 -0.0066497573 -0.024906283 0.043826804 0.033742696 0.020510957 -0.003501477 0.0020210478
-0.08179553 -0.03404599 0.004476533 0.048572402 -0.03189033 -0.0026230835 0.012092385 -0.04304291
-0.17920388 -0.030026216 0.0056470893 -0.0020968984 0.00654786 0.083894566 -0.0032267747 -0.0021720377
0.071650706 0.04182667 0.029047487 -0.05508243 -0.0042557097 0.0027493597 0.022379477 -0.021175556
0.016655348 -0.010811872 -0.009382135 0.020714147 -0.03376269 0.010333151 0.012895974 -0.03391313
-0.004765869 0.017794773 -0.046121635 -0.04946028 -0.003217289 -0.021480793 -0.029237311 -0.006965233
-0.03538398 0.055693556 -0.021416305 -0.009640129 -0.17518167 0.0006953693 -0.044690814 -0.09334873
0.02152458 0.092114784 -0.107243106 0.096384734 -0.016195972 -0.009379918 -0.011700301 -0.065407045
0.02446326 0.11964342 -0.044399243 0.016878663 -0.08841139 0.0045442465 -0.024015274 0.018251367
0.034397237 -0.012842447 -0.033132024 -0.007518094 0.021949677 0.009497754 -0.022881333 0.020375032
-0.031811383 0.05161366 0.09964358 -0.0120338965 0.0046583125 -0.007162111 0.017819323 0.0014080788
0.09619319 -0.021510191 0.028004099 -0.042836 0.008533454 0.019253062 0.065540954 0.016085861

model.4.bias f4 [150]
00000000: 26dc 15be a47b 30bd c81d 9d3d 9d72 c9bd
00000010: 1691 be3d 7e63 6d3d 7191 c7bc 22d6 97bd
00000020: 53f7 5b3d 9491 6a3e 8be6 90bd 9739 453e
00000030: 522b e3bd c62a 32bd e25b 5f3d 50a5 0dbd
00000040: f1fb 60bc 396a 7a3d 9d86 363c 41fe debc
00000050: b949 08be e222 a5be a6c8 64bd 27b9 d0bd
00000060: 6648 16bd 0b61 b93d 1d8e d23d 32d9 75be
00000070: 4bb9 f0ba 9e76 cebd 4ab5 183d 9a90 123d
00000080: acdf 253c 8261 3cbe 8ea1 b6bc 3ac3 96bc
00000090: 87f4 3dbc 4095 873d 4c79 a3bd 145a 02bd
000000a0: 956a 5dbd 7fec ff3b 90cb 99be 23e0 7f3e
000000b0: 5722 073e 2a17 c53d 1b59 783e f1b0 243c
000000c0: ed9a d3bd 37e0 c2bb e065 77bd f470 e03d
000000d0: a7c6 9a3d f7be 873d 18c0 f4bc 0026 b0bd
000000e0: 27a8 203a a6ff d23d 559e 903e 0b95 663e
000000f0: a745 e53d e512 283e d8d0 dc3d c719 213d
00000100: 8557 b9bc 7db4 ce3b 1245 653d 28de a8bb
00000110: 2ad2 2a3d 56f3 cb3c 32ed 973d 9bf5 b9bd
00000120: dced 21bd ec9d 893d f4b8 303e 2d3f b83d
00000130: adb9 84bc ae10 3a3d eb6d b0bc 4d95 2fbd
00000140: 91f9 81bc df27 cbbc a01c 983d 93bc 6abd
00000150: bc53 f9bb fe26 2f3e 727a 64bd 1883 a43e
00000160: 7b39 ab3d df40 2c3d 6700 113d e2a9 213d
00000170: 532c 85bd a630 dc3d 65ba a03d e97e 91bc
00000180: 0373 de3c b211 07bc 1c41 9c3d c060 aebc
00000190: a55f 9c3c e398 1fbd 5902 743d bbde d239
000001a0: 26dc 3f3d 7923 d83b 0afa c2bd 65e6 39bd
000001b0: a0fc 9a3d 0e11 a93d 3dfb f63b 01ed 7f3e
000001c0: 03d4 203d ae5d 433e 82e1 623d 1b43 a0be
000001d0: 90c7 f8bc 7ceb d9bc 1d41 64bd f409 813d
000001e0: 6731 4b3d a040 57bc 4232 bf3d 379a 923e
000001f0: 445d 11bc 9555 44bc 12c7 d7bd ed8e 8d3d
00000200: 8aff 9dbd 7ae1 edbc 4703 613c 307a 03be
00000210: e4d3 ce3d 1940 b43d 028e af3d 0df8 0c3e
00000220: 46ce 48be 2f1b e63d 4e8b 553c c571 2e3e
00000230: feb0 86bc 05d0 7fbd afb7 10bd 856e ad3d
00000240: bf4a 4c3e 2257 d53d 449b 883d f3a3 95bd
00000250: 590c 9dbe 6cb1 0a3d
-0.14634761 -0.043086663 0.07671696 -0.09836314 0.09305017 0.05795621 -0.024361344 -0.074138895
0.053702664 0.22907096 -0.070752226 0.1926025 -0.11092247 -0.043497823 0.054530986 -0.034581482
-0.0137319425 0.061136458 0.011140493 -0.027220847 -0.13309373 -0.32253176 -0.055855416 -0.10191565
-0.03669014 0.090517126 0.10281012 -0.24008635 -0.0018365768 -0.10081218 0.037282266 0.035782434
0.010124128 -0.18396571 -0.022293832 -0.018403638 -0.011593944 0.06620264 -0.0798212 -0.031824186
-0.054056723 0.007810175 -0.30038118 0.24987845 0.13196693 0.09623559 0.24252741 0.010051952
-0.10332284 -0.0059471386 -0.06039989 0.10959044 0.07557421 0.066282205 -0.029876754 -0.08600998
0.0006128572 0.10302667 0.28245798 0.22517793 0.11194926 0.16413458 0.10782021 0.039331224
-0.02262474 0.006308137 0.055974074 -0.005153436 0.041704334 0.024896305 0.07418288 -0.09080049
-0.03953348 0.06719574 0.17258054 0.08996425 -0.016201818 0.045426063 -0.021536788 -0.042866994
-0.015866073 -0.024799285 0.07427335 -0.057308745 -0.007608859 0.17104718 -0.055780835 0.32131267
0.08360573 0.042054053 0.035400774 0.039468654 -0.06502595 0.107514665 0.07848052 -0.01776071
0.027154451 -0.008243965 0.07629606 -0.021286368 0.019088576 -0.038964164 0.05957255 0.00040220268
0.04684081 0.0065960255 -0.095203474 -0.045385737 0.07567716 0.08255206 0.007537274 0.24992754
0.03926469 0.19078705 0.055390842 -0.31301197 -0.030368596 -0.026601546 -0.05572616 0.063007265
0.04960766 -0.013137966 0.09335758 0.28633282 -0.008872334 -0.011983295 -0.105360165 0.069120266
-0.07714756 -0.02903818 0.013733692 -0.1283958 0.10099009 0.08801288 0.08572008 0.13766499
-0.19609937 0.112356536 0.013033701 0.17035587 -0.016441818 -0.062454242 -0.035331424 0.084683456
0.19950388 0.1041701 0.066702396 -0.073066615 -0.30673483 0.03386061

model.6.weight f4 [22, 150]
00000000: 2b15 b63c b9d2 ca3a 9bff a5bc 5c8b c3ba
00000010: ffe7 31bb 321b 503a d248 75bc b31a acbc
00000020: b362 b63d 6746 2db9 949f 093d 1ff4 d73c
00000030: 56e6 90bb 3cbd 33ba bcbb 113d a311 d93a
00000040: 0988 59bb cab6 5c3c e5ae 59bc f682 df3c
00000050: b7eb ebbb 800b 063d 5ea4 5a3c 6d80 0d3b
00000060: cd75 c43a 5dfa dbbb ba55 003d b790 8e3c
00000070: 2764 a8ba bb8c 9d39 5998 3cba 643f 2c3c
00000080: 34e7 b83d 9ffe de3d 0292 52bc 5552 9cbb
00000090: 31d0 523a 52dc 263b e198 12bd dfa5 143b
000000a0: cb14 a33a e11c f23b 6a6f ca3d 4ca0 8d3c
000000b0: d6a3 e9ba 23d5 efba dd12 cc3c ccde c1bc
000000c0: 4abd 6f3b 4f5a 59bb 8977 b7bc 2b1b 99bc
000000d0: 85cd 883c f198 1dbb f84f 12bb 590b d03c
000000e0: c319 d1ba 4779 59bb 3484 5bbb 757e 41bd
000000f0: e18f 543d b934 413c 93cf 58bd 93d1 10bb
00000100: 438e 0ebd 7560 c4ba 7e3f 233c 6866 e6bb
00000110: 0dea c1ba 24b4 cf3a 0445 473e 6104 253d
00000120: 244b 1dbc 8a13 a6bd f3d3 1cbc 1373 0fbd
00000130: 43a8 27bb e2dc 643a 7e0a afbc c0fd 953b
00000140: b5b3 b8bb 0001 9a3b 6471 7dbe 8536 a8bc
00000150: 7ddb 6ebc e360 39bc fa07 01ba cbdd 88bc
00000160: f057 b53b 76c4 39bb d4fa 8d3b abb6 8f3b
00000170: 213b 173a e88e 10bb 0ebd 9039 0446 fdbb
00000180: f8b2 f6bc 778d 65bc 9c1b 6c3b 893c b1bb
00000190: 7852 01bd 2880 943d 4fc0 b8bb e3d7 863a
000001a0: 1db0 9abc 8196 e1b8 d827 a03b 7d7a 6b3b
000001b0: 6d16 d23b 135e 25bd fa14 c6ba 9351 e8bd
000001c0: 7efb 803d 9b75 3f3c f52d 12bc 71e8 c23d
000001d0: 8d70 de3d 2c44 91bc 1ab7 253c 5eb7 e8bb
000001e0: 57fd 19ba 4020 36b9 561b 773d f521 03be
000001f0: d439 3dba c740 95bb a0f2 ff3c 3559 a4bb
00000200: ed0f 453b 1883 a93b 6e71 8b39 c135 363c
00000210: 75eb d4bb edde 0cbb 5ff7 793b 2f68 5f3b
00000220: 5b19 34bb dc89 34bc fbd3 0dbc 8b97 ec3d
00000230: 3052 103c cd07 42bd f7c7 733a 02ff 283c
00000240: 0854 6dbd 7545 043b c28d 24bc 3576 02bd
00000250: 9fea 48be cffb ba3c 46f8 823c 15e5 cc3b
00000260: bae8 d7bc cc30 5cbb 3bac 20bd cb23 66bb
00000270: 6588 603c e57f c2ba 925a d3bb b4e2 0cbe
00000280: 4fc6 c23c 63d0 2cbc 2478 2a3a 752d 473b
00000290: 1289 f3bd 77dd f9bb 1faf df3b 5174 21bc
000002a0: 9806 193d 9f32 f03c 5fdd 603c e981 b63d
000002b0: cade 743c 23d9 8fbb ec66 7238 5d29 b8bc
000002c0: 881a 6b3d 23a3 823c 755e 203d 4620 213c
000002d0: 2655 2f3b 3932 b4bb 0fe5 593c e37b 67bc
000002e0: f964 0fba f1e1 2abb 3a94 5a3a a035 33bc
000002f0: 63e9 ea3b 9b36 27bd 0d81 783c 365b 613a
00000300: 0ac7 8cbb 054b f23c 5d3e baba b87d 8c3b
00000310: 0786 55bc bd03 323c a84b 083a 02c5 d639
00000320: 0638 cdbb 2ed0 6cbc f4cb ccbc 88f6 11bb
00000330: 756a 003d 5280 37be 8985 1cba e315 62ba
00000340: 8c86 0bbe 28e2 c2bc eb3e df3a e30c bcbd
00000350: 81b3 7cbd 926e 54bb 20c8 a4bb 57d3 123a
00000360: 70e6 78ba d2b4 8abb c388 0e3c fb5e 14bb
00000370: 6074 e3bc 19c2 1e3d 92ea b0bc efa7 143b
00000380: 5b4c f0bb 7cd3 09bd a45b 85bc bc4d 92bb
00000390: 158c 1fbd ec49 a0b9 377c 213a 083b 023c
000003a0: 4927 583c 0fe9 90bc 0f97 8c3b 02ec 08bd
000003b0: ae4c 4f39 74be 283e ddd5 92bd ef19 823c
000003c0: 21e8 7f3c bc03 503b 9f5d 7dba 3e43 db3b
000003d0: d3a4 51bb 19b7 63ba 9a81 cdb9 a424 71bc
000003e0: 78b9 2337 2740 233a b4fc ca3b 4c83 b7bb
000003f0: 9a4d c13b 8d28 14bb 48b5 b03d 6d51 183b
0.02222689 0.0015474177 -0.020263484 -0.0014918852 -0.0027146337 0.0007938623 -0.014970975 -0.021008825
0.08905544 -0.00016524793 0.03359945 0.026361523 -0.0044219894 -0.0006856506 0.035579428 0.0016561042
-0.0033192656 0.013471315 -0.013286327 0.027284127 -0.0071997303 0.03272581 0.013344852 0.002159144
0.0014988721 -0.0067131952 0.031331755 0.01740299 -0.001284723 0.00030050226 -0.00071943324 0.01051316
0.090284735 0.10888409 -0.012852194 -0.004770557 0.0008041887 0.002546091 -0.035790328 0.0022681875
0.001244211 0.0073886965 0.09884532 0.01728835 -0.0017825316 -0.0018297773 0.024911338 -0.023665808
0.003658133 -0.00331654 -0.022395866 -0.018689713 0.016699562 -0.002404746 -0.0022325497 0.025396036
-0.0015953112 -0.003318386 -0.0033495547 -0.04723974 0.051895026 0.011792355 -0.052932333 -0.0022097572
-0.03480364 -0.001498236 0.009963868 -0.0070312507 -0.0014794484 0.0015846533 0.19459921 0.04028738
-0.009600434 -0.081091955 -0.009572017 -0.035021853 -0.002558247 0.0008730424 -0.021367308 0.0045773685
-0.005636657 0.0046998262 -0.24750286 -0.02053381 -0.014578697 -0.0113146035 -0.0004922148 -0.016707322
0.0055341646 -0.002834586 0.0043328796 0.0043857894 0.0005769004 -0.0022057835 0.00027606677 -0.007729294
-0.030114636 -0.014010779 0.0036027199 -0.0054088277 -0.03157279 0.07251006 -0.0056381593 0.0010287728
-0.018882805 -0.000107568696 0.0048875622 0.0035931163 0.006411365 -0.04037292 -0.0015112453 -0.11343684
0.06297968 0.011685754 -0.00892209 0.09516991 0.10861311 -0.017732702 0.010114456 -0.007101937
-0.00058742374 -0.00017368887 0.060328804 -0.12805922 -0.0007218395 -0.004554841 0.031243622 -0.005015517
0.0030069307 0.0051730983 0.00026596658 0.011121214 -0.006497795 -0.0021495179 0.003814183 0.0034089198
-0.0027480933 -0.011019196 -0.008656497 0.11552342 0.0088086575 -0.04737072 0.00092995114 0.010314705
-0.057941467 0.0020183001 -0.010043563 -0.031851012 -0.19620751 0.02282515 0.015987527 0.0062528946
-0.02635609 -0.003359842 -0.03922675 -0.003511655 0.013704394 -0.0014839141 -0.006450006 -0.13758355
0.023776202 -0.01054773 0.00065028877 0.0030392085 -0.118913785 -0.0076252776 0.006826296 -0.009854392
0.037359804 0.029321013 0.013724654 0.08911497 0.014945695 -0.0043898984 5.779315e-05 -0.022480661
0.05739835 0.01594693 0.03915258 0.009834355 0.0026753633 -0.005499151 0.013299241 -0.014128658
-0.0005470063 -0.0026074613 0.00083381275 -0.010938078 0.007168935 -0.04082356 0.015167487 0.00085966603
-0.0042961882 0.029576788 -0.001420926 0.004287448 -0.013032443 0.010865149 0.0005199262 0.00040964043
-0.006262782 -0.014453931 -0.024999596 -0.0022272188 0.031351525 -0.17920044 -0.0005970826 -0.0008624477
-0.13625544 -0.02378948 0.0017032301 -0.091821454 -0.061694626 -0.0032414538 -0.0050287396 0.000560095
-0.0009494787 -0.0042329812 0.008699599 -0.002263962 -0.027765453 0.038759325 -0.021596227 0.0022683104
-0.007333321 -0.033648953 -0.01627905 -0.004464833 -0.038951952 -0.00030572654 0.0006160172 0.007948644
0.01319296 -0.017689256 0.0042904685 -0.0334282 0.00019769624 0.16478902 -0.071696974 0.015881507
0.015619309 0.0031740507 -0.0009665135 0.0066913655 -0.0031989112 -0.00086866465 -0.00039197208 -0.014718208
9.75874e-06 0.0006227516 0.0061946753 -0.0056003686 0.0058991434 -0.0022607178 0.08628327 0.0023241893

model.6.bias f4 [22]
00000000: 4f2d 79bd d054 34bd 9694 6fbd ff12 e43c
00000010: d91e 913d 74fa 8bbd 7580 923d 3a94 b13c
00000020: 6e15 1d3d 2504 12bd 9756 623c 6724 893d
00000030: d4ab 023d 6b85 b8bd 5ef7 bf3d fdc4 a83d
00000040: f06a cabc 81c7 313d 367f 983b 32ba e63a
00000050: 0d74 61bc 2ad8 123d
-0.060834225 -0.044026196 -0.058491312 0.02784109 0.07085962 -0.068348795 0.071534075 0.021677125
0.038350515 -0.035648484 0.01381459 0.06696396 0.03190215 -0.090098225 0.093733534 0.082406975
-0.024709195 0.043403152 0.0046538366 0.0017603098 -0.013760579 0.03585068
