src/RNA/rna_global_model_sbai.pth (torch, 204328 bytes, 8 tensors)

model.0.weight f4 [150, 10]
0	0xbbb12fdf	-0.005407318
1	0xbe585ac0	-0.21128368
2	0x3e280416	0.16407809
3	0x3e5af5e3	0.21382861
4	0xbe8cc6c6	-0.27495402
5	0x3bd198a0	0.006396368
6	0xbd2040e6	-0.039124392
7	0xbcdf9ad8	-0.027295515
8	0x3c646af2	0.013941513
9	0x3e59d7fe	0.212738
10	0xbbd40968	-0.006470848
11	0x3e026943	0.12735467
12	0xbe5004e6	-0.20314369
13	0x3d50e73b	0.05100177
14	0xbe1ea822	-0.15493825
15	0xbd55cdbf	-0.052198168
16	0xbd22b591	-0.039723936
17	0x3d3b3b4c	0.045710847
18	0x3e08bca0	0.13353205
19	0x3e0893a1	0.13337566
20	0x3ac688e8	0.0015147002
21	0xbe88c78a	-0.26714736
22	0x3e19215b	0.1495413
23	0xbe1dcf05	-0.15411003
24	0x3d4dcdfe	0.050245278
25	0xbd37fc6c	-0.044918463
26	0x3db49a8b	0.08818539
27	0xbdad1539	-0.084513135
28	0x3deaae41	0.114590175
29	0xbe1e24c3	-0.15443711
30	0x3c1af4da	0.009457791
31	0x3dbae435	0.09125558
32	0xbb8bf256	-0.004270832
33	0x3ddb7f88	0.10717684
34	0xbe1aa21c	-0.15100902
35	0xbd12b4b7	-0.035816874
36	0x3d573628	0.05254188
37	0xbe03d542	-0.1287432
38	0xbd83828a	-0.06421383
39	0xbc39554a	-0.011311838
40	0xbb31e331	-0.0027143473
41	0xbad70e21	-0.0016407409
42	0xbe58de96	-0.2117866
43	0x3e0ee141	0.13953115
44	0xbeebfe10	-0.46092272
45	0xbd0d38e5	-0.034478087
46	0x3b551016	0.0032510809
47	0x3e086ebf	0.13323496
48	0x3e0a4874	0.13504201
49	0x3e2cd02c	0.16876286
50	0x3ad3b9a7	0.0016153351
51	0x3c853fa0	0.01626569
52	0x3e686143	0.22693352
53	0x3e1b4357	0.15162407
54	0xbe2c21fc	-0.16809839
55	0x3d07a392	0.033114977
56	0xbdfa7c92	-0.12230791
57	0x3d8bd6b9	0.068280645
58	0xbe3e3b7d	-0.1857738
59	0x3dcbf310	0.0995847
60	0xb9d4aef7	-0.0004056615
61	0xbe0c4756	-0.13699088
62	0xbe4ddff3	-0.20104961
63	0x3f023b74	0.5087197
64	0xbe0aee65	-0.13567503
65	0xbdab4a7a	-0.08363815
66	0xbd5ab14f	-0.05339175
67	0x3e5403e3	0.20704608
68	0xbdbf76f7	-0.093488626
69	0x3e210beb	0.15727203
70	0xbbcdbf19	-0.006278884
71	0x3e210618	0.15724981
72	0x3c9637ef	0.018337218
73	0xbcdc87e6	-0.02692027
74	0x3d9b1add	0.07573483
75	0x3dfb79d1	0.12279094
76	0xbd3f4a5d	-0.046701778
77	0xbdca3742	-0.09873821
78	0xbd0bea10	-0.034158766
79	0xbe46d749	-0.19418062
80	0x3ab43aa8	0.0013750391
81	0x3ddf1bfa	0.10894008
82	0x3e3a29d6	0.18180022
83	0x3ea07cb1	0.31345132
84	0x3e25b464	0.16182095
85	0x3e08243e	0.13295075
86	0x3ddf2947	0.10896545
87	0xbec328ee	-0.38117164
88	0x3dcf1c42	0.101128116
89	0xbe6bf12b	-0.23041217
90	0xbc7c9be3	-0.015418026
91	0xbd3e4b72	-0.04645867
92	0x3caa88b1	0.020817133
93	0x3d3fef9d	0.046859372
94	0xbb2e30de	-0.002657942
95	0xbd80cea8	-0.062894166
96	0xbd9eb6c4	-0.077497035
97	0x3bd6a3cd	0.0065502883
98	0xbc2ce655	-0.010552962
99	0x3cf1530f	0.02945855
100	0x3b6405f5	0.003479359
101	0x38e699d2	0.00010995906
102	0x3a5dc402	0.00084596884
103	0xba98e3fd	-0.0011664625
104	0x3974e499	0.00023354813
105	0xbafb6bb6	-0.0019181881
106	0xba20e5ff	-0.0006137788
107	0xbb4577cf	-0.0030131226
108	0x3a386a8e	0.0007034921
109	0xba10b00d	-0.00055193977
110	0xbb0bc811	-0.0021328966
111	0x3c8e1d2a	0.01734789
112	0x3d7c0ca5	0.061535496
113	0xbeaadd52	-0.3337198
114	0xbd894932	-0.06703414
115	0xbbe39dbd	-0.006946294
116	0xbd2aa845	-0.04166438
117	0x3dd2e8a4	0.10298279
118	0x3d82cde1	0.063869245
119	0x3e77cd5b	0.2419943
120	0xbb23fdf6	-0.0025023199
121	0x3e62f0d5	0.22162183
122	0x3e399eb3	0.18126945
123	0xbe898d51	-0.26865628
124	0x3cfbb1de	0.030724462
125	0xbdfc6a3f	-0.12324952
126	0xbd88c262	-0.066777006
127	0x3e9026d4	0.28154624
128	0xbb586784	-0.0033020684
129	0xbd2604d6	-0.040531956
130	0x3b14c023	0.002269753
131	0x3e13eab9	0.14445008
132	0xbd85b521	-0.06528688
133	0x3e824368	0.25442052
134	0xbe6edd63	-0.2332664
135	0x3deb5721	0.11491228
136	0x3dcd70eb	0.10031303
137	0x3dd80070	0.105469584
138	0x3c8d6157	0.01725833
139	0xbbb14862	-0.00541024
140	0x3ae838e7	0.0017717154
141	0x3e1e9925	0.15488108
142	0xbbef4b7c	-0.0073026996
143	0xbe9119dc	-0.28340042
144	0xbe155e9a	-0.14586869
145	0xbd1423b1	-0.03616685
146	0xbd92797e	-0.07152079
147	0xbdce03f5	-0.100593485
148	0x3c07182d	0.00824551
149	0x3dfaa240	0.12237978
150	0x3ba0ab8e	0.0049032634
151	0xbe1028b4	-0.14078027
152	0xbe38316e	-0.17987606
153	0x3c915db8	0.017744884
154	0xbe174d3d	-0.14775558
155	0x3de1e5d4	0.11030164
156	0xbe155e02	-0.14586642
157	0x3db7daed	0.08977304
158	0x3c2523dc	0.01007935
159	0xbdd4ba0f	-0.1038705
160	0xba2cf814	-0.0006598246
161	0xbdeacd9d	-0.11464999
162	0x3e4f6569	0.20253529
163	0xbe0de62f	-0.1385734
164	0xbc7febae	-0.015620155
165	0xbd9216b5	-0.07133237
166	0x3c98486e	0.018589225
167	0x3de83beb	0.113395534
168	0x3e36da23	0.1785665
169	0x3e10c817	0.14138828
170	0xbabdb07b	-0.0014472151
171	0x3c8963ef	0.016771285
172	0x3d32b731	0.043631736
173	0xbe06c7e4	-0.1316219
174	0xbea57e58	-0.32322955
175	0x3c87176d	0.016490662
176	0x3db8785e	0.09007333
177	0xbe6120c4	-0.21985155
178	0x3dfa0868	0.122086346
179	0x3e08213d	0.1329393
180	0xba984a6b	-0.0011618858
181	0x39e7eb35	0.00044234996
182	0x39acbca0	0.00032946933
183	0x39c38ae2	0.00037296774
184	0x38b007cc	8.393786e-05
185	0x39ebb1d4	0.00044955185
186	0xba16108f	-0.00057245133
187	0x398caf2a	0.00026833388
188	0xb9cf6f8e	-0.0003956523
189	0xb882c126	-6.23486e-05
190	0xbbe01c57	-0.006839316
191	0xbe1a678e	-0.15078565
192	0x3ee70c30	0.45126486
193	0xbdaf203f	-0.08551072
194	0x3e96c355	0.29445902
195	0x3c952d5a	0.018210102
196	0x3e72d9f0	0.23715949
197	0xbd593e83	-0.05303813
198	0xbd0103fe	-0.031497948
199	0x3dcaa8d7	0.09895485
200	0xbbd9fcc2	-0.0066524455
201	0x3eb9254c	0.36161268
202	0x3e440f63	0.19146495
203	0x3e1ea4e3	0.15492587
204	0xbe2c2796	-0.16811976
205	0xbd989115	-0.07449547
206	0x3c51dee9	0.012809494
207	0xbe1505c9	-0.14552988
208	0xbd0ac6d5	-0.033881027
209	0x3d7fd5b2	0.062459655
210	0xb9cf413c	-0.0003953072
211	0xbe2ac0f2	-0.16675165
212	0xbdf99789	-0.12187106
213	0x3e9b41a7	0.30323526
214	0xbdea22d6	-0.11432426
215	0xbd614611	-0.05499846
216	0xbc9205b6	-0.017824989
217	0xbe6e7499	-0.23286666
218	0xbc2e06fe	-0.010621784
219	0x3e59238b	0.21204965
220	0xba2bc809	-0.000655294
221	0xbd559e3d	-0.05215286
222	0xbeb511cd	-0.35365143
223	0xbdb332a9	-0.08749897
224	0x3e3f0b19	0.18656577
225	0xbdb7aa5f	-0.089680426
226	0xbd9ee797	-0.07759016
227	0x3e3622f0	0.17786765
228	0x3d95ecfa	0.0732059
229	0xbdba0b76	-0.09084217
230	0x3a0db7b9	0.00054061
231	0xbc0f5ec1	-0.008750618
232	0xbf5c047c	-0.8594434
233	0xbd2a9f4b	-0.04165582
234	0x3d81bfa4	0.06335381
235	0x3c051718	0.008123182
236	0xbc74ac6e	-0.014933689
237	0x3d3ad54f	0.045613583
238	0x3b545c9a	0.0032403828
239	0x3dd30624	0.103039056
240	0xbba81847	-0.005129847
241	0xbc995159	-0.018715547
242	0x3d38d981	0.045129303
243	0xbdb6a548	-0.08918244
244	0xbe0e0904	-0.13870627
245	0x3e33e055	0.17566045
246	0x3dc7d23d	0.09756897
247	0x3d90192d	0.07036052
248	0xbdb7d770	-0.08976638
249	0x3d5a8257	0.053346958
250	0x3bb24024	0.005439775
251	0xbdfe6c9c	-0.12423059
252	0x3e2975ab	0.16548793
253	0xbcbdbcb4	-0.02316127
254	0xbe37adae	-0.17937347
255	0xbd8745d7	-0.06605118

model.0.bias f4 [150]
0	0xbd9f9ef3	-0.07793989
1	0xba393be6	-0.00070661155
2	0x3dd14eeb	0.102201305
3	0xbd2e4436	-0.04254552
4	0xbec03e4e	-0.37547535
5	0x3e12d32b	0.14338367
6	0x3d6576cd	0.0560215
7	0x3e4359b6	0.19077191
8	0x3da1e27a	0.07904525
9	0xbd075f8f	-0.033050116
10	0xb90975eb	-0.00013109266
11	0xbe5b922c	-0.21442479
12	0x3a028e44	0.00049803057
13	0x3d09784d	0.033561993
14	0xbd889141	-0.0666833
15	0x3d11409e	0.035462014
16	0x3e3baa67	0.18326722
17	0x3e2380d5	0.15967114
18	0xb78c19ee	-1.6701375e-05
19	0x3e0e47b0	0.13894534
20	0x3e85a447	0.26101896
21	0x3e58aaeb	0.2115895
22	0x3cd5f74c	0.026118897
23	0xbef59eb8	-0.47972655
24	0x3d8c2897	0.068436794
25	0xbd6ae0ff	-0.05734348
26	0x3bcfde5d	0.0063436464
27	0x3926a021	0.00015890646
28	0x3ad5797b	0.0016286814
29	0x3de2856d	0.11060605
30	0xbe45ac91	-0.1930411
31	0x3e8a4735	0.27007452
32	0x3dcbe9f8	0.099567354
33	0xbe08d992	-0.13364246
34	0x3dda92d5	0.10672537
35	0x3e68dfb4	0.22741586
36	0x3e554943	0.20828728
37	0x3e7659a6	0.24057636
38	0x3e849dbe	0.25901598
39	0x3db9e5bf	0.09077024
40	0xbe60ae21	-0.21941425
41	0xbe3f0253	-0.1865323
42	0x3ea7d140	0.32776833
43	0x3d4d16d8	0.050070614
44	0x3d7135f3	0.05888934
45	0xbce20d64	-0.027594276
46	0xbe6b5f26	-0.22985515
47	0xb9b9a2ea	-0.0003540733
48	0xbe465762	-0.19369271
49	0x3d85ae28	0.06527358
50	0x3e016e57	0.12639748
51	0x3dfe154c	0.12406406
52	0x3d895147	0.067049555
53	0xbe3fd712	-0.18734387
54	0xbe302ad7	-0.17203842
55	0x3d079560	0.03310144
56	0xbe401e9b	-0.18761675
57	0xbe259375	-0.16169532
58	0xbda08779	-0.07838339
59	0xbef4966a	-0.47771007
60	0x3e532b48	0.20621979
61	0x3e1d8d12	0.15385845
62	0xbdb5d8a8	-0.088792145
63	0xbec4f61d	-0.3846902
64	0xb98837db	-0.00025981557
65	0xbe45f3be	-0.19331262
66	0xbe1ac93e	-0.1511583
67	0xbeac46b7	-0.336477
68	0x3e17a90b	0.14810579
69	0x3d921c77	0.071343355
70	0x3d459204	0.048234954
71	0xbe366cd2	-0.17814949
72	0xbed206d1	-0.41020826
73	0x3ce5956a	0.028025348
74	0xb7b124fe	-2.111727e-05
75	0x3ead1d27	0.33811304
76	0xbf0839d1	-0.5321322
77	0x3e56a7e8	0.20962489
78	0x3e3289ba	0.17435351
79	0x3e37137e	0.1787853
80	0x3e70a3a2	0.23499921
81	0x3e288526	0.16457042
82	0x3e419e3f	0.18908022
83	0x3cf7c7e8	0.03024669
84	0x3d7fb44b	0.0624278
85	0x398f87a3	0.00027376143
86	0x3e69f489	0.22847189
87	0x3e795b5b	0.24351256
88	0xbe1f1dec	-0.15538758
89	0x3e0ef9aa	0.13962427
90	0x3e8d80f7	0.27637455
91	0x3d994808	0.07484442
92	0x3d85bc27	0.06530028
93	0xbdc50e4b	-0.09621867
94	0xbe3501e1	-0.17676498
95	0xbda629ee	-0.08113466
96	0x3dc9f445	0.09861044
97	0x3ecb6a8b	0.39729723
98	0x3dc7878b	0.0974265
99	0xbdc2e8c9	-0.095170565
100	0xbe33fd07	-0.17576991
101	0xbe2fc705	-0.17165764
102	0x392992a2	0.00016171721
103	0xbdb293a5	-0.08719567
104	0xbe275a89	-0.1634313
105	0x3d8ab3e6	0.06772594
106	0xbe80d20e	-0.2516026
107	0xbe8b632b	-0.27224097
108	0xbe9b7944	-0.30365956
109	0xbe662bd8	-0.22477663
110	0xbeaf83aa	-0.3428014
111	0xbd906b44	-0.07051709
112	0xbea1dc44	-0.31613362
113	0xbe05700a	-0.13031021
114	0xbe646eef	-0.22307943
115	0xbe304ba7	-0.17216359
116	0xbf039ec8	-0.51414156
117	0x3e58e48f	0.21180938
118	0xbd950683	-0.07276633
119	0xbe9e0359	-0.3086193
120	0x3dcc4b4d	0.099753
121	0x3e0d7f18	0.13818014
122	0xbe6079ea	-0.21921507
123	0xb96960f3	-0.00022256728
124	0xbebbc3dd	-0.3667287
125	0xbec6059e	-0.3867616
126	0x3ab454aa	0.0013758142
127	0x3e64b481	0.22334482
128	0xbda8e388	-0.08246523
129	0xbe9a937c	-0.30190647
130	0xbb4583c1	-0.0030138346
131	0x3d9ae18d	0.07562552
132	0xbd8bfbdf	-0.0683515
133	0x3d69d46d	0.05708735
134	0xbe1b2de1	-0.1515422
135	0x3dcd7237	0.100315504
136	0xbdd7bb59	-0.105337806
137	0xbd27f8b1	-0.041008655
138	0xbe5c8d16	-0.21538195
139	0x3e342765	0.17593153
140	0xbda90f17	-0.08254831
141	0x3e056a71	0.13028885
142	0xbd687e9b	-0.056761365
143	0x3e91a96e	0.28449577
144	0x3d2c876f	0.042121347
145	0xbe0283b4	-0.12745553
146	0xbe3b65a9	-0.18300499
147	0xbe45cccf	-0.1931641
148	0xbe331b49	-0.17490877
149	0x3f236134	0.63820195

model.2.weight f4 [150, 150]
0	0xbdd8e62c	-0.10590777
1	0xbec630ea	-0.38709193
2	0xbe8ed87d	-0.27899542
3	0x3ddbc773	0.10731401
4	0x3e6f0bbe	0.23344323
5	0x3c9ba2ef	0.018998591
6	0xbcc13f23	-0.023589676
7	0xbd77bb37	-0.060481276
8	0xbdb5a65e	-0.08869623
9	0x3e77004b	0.24121206
10	0x3d9e9f26	0.07745199
11	0x3e8d3df2	0.27586323
12	0x3c2a93e7	0.010411239
13	0xbdd021d3	-0.101627015
14	0xbe1836db	-0.14864676
15	0xbe19791c	-0.14987606
16	0xbe5dfdd5	-0.2167886
17	0x3d953d47	0.07287078
18	0xbc0df456	-0.008664211
19	0xbd18086f	-0.037117418
20	0xbcc88af0	-0.024480313
21	0x3e29acbd	0.165698
22	0xbd6247e8	-0.055244356
23	0xbd34c924	-0.044137135
24	0xbeb42898	-0.3518722
25	0xbdd13ad8	-0.10216302
26	0xbc0c25ac	-0.008553904
27	0x3b8e6d7c	0.0043465476
28	0x3d4bf2b1	0.049791995
29	0xbe3f1e31	-0.18663861
30	0xba90def6	-0.0011052776
31	0xbd9d2cd9	-0.0767457
32	0x3bac75cc	0.005263066
33	0x3df7283a	0.120682195
34	0xbe49473d	-0.19656081
35	0xbc9377ad	-0.018001402
36	0x3dfe44df	0.1241548
37	0xbe2f7904	-0.17136008
38	0x3db0f9af	0.08641373
39	0xbe0a0f85	-0.13482483
40	0xbdf1be6d	-0.11803899
41	0x3e280f23	0.16412024
42	0x3e1b86f8	0.15188205
43	0x3e31d968	0.1736809
44	0x3b4c9111	0.0031214396
45	0xbddcbbaf	-0.10777985
46	0xbdfce54b	-0.12348422
47	0xbdaa7ac0	-0.08324194
48	0x3ddd711b	0.10812589
49	0x3d903cfb	0.07042881
50	0x3e030f5e	0.12798831
51	0x3e8273f0	0.25479078
52	0x3e34617e	0.17615315
53	0x3b9f0506	0.0048528938
54	0x3ca3f8a4	0.020016022
55	0x3d54046c	0.05176203
56	0x3e24aea7	0.1608225
57	0xbdb3e243	-0.087833904
58	0xbd71b110	-0.05900675
59	0xbe45287f	-0.1925373
60	0x3c88ce66	0.016699981
61	0xbe612569	-0.21986927
62	0x3e26d8c8	0.16293633
63	0xbd305f82	-0.043059833
64	0xbbb15e25	-0.005412834
65	0x3db3c664	0.087780744
66	0x3cad1be9	0.021131473
67	0x3d572c41	0.05253244
68	0xbd6225db	-0.055211883
69	0xbcd51975	-0.026013115
70	0x3e14714b	0.14496343
71	0xbdb20300	-0.086919785
72	0xbd257397	-0.04039344
73	0xbc8f348a	-0.017481107
74	0x3c5b14b7	0.013371638
75	0xbdb50c46	-0.088402316
76	0xbc0a3fc5	-0.008438055
77	0xbe5172fe	-0.20454022
78	0xbe315400	-0.173172
79	0xbda56809	-0.08076484
80	0xbdd95c7e	-0.106133446
81	0xbe43f5cd	-0.19136734
82	0x3ca5a3e9	0.02021976
83	0xbe06bab5	-0.1315716
84	0xbe47df57	-0.19518791
85	0x3c026b5a	0.007960165
86	0x3d31f813	0.043449473
87	0xbe382caf	-0.17985795
88	0x3dae1d43	0.08501675
89	0x3dbdb709	0.09263427
90	0x3cf3f036	0.029777627
91	0x3d9012cb	0.070348345
92	0xb9ff2616	-0.00048665766
93	0xbda1229a	-0.07867928
94	0x3a83e77e	0.0010063497
95	0x3d2d6360	0.0423311
96	0x3e077f37	0.13232122
97	0xbd113c0f	-0.035457667
98	0xbd9e72f9	-0.07736773
99	0x3dc86ce8	0.09786397
100	0xbd6a0598	-0.05713424
101	0xbdca95e5	-0.09891871
102	0xbaea8621	-0.0017892757
103	0x3dd9458f	0.106089704
104	0x3dbb652d	0.09150157
105	0x3d1766e4	0.03696336
106	0xbe4f4b5f	-0.20243596
107	0x3e67a506	0.22621545
108	0x3e339895	0.17538674
109	0xbe0a2377	-0.13490091
110	0xbd1a4b2c	-0.037669346
111	0x3e3ba13e	0.18323228
112	0x3e404532	0.18776396
113	0xbdb6a93b	-0.08918997
114	0x3d83806a	0.064209774
115	0xbcaddb03	-0.021222597
116	0xbe02b27a	-0.12763396
117	0xbd58ae64	-0.052900687
118	0x3d7ebe8d	0.062193442
119	0xbe84e67f	-0.25957105
120	0xbd163ad5	-0.0366772
121	0xbe19857c	-0.14992326
122	0x3e1055a5	0.14095171
123	0x3b3f48b1	0.0029187615
124	0x3d054278	0.032534093
125	0xbe5f228c	-0.21790522
126	0x3d64d7d3	0.05586989
127	0xbdf382e7	-0.11890202
128	0xbdba4b96	-0.09096448
129	0x3e50c6ab	0.20388286
130	0x3d754a8a	0.05988554
131	0xbd3e4372	-0.04645104
132	0xbd21802e	-0.039428882
133	0xbd355a1b	-0.044275384
134	0xbe633d8b	-0.22191446
135	0xbe624b47	-0.22099029
136	0x3e421319	0.18952598
137	0xbd66b78d	-0.05632739
138	0x3bf94291	0.0076068123
139	0x3d9dfaa2	0.0771382
140	0xbe5a8510	-0.21339822
141	0x3e27c207	0.1638261
142	0x3e342e5a	0.17595807
143	0xbd4f53e4	-0.050617114
144	0x3e02850b	0.12746064
145	0x3d1a7142	0.037705667
146	0x3d3aa6d7	0.045569267
147	0x3e20dbb8	0.15708816
148	0x3b1aaf88	0.002360316
149	0x3ce306b7	0.027713163
150	0xbe9bac51	-0.30404904
151	0x3e532d7c	0.2062282
152	0xbd0e5cec	-0.034756586
153	0x3e0666f6	0.13125214
154	0xbea073c4	-0.31338322
155	0x3d4f534c	0.050616547
156	0xbf8fa045	-1.1220785
157	0xbe094cb1	-0.13408162
158	0xbf03c4d3	-0.51472205
159	0x3dab200e	0.08355723
160	0xbd7257da	-0.059165813
161	0xbd8c959f	-0.068644755
162	0xbeb6aaf7	-0.3567731
163	0xbd87f157	-0.06637829
164	0xbea60b52	-0.32430512
165	0xbc986d2c	-0.018606745
166	0x3e644b7a	0.22294417
167	0x3d054839	0.03253958
168	0x3b10a123	0.0022068701
169	0xbe11035c	-0.14161438
170	0xbcf18f37	-0.029487235
171	0xbd089495	-0.033344824
172	0x3dbad33a	0.091223195
173	0x3c7597c0	0.014989793
174	0xbd1b27a3	-0.037879597
175	0xbcb124c3	-0.021623975
176	0x3e1235fc	0.14278406
177	0xbaf17995	-0.0018423075
178	0x3d690cb0	0.056896865
179	0x3db59c39	0.08867688
180	0x3cf502b2	0.029908512
181	0x3e4eb543	0.20186333
182	0x3badef5f	0.0053080763
183	0xbccf8cca	-0.025335688
184	0xbd6a2e90	-0.05717331
185	0xbde2e491	-0.11078752
186	0xbe87b02c	-0.26501596
187	0x3ddb48a0	0.107072115
188	0xbdd1e488	-0.10248667
189	0x3e76a3e0	0.24085951
190	0xbda6c2ed	-0.08142648
191	0xbe4a2d43	-0.19743828
192	0x3d50c792	0.050971575
193	0x3e243e01	0.16039278
194	0xbe017334	-0.12641603
195	0x3bde5580	0.0067850947
196	0xbdc79b4e	-0.09746419
197	0xbd9cfc2a	-0.07665284
198	0x3e4d925b	0.20075361
199	0xbc8e5f4a	-0.017379422
200	0x3e4af0d2	0.19818428
201	0x3cb0c7d3	0.021579659
202	0x3be4257d	0.0069624768
203	0xbdb147fa	-0.086563066
204	0x3ce27f2f	0.027648536
205	0xbd9484a0	-0.07251859
206	0x3cbbd526	0.022928786
207	0x3e300827	0.1719061
208	0xbca6d470	-0.02036497
209	0xbdf8badf	-0.12145018
210	0xbd3a9c50	-0.045559227
211	0xbe343621	-0.17598774
212	0x3cb2a8c2	0.021808986
213	0xbde34ee2	-0.1109903
214	0x3af1b7f2	0.0018441661
215	0x3e3e6b74	0.18595678
216	0x3d8685d0	0.065684915
217	0xbd78f66f	-0.060781892
218	0xbe16e302	-0.14735034
219	0x3cabd265	0.020974347
220	0xbdd8f60e	-0.10593806
221	0x3c5f9b99	0.013647937
222	0xbe271c76	-0.1631945
223	0xbe0dd7de	-0.13851878
224	0x3b10d9b3	0.0022102415
225	0x3e7b614b	0.24548833
226	0x3e13e2d9	0.14442004
227	0xbe659c14	-0.2242282
228	0x3939715c	0.00017685205
229	0x3db50d60	0.08840442
230	0x3e76fdb3	0.24120216
231	0x3d5e5ecd	0.054289628
232	0xbc58d2ce	-0.0132338535
233	0x3e87abf5	0.2649838
234	0xbe069f29	-0.13146652
235	0x3b90acb0	0.004415117
236	0x3e1bd861	0.15219261
237	0xbca7b175	-0.02047036
238	0xbdfd4af7	-0.12367814
239	0xbeb9fee2	-0.36327273
240	0xbbb04a69	-0.005379964
241	0x3d60d554	0.054890946
242	0xbbcf4870	-0.006325774
243	0xbc88e94b	-0.016712805
244	0x3d9ead4d	0.07747898
245	0x3ebe1fb7	0.37133572
246	0xbd48d9c7	-0.049035814
247	0x3d59ca82	0.053171642
248	0x3da4f3f2	0.080543414
249	0xbddb8337	-0.107183866
250	0x3d387c9b	0.045040708
251	0xbd8d2196	-0.06891172
252	0xbb2dd051	-0.0026521871
253	0x3dda8b9a	0.10671158
254	0xbe1b1c87	-0.15147601
255	0x3d72079f	0.0590893

model.2.bias f4 [150]
0	0x3eb7743a	0.3583086
1	0xbe33ef3c	-0.1757173
2	0x3dce81cd	0.10083351
3	0xbdcd533b	-0.100256406
4	0x3df85d5d	0.12127183
5	0x3e240459	0.16017283
6	0xbd26e777	-0.040748086
7	0xbde3262d	-0.11091266
8	0xbe3588c7	-0.17727958
9	0x3e247eba	0.16063967
10	0xbe62132c	-0.22077626
11	0x3c8e9196	0.017403405
12	0x3dd18144	0.102297336
13	0xbde20f14	-0.11038032
14	0x3d826f87	0.063689284
15	0x3d3691a9	0.044572506
16	0xbc823fd7	-0.015899582
17	0x3e3677ed	0.17819186
18	0xbf145449	-0.5794111
19	0x3eb478e1	0.35248473
20	0xbdf7f521	-0.121073015
21	0x3e02a897	0.12759624
22	0xbe1348f1	-0.14383294
23	0xbddcf1dc	-0.107883185
24	0x3d85f0ed	0.065400936
25	0xbea71990	-0.3263669
26	0x3dd612c7	0.104528
27	0xbe953d75	-0.2914845
28	0x3c8deea9	0.017325716
29	0xbcbda3ed	-0.023149455
30	0xbb7c2102	-0.0038471823
31	0x3d7a625e	0.061128967
32	0x3e52ff78	0.20605266
33	0xbd9e4b4f	-0.07729208
34	0xbdcf96c5	-0.10136179
35	0xbe09dd1a	-0.1346325
36	0xbdca3ce0	-0.09874892
37	0x3e9f2b1c	0.31087577
38	0xbe2b82fe	-0.16749188
39	0x3e2971d1	0.16547324
40	0xbcdfde81	-0.027327778
41	0x3e33751c	0.17525142
42	0xbea7ebdb	-0.3279713
43	0xbcb8a8ec	-0.022541486
44	0xbf0e9c35	-0.55707103
45	0x3cf78785	0.030215988
46	0x3de0d697	0.1097843
47	0xbe01d879	-0.12680234
48	0xbec8eeca	-0.39244682
49	0x3c85fd02	0.016355995
50	0x3e03ec57	0.12883125
51	0xbebefa0d	-0.3730015
52	0x3d949dde	0.07256673
53	0xbcbaab7f	-0.022786854
54	0xbb0dbe53	-0.0021628335
55	0xbdc15083	-0.094391845
56	0x3ee4fa13	0.4472204
57	0x3e1ec20c	0.1550371
58	0x3f0645bd	0.5245016
59	0xbdaa7a7f	-0.083241455
60	0x3d81f3af	0.06345307
61	0x3d6fd22d	0.05855005
62	0x3e522b3f	0.2052431
63	0x3cde71f1	0.02715394
64	0xbe794698	-0.24343336
65	0xbd380f1a	-0.044936277
66	0xbcc50c38	-0.024053678
67	0xbe8616bf	-0.2618923
68	0xbe799f65	-0.2437721
69	0xbe908d95	-0.2823302
70	0xbe7bc77a	-0.24587813
71	0xbef01070	-0.4688754
72	0xbd7b85f0	-0.06140703
73	0xbc263c7a	-0.010146255
74	0xbc1344c0	-0.008988559
75	0xbefb777f	-0.49114606
76	0x3e2cf63e	0.16890809
77	0x3f003966	0.50087583
78	0x3ea59b9f	0.32345292
79	0xbdef9e8b	-0.117001615
80	0xbe9369ea	-0.28791744
81	0x3e3a0e25	0.18169458
82	0x3d68cfef	0.056838926
83	0x3ea9b6f3	0.33147392
84	0xbddb3d74	-0.10705081
85	0xbe3a8967	-0.18216477
86	0x3ddd9aa0	0.10820508
87	0x3b4738d7	0.003039887
88	0x3f167d3c	0.5878484
89	0xbe12aff2	-0.1432493
90	0x3d1bd02c	0.038040325
91	0x3d94515d	0.07242081
92	0xbe473fda	-0.19457951
93	0xbd6134bb	-0.05498193
94	0xbe07db15	-0.13267167
95	0xbe5b0b65	-0.21391065
96	0xbecb1c54	-0.3967005
97	0x3e14a797	0.14517055
98	0x3e79b417	0.24385105
99	0xbd694c9d	-0.05695783
100	0xbe8fa3c0	-0.2805462
101	0x3d0b5a6f	0.03402179
102	0x3dbda918	0.09260768
103	0xbe5ddf0b	-0.21667115
104	0x3c8c04f2	0.017092202
105	0x3d32ee66	0.043684386
106	0xbd5a3f23	-0.053282868
107	0x3e6e229c	0.2325539
108	0xbe12eeb2	-0.14348868
109	0x3e0c74f2	0.13716486
110	0x3e488df8	0.19585407
111	0xbd20ea5f	-0.039286014
112	0xbd8940a6	-0.06701784
113	0xbda4799f	-0.0803101
114	0x3da47c4f	0.080315225
115	0xbe3cca5b	-0.18436567
116	0xbe31131c	-0.17292446
117	0x3e6ceb70	0.23136687
118	0x3d0753e8	0.033039004
119	0xbe09821d	-0.1342854
120	0x3df5c03e	0.11999558
121	0xbf291286	-0.6604389
122	0xbeb99cc3	-0.36252412
123	0x3ec5927c	0.3858832
124	0x3e83cddd	0.25743
125	0xbd494f37	-0.04914781
126	0xbd7f8fea	-0.062393107
127	0x3ebcd34e	0.36879963
128	0x3d7e15ef	0.062032636
129	0xbe7aa6d7	-0.24477707
130	0xbeb50599	-0.35355833
131	0x3e9dd89d	0.30829325
132	0x3ec86339	0.391382
133	0x3e9b421f	0.30323884
134	0x3d24a08a	0.040192164
135	0x3dac2a32	0.084064856
136	0xbc623765	-0.013807152
137	0x3e9e85a4	0.30961335
138	0xbe9edcbf	-0.3102779
139	0x3dfa70bf	0.12228536
140	0x3e9e3e76	0.3090703
141	0x3ec832f8	0.39101386
142	0x3e82c881	0.25543597
143	0xbbbab4c3	-0.005697818
144	0x3d5bb6cf	0.053641137
145	0x3d7193f7	0.058979
146	0xbdd0caa4	-0.10194901
147	0xbec969d8	-0.39338565
148	0xbcf00b07	-0.029302133
149	0xbe7fa991	-0.24967028

model.4.weight f4 [150, 150]
0	0x3c62c54d	0.0138409855
1	0x3a9e67ba	0.0012085356
2	0xbbd9595c	-0.006632967
3	0x3b205662	0.002446555
4	0x3ba84e9f	0.0051363255
5	0xbba57731	-0.005049609
6	0x3ce54a53	0.027989542
7	0x3ce4f8dd	0.027950699
8	0xbc9bd06b	-0.01902028
9	0xbd0ef16a	-0.0348982
10	0x3ae44d54	0.0017418065
11	0xbab34aee	-0.0013678947
12	0xbbb586a1	-0.0055397307
13	0xbc76949c	-0.01505008
14	0xbaac913e	-0.0013165844
15	0x3cc7ad46	0.024374615
16	0xbb96a34a	-0.0045971023
17	0xbbad4214	-0.005287418
18	0xbcacbfcb	-0.021087548
19	0x3ab22156	0.0013590257
20	0x3b3489c7	0.0027547942
21	0x3be3e74d	0.0069550634
22	0xbbf59b33	-0.007495308
23	0x3bcf2b03	0.006322266
24	0x3c1fdd44	0.009757344
25	0xbc32ef42	-0.010921301
26	0xba97dea2	-0.0011586735
27	0xbc65300a	-0.013988504
28	0x3c6e3175	0.014538159
29	0x3c9bb3d4	0.019006647
30	0x3d65a482	0.05606509
31	0xbcbac40f	-0.022798566
32	0xbcae2751	-0.021258982
33	0x3bfa26ed	0.007634035
34	0xbd2566e0	-0.040381312
35	0x3b214197	0.0024605745
36	0xbc7cd445	-0.015431468
37	0x3c012001	0.0078811655
38	0x3acc2b07	0.0015576788
39	0x3c3f85d4	0.011689622
40	0x3bf3279e	0.007420494
41	0x3b031f97	0.0020007843
42	0x3c60b7ee	0.013715727
43	0xb9f2e245	-0.0004632642
44	0xbae3880f	-0.0017359274
45	0x39c98528	0.00038436917
46	0x3c044857	0.008073888
47	0xbb02fd8b	-0.001998755
48	0x3ccfee45	0.02538217
49	0x3a1ab83c	0.0005902087
50	0xbbd5bf58	-0.006523054
51	0xbc185d10	-0.009299532
52	0xbcb9d636	-0.022685152
53	0xbc828ad8	-0.015935346
54	0x3ab20daa	0.0013584394
55	0xbc9ac932	-0.018894766
56	0x3c2095fb	0.009801383
57	0x3c7b54ec	0.015340071
58	0xbba1e894	-0.0049410556
59	0xbc973e12	-0.018462215
60	0xbb201f80	-0.0024432838
61	0x3c161dee	0.009162409
62	0x3c68ee43	0.014216962
63	0xbbbaef5f	-0.005704805
64	0x3bd3eaf1	0.006467216
65	0x3d3f8947	0.046761777
66	0xba87b697	-0.0010354099
67	0x3b4b18e8	0.0030990187
68	0xbc0696a3	-0.0082146255
69	0x3c21e929	0.00988225
70	0x3b6c4b81	0.0036055746
71	0x3ac899a4	0.0015304578
72	0x3d506d7a	0.050885655
73	0xb8c29f2a	-9.2802875e-05
74	0x3c326049	0.010887214
75	0xbcde907a	-0.027168501
76	0x3ce133f5	0.027490595
77	0xbb987348	-0.0046524145
78	0xbc91d604	-0.017802246
79	0xba3edbf3	-0.00072807
80	0xba8d42b0	-0.0010777321
81	0x3cbf3017	0.02333836
82	0x3cbe1d8d	0.02320745
83	0x3c165397	0.009175203
84	0xbbf4fcd7	-0.00747643
85	0x3c25988a	0.010107169
86	0x3b420a9e	0.002960838
87	0x3c119405	0.008885388
88	0xbb328fc4	-0.0027246336
89	0xbc1a3a3b	-0.009413297
90	0x3c10deb8	0.008842163
91	0x3b52d34e	0.0032169404
92	0x3bbd683b	0.0057802475
93	0xb9925d2c	-0.00027916708
94	0x3c7cbafc	0.01542544
95	0xbb48f2fe	-0.0030662413
96	0xbc4e245b	-0.01258191
97	0xba9c094d	-0.0011904627
98	0xbc72a7bc	-0.014810499
99	0xbb9e34c4	-0.0048280675
100	0xbc494d8d	-0.012286556
101	0x3cd24f9e	0.02567273
102	0xba8e354c	-0.0010849624
103	0x3a8a9732	0.0010573624
104	0xbb77ac73	-0.0037791997
105	0x3c83fb6f	0.016111104
106	0xbab5248e	-0.0013820098
107	0xbbf5383a	-0.0074835094
108	0x3a241487	0.00062591623
109	0xbbb8a3c1	-0.0056347554
110	0xbb4044bc	-0.0029337844
111	0xbb2013ba	-0.002442582
112	0x3d2c35dd	0.042043556
113	0x3b864fed	0.0040988834
114	0x3c0db607	0.008649356
115	0x3d0a3569	0.033742342
116	0x3b5cc16a	0.003368462
117	0x3b83b52a	0.004019399
118	0xbc6074db	-0.0136997355
119	0x3be9df90	0.0071372464
120	0xbc085dc8	-0.00832314
121	0x3dab6426	0.08368711
122	0xbca49dd1	-0.020094784
123	0x3c1bc596	0.009507557
124	0xb86bee66	-5.6250392e-05
125	0xbc1ca47a	-0.009560699
126	0x39d25f96	0.00040125538
127	0xbd5bdd87	-0.05367806
128	0x3abf3cc9	0.0014590259
129	0xbbe8611f	-0.007091656
130	0x3bb35d0f	0.00547374
131	0x3c3baddc	0.0114550255
132	0xbbba9e38	-0.0056951307
133	0xbc7aacbc	-0.015299972
134	0x3bca6d03	0.006177546
135	0x3c4bc158	0.012436233
136	0xbaef78ed	-0.0018270292
137	0x3a9bcfd0	0.0011887494
138	0xbc27f587	-0.010251409
139	0x3c39e563	0.011346194
140	0xbadd93ad	-0.0016904973
141	0x3a9cba59	0.0011957391
142	0x3c513d33	0.012770939
143	0x3b191b81	0.002336234
144	0xbb67ef33	-0.0035390377
145	0xbc880148	-0.016602173
146	0x3c0d15bd	0.00861114
147	0xbc2e4e17	-0.010638735
148	0x3c72637f	0.0147942295
149	0x3b197e54	0.0023421245
150	0x3c2bd930	0.010488793
151	0xbd0d3a29	-0.034479294
152	0xbbaf077d	-0.005341469
153	0xbb6477f2	-0.0034861532
154	0xbe6e86c8	-0.23293602
155	0x3d4798cd	0.048729707
156	0x3d3e84c9	0.046513353
157	0xbe107d42	-0.14110282
158	0x3cea9c50	0.028638989
159	0xbd807160	-0.062716246
160	0xbb17fbc9	-0.0023190847
161	0x3d8f1994	0.069873005
162	0x3c2a632a	0.010399619
163	0xbdb77b24	-0.08959034
164	0x3b4bd5c5	0.0031102758
165	0xbcd44e61	-0.02591628
166	0x3d3dda0a	0.046350516
167	0xbace7d46	-0.0015753887
168	0x3d9e89e8	0.07741147
169	0x3cca84d4	0.02472154
170	0x3b81c932	0.003960752
171	0xbb039753	-0.002007921
172	0xbc8cc887	-0.017185463
173	0x3e4dbd75	0.20091803
174	0x3d1f1deb	0.03884689
175	0xbd0040e4	-0.031311885
176	0xbbcc9110	-0.0062428787
177	0x3bc1e1bd	0.0059168027
178	0xbbd7205d	-0.0065651373
179	0xbe8d52d6	-0.2760226
180	0xbd612755	-0.05496915
181	0xbb354895	-0.002766167
182	0x3d1aa710	0.03775698
183	0x3c8c7ad2	0.017148409
184	0x3ba1d1ad	0.0049383254
185	0x3f04d261	0.5188351
186	0x3b8ac0e3	0.0042344197
187	0x3b1b5004	0.0023698816
188	0x3b984496	0.004646848
189	0x3d93b670	0.072125316
190	0x3cb08795	0.021549026
191	0xbbbbc560	-0.005730316
192	0x3b978cde	0.004624947
193	0xbaf97e80	-0.0019034892
194	0xbd3b546f	-0.04573482
195	0x3dddc89d	0.108292796
196	0x3d9d7569	0.0768841
197	0xbd408b66	-0.04700794
198	0xbdbfc500	-0.09363747
199	0x39257d41	0.00015782287
200	0xbc127f59	-0.008941495
201	0x3bc83580	0.0061098933
202	0xbd835a8e	-0.06413756
203	0xbbbf3b18	-0.005835902
204	0xbb365b61	-0.0027825462
205	0x3bba0ae6	0.0056775687
206	0x3d9effd3	0.07763638
207	0xbac554f1	-0.0015055222
208	0x3e0cd801	0.13754274
209	0xbd935520	-0.07193971
210	0xbe83c5ad	-0.25736752
211	0xbb074bf0	-0.0020644628
212	0xbc8309f1	-0.015995951
213	0x39dc4d21	0.00042019135
214	0x3b26c566	0.0025447248
215	0xbcd584bb	-0.026064267
216	0xbc3725d6	-0.011178454
217	0x3dc3a4c9	0.09552915
218	0xbcf79f39	-0.03022729
219	0x3c9cadad	0.019125784
220	0x3b0350bd	0.0020037137
221	0xbe72670c	-0.23672122
222	0x3d17a8cc	0.03702621
223	0xbc7278ec	-0.014799338
224	0x3e4e5cf1	0.20152642
225	0xbc4adf10	-0.012382284
226	0x3c4aa899	0.012369298
227	0x3b95c48b	0.004570549
228	0x3ca3e212	0.02000526
229	0xbb77d982	-0.0037818854
230	0xbd88e6c5	-0.06684641
231	0x3bc97d08	0.006148938
232	0xbb9083c4	-0.004410239
233	0xbce69050	-0.028144985
234	0xbcbbcc18	-0.022924468
235	0x39eeeb6e	0.00045570306
236	0xbdcd202d	-0.10015903
237	0xba6c35d5	-0.0009010707
238	0x3d7255f2	0.059163995
239	0x3c2dc655	0.010606368
240	0xbd45c94f	-0.048287686
241	0x3a3f0c46	0.00072879007
242	0xbc6fc26b	-0.014633755
243	0x3eb08683	0.34477624
244	0xbd8ebd3a	-0.06969686
245	0x3cff1687	0.031138672
246	0xbd066629	-0.03281227
247	0xbda385d7	-0.07984512
248	0x3d09bd08	0.03362754
249	0x3ac4d7db	0.0015017943
250	0xbdcdb851	-0.10044921
251	0xbc824ca8	-0.015905693
252	0xbc2a0439	-0.010376983
253	0x3a558f9e	0.0008146706
254	0x3c915303	0.017739778
255	0xbc9a1172	-0.018807147

model.4.bias f4 [150]
0	0x3db4dddd	0.088313796
1	0x3d15d239	0.036577437
2	0x3d422c24	0.047405377
3	0x3c9ee32b	0.019395432
4	0x3d5bcc38	0.053661555
5	0x3d7e33a9	0.062060986
6	0x3d5ae061	0.05343664
7	0xbd9a70fa	-0.0754108
8	0x3e06ae4a	0.13152424
9	0xbe7efaed	-0.24900408
10	0x3e6283ed	0.22120638
11	0xbe5db10c	-0.2164957
12	0xbd65894b	-0.056039136
13	0xbcbc25eb	-0.0229673
14	0xbdb77790	-0.089583516
15	0x3d911fa1	0.07086111
16	0x3c68f2fe	0.01421809
17	0xbda4372a	-0.08018334
18	0x3c612550	0.013741806
19	0xbd2d8163	-0.04235972
20	0x3e5b54de	0.21419093
21	0xbd51e306	-0.051241897
22	0x3e2d32a8	0.16913855
23	0x3da42cfa	0.08016391
24	0xbe01959d	-0.12654729
25	0x3dc96548	0.09833771
26	0x3b119e89	0.0022219738
27	0x3dc4ea20	0.09614968
28	0x3e4a5a47	0.19761
29	0x3afa822b	0.0019112279
30	0xbe314a60	-0.17313528
31	0x3e94764e	0.2899651
32	0xbd908b17	-0.07057779
33	0x3e437305	0.19086845
34	0xbda2804a	-0.079346254
35	0x3d7bd317	0.061480608
36	0xbeac0f3e	-0.3360538
37	0xbe84c26b	-0.2592958
38	0xbdcf3aa2	-0.10118605
39	0x3d064379	0.03277919
40	0x3e137527	0.14400159
41	0x3dc92729	0.09821922
42	0xbdd3d867	-0.1034401
43	0xbd31fa76	-0.04345175
44	0x3db7e8a4	0.089799196
45	0xbe0752e6	-0.13215217
46	0xbb99e073	-0.004695946
47	0xbd5f6f8f	-0.05454975
48	0xbd132e30	-0.03593272
49	0x3ccea77a	0.025226343
50	0x3ca74776	0.020419817
51	0xbe28e3b6	-0.16493115
52	0xbd3d7826	-0.04625716
53	0xbceb42b3	-0.028718328
54	0x3e3f041b	0.1865391
55	0x3a32d101	0.0006821305
56	0x3d69a84c	0.057045266
57	0x3dde0542	0.108408466
58	0x3dfd6a2f	0.123737685
59	0xbd73d03c	-0.05952476
60	0x3edf763d	0.43644896
61	0xba13d343	-0.00056390854
62	0xbea0dfa4	-0.31420624
63	0x3d99ef25	0.07516316
64	0xbd9a656d	-0.07538877
65	0x3d62624e	0.055269532
66	0x3d9d58f5	0.07682983
67	0xbe13ac2f	-0.14421152
68	0xbdf02d87	-0.11727434
69	0x3d62421c	0.055238828
70	0x3d005d7a	0.031339146
71	0x3d6d469e	0.057928674
72	0x3e38b868	0.18039095
73	0x3c41a480	0.011819005
74	0x3d56d713	0.052451205
75	0x3caa9ed7	0.020827694
76	0xbd3dbb8c	-0.046321437
77	0xbd7108aa	-0.058846153
78	0x3d618d82	0.055066593
79	0xbe8e9ac3	-0.2785245
80	0xbd7a60aa	-0.061127342
81	0x3cafcaaf	0.021458952
82	0xbe0e0b6b	-0.13871543
83	0xbe038914	-0.1284526
84	0x3df950e0	0.12173629
85	0xbc1ecf49	-0.009692975
86	0x3f139a8f	0.5765771
87	0x3d88d226	0.06680708
88	0x3acef45c	0.0015789378
89	0xbe5f3f2c	-0.21801442
90	0x3e4ae2b9	0.1981305
91	0xbe80e498	-0.25174403
92	0x3d997650	0.074932694
93	0x3d2a2b74	0.041545346
94	0x3d1ddb2d	0.0385391
95	0x3e199a0a	0.15000167
96	0x3d4c2e7c	0.04984902
97	0x3d27b514	0.040944174
98	0xbea386ec	-0.31938875
99	0xbe0dffe8	-0.13867152
100	0xb9f70246	-0.00047113205
101	0x3e1b697c	0.15176958
102	0x3dcb429f	0.09924816
103	0xbdcce9b3	-0.10005512
104	0xbe0b585f	-0.1360793
105	0xbdf2dcb0	-0.11858499
106	0x3d17a589	0.0370231
107	0xbe307edb	-0.17235892
108	0x3c1d13af	0.0095872125
109	0xbd69ef14	-0.05711277
110	0xbd01eebf	-0.031721827
111	0x3e1ff674	0.15621358
112	0x3b5c5a55	0.0033623178
113	0x3aacaf64	0.0013174829
114	0xbdb1e713	-0.08686652
115	0x3eb81f8c	0.35961568
116	0x3e71ecab	0.23625438
117	0xbeafd60d	-0.34342995
118	0xbd798f14	-0.060927466
119	0x3d82b3c4	0.06381944
120	0x3d8b82ac	0.06812033
121	0xbe92a04a	-0.28637916
122	0x3c8d02b7	0.017213209
123	0xbef9978d	-0.48748437
124	0xbdbceca5	-0.09224824
125	0x3d98d071	0.07461632
126	0x3bc2e89c	0.0059481394
127	0xbe9f4e6e	-0.31114525
128	0x3db89e9c	0.09014627
129	0xbe86b79b	-0.26311955
130	0xbe1550f0	-0.14581656
131	0xbdb5863e	-0.08863495
132	0x3dee102d	0.11624179
133	0x3d68765e	0.05675351
134	0xbd22b3e9	-0.039722357
135	0xbe22d917	-0.15903126
136	0xbdb9dc3f	-0.09075212
137	0x3e996db2	0.29966503
138	0x3d95b01b	0.0730898
139	0x3de3d337	0.111242704
140	0xbd9566ad	-0.072949745
141	0x3b3bfb74	0.0028683813
142	0xbe5f2805	-0.2179261
143	0xbd840116	-0.064455196
144	0x3d793709	0.0608435
145	0xbd709e83	-0.05874492
146	0x3d3e2138	0.0464184
147	0xbcdafd5a	-0.026732136
148	0x3d1c439b	0.03815041
149	0xbdf53863	-0.119736455

model.6.weight f4 [22, 150]
0	0xba6ff345	-0.00091533764
1	0xbc90e9d7	-0.017689629
2	0xbbaa1abc	-0.0051911753
3	0x3ac8949d	0.0015303079
4	0x3a61a988	0.0008608331
5	0x3aab66ad	0.0013076864
6	0xbc35e8c9	-0.011102864
7	0x3a2361d2	0.0006232533
8	0xbadf94d6	-0.0017057906
9	0x3d09c62e	0.033636265
10	0x3c825da4	0.015913792
11	0x3c7fe65c	0.015618887
12	0xb9f7c722	-0.00047259877
13	0x3c6c558b	0.014424692
14	0xbd8a2b80	-0.06746578
15	0x39914868	0.00027710502
16	0xba054225	-0.00050834037
17	0xbca7d9bf	-0.020489572
18	0xbc6870ca	-0.014187047
19	0x3b27e82d	0.0025620565
20	0xbe03c4bf	-0.12868021
21	0x3b306893	0.00269178
22	0x3c1a61ae	0.009422703
23	0x3aa4310e	0.0012526826
24	0x3be8d85c	0.00710587
25	0xbbeb1d65	-0.007175135
26	0xbdbf719a	-0.0934784
27	0x3e186159	0.14880885
28	0xb9700f4f	-0.00022893886
29	0xba74cce7	-0.0009338394
30	0x3c4113ec	0.011784535
31	0x3c9e4ec0	0.01932466
32	0x3c150853	0.009096223
33	0xbe0945ca	-0.13405529
34	0xbb17af69	-0.0023145324
35	0x3c41405f	0.011795132
36	0x3de42f91	0.11141885
37	0xbcaf2863	-0.021381563
38	0x3d846bf2	0.064659014
39	0xbc915240	-0.017739415
40	0xbca92821	-0.020649018
41	0xba12b09a	-0.00055957737
42	0xbc4a8fba	-0.012363369
43	0xb889ac4a	-6.5647604e-05
44	0xba00e8ed	-0.0004917521
45	0x3b672c37	0.0035274157
46	0xbb740c89	-0.0037238917
47	0xbcc79c9e	-0.024366673
48	0xb74d5342	-1.2238337e-05
49	0xbcbafcb1	-0.02282557
50	0x3d1ea75f	0.038733836
51	0xbc59af36	-0.013286402
52	0xbbca2715	-0.0061692097
53	0xbb0b4e27	-0.00212563
54	0x3ca31038	0.019905195
55	0x3b133c19	0.002246624
56	0x3a8f7581	0.0010945053
57	0xbc28abf7	-0.010294906
58	0xbcea7b19	-0.02862315
59	0x3b0fa375	0.0021917496
60	0x3dfdf46a	0.12400134
61	0x3bd206fc	0.006409524
62	0xbdc1175e	-0.09428285
63	0x3b04b9b1	0.0020252282
64	0xba627788	-0.00086390274
65	0xb913d584	-0.00014098553
66	0x3c67e14f	0.014152839
67	0xbc88fd35	-0.016722301
68	0xbc044892	-0.008073943
69	0x37de3bd2	2.6492318e-05
70	0x3c114663	0.008866879
71	0xbb45216a	-0.003007973
72	0x3c17293b	0.009226139
73	0xbb611e7d	-0.0034350448
74	0x3dcf10ba	0.10110612
75	0xb9abd71b	-0.00032775928
76	0xbb260ab1	-0.0025335962
77	0xbab5d2c3	-0.0013872016
78	0x3caf0017	0.021362348
79	0x3d06c293	0.032900404
80	0x3a3015c4	0.00067171105
81	0x3da0a5e0	0.07844138
82	0x3d41ec7d	0.047344673
83	0xbb179a28	-0.0023132656
84	0x3ae1f151	0.0017238056
85	0xbb638cc3	-0.0034721352
86	0xbcb25acf	-0.021771817
87	0x3b330684	0.0027317116
88	0xbc876659	-0.016528295
89	0xbc6a1721	-0.014287741
90	0xbac3e737	-0.0014946227
91	0xba25f3b5	-0.00063305657
92	0x386538ae	5.465064e-05
93	0x3d8c036a	0.06836589
94	0x3be0a3ed	0.006855479
95	0xbe49455d	-0.19655366
96	0x3b8521e0	0.004062876
97	0xbb23758d	-0.0024941892
98	0x3e021f0f	0.1270716
99	0xbd093e66	-0.033506773
100	0xbc1061dd	-0.008812395
101	0xbd03afd4	-0.032150105
102	0x3dc808af	0.09767281
103	0xbaafd3a7	-0.0013414518
104	0x3c8ab0be	0.01692998
105	0x39bfc826	0.0003657948
106	0xbacd60b7	-0.0015669082
107	0x3d5c5a77	0.05379721
108	0xbd5bc8ed	-0.053658415
109	0x3ae18c7a	0.0017208003
110	0xbc08d071	-0.008350478
111	0xbce0a977	-0.027424557
112	0xbb4f41e6	-0.0031624972
113	0x3b172eca	0.002306866
114	0xba9aed27	-0.0011819944
115	0xbd78bc12	-0.060726233
116	0xbc86ad77	-0.016440136
117	0x3db7cc5c	0.08974525
118	0xba8855cc	-0.0010401546
119	0xbadb5357	-0.0016733211
120	0xbc264026	-0.01014713
121	0xbc819453	-0.015817797
122	0xb9db6800	-0.0004184842
123	0x3d1b8c17	0.037975397
124	0x3b6fe439	0.0036604537
125	0x3aaf9f39	0.0013398892
126	0x3b2f4aa0	0.002674736
127	0xbd829c02	-0.063774124
128	0xbb0b298d	-0.0021234483
129	0x3bd921d4	0.006626347
130	0x3a94599d	0.0011318211
131	0xbbfb0544	-0.00766054
132	0xbb078ffe	-0.0020685191
133	0x3a3bbce8	0.0007161633
134	0xba91b0b5	-0.0011115285
135	0x3d5c43fc	0.053775772
136	0x3d4cf71a	0.050040342
137	0xbddffc19	-0.10936756
138	0xbaa1f6e1	-0.0012356901
139	0x38d51807	0.00010161107
140	0x3c0c5e8b	0.008567463
141	0x3ac1f33a	0.0014797219
142	0xbbeb32be	-0.00717768
143	0xbac03683	-0.0014664683
144	0x3a0de48e	0.00054127804
145	0xbaefebbf	-0.0018304511
146	0x3b612dea	0.0034359642
147	0xb923dbfc	-0.00015626842
148	0xbabfb942	-0.0014627355
149	0xba7b3dec	-0.0009584117
150	0xb9c08508	-0.0003672021
151	0x3e35974b	0.17733495
152	0xba25926a	-0.0006316068
153	0xba824e5d	-0.0009941567
154	0xb9b0c4f0	-0.00033716066
155	0xbb206331	-0.0024473185
156	0x3d0264f9	0.031834576
157	0xb95e5223	-0.00021202168
158	0xba25597c	-0.00063075847
159	0x3ce307a0	0.027713597
160	0x3c70f6c9	0.014707276
161	0xbd0349b6	-0.032052718
162	0x3a16f3a8	0.00057583535
163	0x3c464f85	0.01210392
164	0xbce7ac7f	-0.028280495
165	0x3a7a49cd	0.00095477403
166	0xba81c4b0	-0.0009900536
167	0x3e5daca0	0.21647882
168	0xbc718f20	-0.014743596
169	0x3a54dbb4	0.00081198965
170	0xbd5485a9	-0.05188528
171	0x3b45147c	0.0030072024
172	0x3ba5ea00	0.0050632954
173	0xbb08464a	-0.0020793849
174	0x3c0cfd9b	0.008605386
175	0xbb4b5dcb	-0.0031031247
176	0x3c39f636	0.011350205
177	0xbc86a362	-0.016435329
178	0xbdb65c10	-0.08904278
179	0x3a8f7bce	0.0010946931
180	0x3c8f06a7	0.017459227
181	0xbd1c5f81	-0.038177017
182	0xbac59dd6	-0.0015076946
183	0x3c17d66b	0.00926743
184	0xbbe052e8	-0.0068458207
185	0xbd913caa	-0.07091649
186	0x3d2b9fdc	0.0419005
187	0x3dcf95e4	0.10136011
188	0x3c9d41ea	0.01919647
189	0xbc189869	-0.009313681
190	0x3cef9ea8	0.029250458
191	0x38c35e19	9.315852e-05
192	0x3cc3035a	0.02380531
193	0x3a8aef46	0.0010599873
194	0xbb1cac25	-0.0023906317
195	0x3bc89ff5	0.006122584
196	0x3a9bed36	0.0011896256
197	0xbc8cb76d	-0.017177308
198	0x3b6995eb	0.0035642337
199	0xbc126eaa	-0.008937517
200	0xbc5f2049	-0.013618537
201	0xbc2b4c79	-0.010455244
202	0xbbfa3526	-0.0076357303
203	0xbab50340	-0.0013810173
204	0x3b87ae1f	0.00414063
205	0x3ae4013b	0.0017395386
206	0x37f90836	2.9686937e-05
207	0x3dc7faa4	0.09764603
208	0xbcec7219	-0.028863
209	0x3a119706	0.0005553815
210	0xbc5025cf	-0.012704327
211	0xbb6aaf6c	-0.0035810126
212	0x3c114a2f	0.008867784
213	0xb7dafec4	-2.610626e-05
214	0xbb54d0da	-0.0032473118
215	0xbb2ee901	-0.0026689174
216	0x3c09bdcf	0.00840707
217	0xbd41f7ab	-0.047355335
218	0x3e2a77fd	0.16647334
219	0xbb30f826	-0.0027003377
220	0xbd0f0e5b	-0.0349258
221	0xbad90ed7	-0.0016560209
222	0x3c11c1c1	0.008896292
223	0xb7d17fcc	-2.4974252e-05
224	0xbc5e23c8	-0.013558336
225	0x39a3033a	0.00031092187
226	0x3a941215	0.0011296893
227	0xbb322c3c	-0.002718701
228	0x3c8cd855	0.017192999
229	0x3d3aeaf8	0.04563424
230	0x3a7b28db	0.0009580978
231	0xbc6233a6	-0.013806259
232	0x3dc9d9e9	0.09856016
233	0xbdf79851	-0.12089599
234	0xbab4c28d	-0.0013790891
235	0xb9362b61	-0.00017373032
236	0xbca075ab	-0.019587358
237	0x3b284809	0.0025677702
238	0x3c0dafa7	0.008647836
239	0xbc63b597	-0.013898275
240	0xbbdf598d	-0.006816095
241	0x3a7117b8	0.0009196955
242	0x37f70254	2.9445779e-05
243	0x3da374a3	0.07981231
244	0x3d845d3f	0.06463098
245	0x3c98840d	0.018617654
246	0xbc2c16cd	-0.010503483
247	0xbb3341ff	-0.002735257
248	0xbb624a7e	-0.0034529264
249	0x3dea61ce	0.11444436
250	0x3c485068	0.012226202
251	0x3db4985b	0.08818122
252	0x3bba8d51	0.0056931158
253	0x3afb9324	0.0019193632
254	0x3c9da7b8	0.019245014
255	0x3a80d4f8	0.0009829095

model.6.bias f4 [22]
0	0xbd0c6bc7	-0.034282472
1	0x3a4b60ce	0.00077582605
2	0xbd551f62	-0.052031882
3	0xbdce62e3	-0.10077455
4	0x3dbb7908	0.09153944
5	0x3d2d54e3	0.042317282
6	0x3dfb6b02	0.122762695
7	0x3d224440	0.03961587
8	0x3ddb0897	0.10694998
9	0x3cea25c8	0.028582469
10	0xbcd755af	-0.026285974
11	0xbd640910	-0.055672705
12	0xbcceeeeb	-0.02526041
13	0xbc530d06	-0.012881523
14	0x3dab4e86	0.083645865
15	0xbc05ec5a	-0.008174026
16	0x3d855af9	0.06511492
17	0xbd1cae0b	-0.038251918
18	0x3cd57cbd	0.026060456
19	0x3d9c8679	0.07642836
20	0x3d2c0172	0.041993566
21	0x3c780cb5	0.015139748
